manually_saved_runs/naive_ddpg_1/actor.pt (torch, 276359 bytes, 6 tensors)

net.0.weight f4 [256, 8]
-0.4825415 0.2905668 0.6573932 0.20754613 0.057291 1.3894804 -0.54945284 -0.3802834
0.06328151 0.16302228 -0.038485244 1.0272334 0.74484056 -0.6575257 -1.1036432 0.33299005
0.7937207 -0.0050865132 0.5722675 0.07997727 -0.5135102 0.19574971 -0.044769198 0.41078863
0.3383728 -0.2581203 -0.1530372 0.14111094 -0.38464034 0.27512586 -0.26658788 -0.0494426
-0.5182077 -0.89980024 -0.840162 0.45379776 0.19673236 0.5566019 0.030767996 -0.1121389
-0.0958244 0.1642835 -1.3231256 0.38313365 -0.12598324 0.40908116 0.054985236 -0.5510698
0.6669067 -0.4945188 0.25708622 0.438542 0.2759466 -0.17550506 -0.4901632 0.17492402
0.183172 -0.09670439 -0.017317064 -0.803024 0.12810528 -1.0556042 -0.27676558 -0.15656143
-0.5119199 0.3434714 0.42086673 0.15999162 0.50058544 -0.54018766 -0.5697416 -0.48942947
0.12542997 0.24008042 -0.9929487 1.6720184 -0.28708673 -1.253811 -0.37189966 -0.6686076
-0.56497437 0.4752747 -0.36115873 -0.4892876 -0.3230261 0.40874395 -0.044745687 0.13159254
0.9838306 0.110624544 -0.52445054 0.44474944 0.97911644 0.11184917 -0.32900542 -0.6786424
-0.21633977 -0.39735347 0.19926256 0.59942526 0.64840525 -0.37116045 0.0111235315 -0.04106616
-0.25734374 -0.57575125 -0.17924279 -0.695237 -0.11055201 -0.4940342 -0.20250142 -0.15251194
0.05023845 -0.33247504 -0.32711163 0.15178205 0.11221346 -0.7833639 0.06781185 -0.29316247
0.0775695 -0.16123478 -0.022057565 -0.24254139 0.35629454 0.22306062 -0.4088755 -0.106236264
0.36047593 -0.39922842 0.009739016 -0.060525425 0.115221456 0.18679613 0.56018525 0.06423813
0.31647167 0.08366926 0.43356246 -0.41635886 0.710058 0.20375049 0.22730051 0.3038211
0.21336605 0.028829781 -0.17470877 0.12386461 -0.32919616 -0.20619978 -1.0055406 0.13943145
0.54781884 -0.6105447 0.24865757 0.33757457 -0.0013366723 -0.29809818 0.30176213 -0.25948545
-0.058389924 -1.101059 -0.4876329 -1.4215413 -0.16270761 0.32519817 -0.08739914 -0.008866157
-0.24860138 -0.85335517 0.36920363 -1.131006 -0.18359344 0.6316778 -0.06840744 -0.068935454
0.026923843 0.20035356 -1.1907492 1.4648703 -0.2337102 0.38397256 0.17585486 -0.14216314
0.100115255 -0.624442 0.36420795 -0.12699793 0.59980243 -0.42471707 0.032878865 -0.20333636
0.1421921 0.45768195 -0.21118635 -0.07624892 0.3811532 0.5672444 0.32456997 -0.40364614
0.29657868 0.060743056 0.3510961 0.3588274 -0.7493942 1.2192982 0.22922972 -0.40028125
-0.5793875 0.35042462 -0.3806193 0.94777393 -0.17634888 -0.074935935 -0.6345726 -0.39526448
0.050881375 0.24408546 0.0319968 0.6687268 -0.0072484654 -0.070106015 -0.14343636 -0.12126954
0.106103346 -0.10150886 0.08032244 0.000980535 1.0237899 -0.11031887 -0.09440248 -0.53154635
-0.12396048 0.40737182 0.8386365 -0.4994481 -0.6138849 0.33332136 0.18552284 -0.016090209
0.09741708 -2.0785725 0.13518251 0.23896983 -0.49399546 -0.32262713 0.17220336 -0.055535443
0.768881 -0.07195411 -0.35670984 0.5401101 -0.15829568 -0.41308603 -0.6899307 -0.12031325
00000000: ae0f f7be 2cc5 943e ec4a 283f f986 543e
00000010: f8a9 6a3d 7eda b13f f1a8 0cbf 81b4 c2be
00000020: bc99 813d 50ef 263e b4a2 1dbd 627c 833f
00000030: dfad 3e3f 9b53 28bf 2e44 8dbf ac7d aa3e
00000040: 4831 4b3f c4ac a6bb 1f80 123f 1fcb a33d
00000050: 6875 03bf 9d72 483e e85f 37bd e352 d23e
00000060: 333f ad3e 5828 84be c9b5 1cbe 637f 103e
00000070: 94ef c4be 4cdd 8c3e 357e 88be 5384 4abd
00000080: 43a9 04bf 4f59 66bf db14 57bf 2e58 e83e
00000090: 3574 493e 767d 0e3f 2a0d fc3c 14a9 e5bd
000000a0: 953f c4bd ef39 283e 2e5c a9bf 182a c43e
000000b0: c001 01be 1673 d13e 3338 613d e912 0dbf
000000c0: 66ba 2a3f 9131 fdbe cea0 833e 9488 e03e
000000d0: df48 8d3e 99b7 33be acf6 fabe 481f 333e
000000e0: 7191 3b3e f40c c6bd 84dc 8dbc fb92 4dbf
000000f0: 082e 033e 0a1e 87bf 38b4 8dbe a451 20be
00000100: 2f0d 03bf 7cdb af3e d87b d73e d8d4 233e
00000110: 5e26 003f bd49 0abf 96da 11bf 8096 fabe
00000120: b770 003e a4d7 753e e331 7ebf b304 d63f
00000130: 08fd 92be e17c a0bf a269 bebe de29 2bbf
00000140: 29a2 10bf 3557 f33e cce9 b8be e883 fabe
00000150: ad63 a5be e346 d13e 4147 37bd 32c0 063e
00000160: 52dc 7b3f 1f8f e23d 6442 06bf 33b6 e33e
00000170: 60a7 7a3f 2d11 e53d 6673 a8be 82bb 2dbf
00000180: 2c88 5dbe ea71 cbbe 7c0b 4c3e ef73 193f
00000190: e3fd 253f be08 bebe 793f 363c fd34 28bd
000001a0: 8fc2 83be 6f64 13bf 6c8b 37be 0dfb 31bf
000001b0: 1869 e2bd 0df2 fcbe 885c 4fbe 172c 1cbe
000001c0: d5c6 4d3d 2b3a aabe 2d7b a7be c16c 1b3e
000001d0: 2cd0 e53d 898a 48bf f0e0 8a3d 6419 96be
000001e0: c2dc 9e3d bb1a 25be 11b2 b4bc c55c 78be
000001f0: 3d6c b63e 016a 643e 2158 d1be 6692 d9bd
00000200: 4d90 b83e ab67 ccbe 6590 1f3c 82e9 77bd
00000210: 3af9 eb3d 7c47 3f3e 4d68 0f3f 488f 833d
00000220: 9308 a23e ca5a ab3d e6fb dd3e fd2c d5be
00000230: 5cc6 353f f8a3 503e 77c1 683e 708e 9b3e
00000240: a17c 5a3e 6f2c ec3c dbe6 32be bbac fd3d
00000250: 668c a8be 0926 53be 8eb5 80bf 1ec7 0e3e
00000260: db3d 0c3f a84c 1cbf 17a0 7e3e 93d6 ac3e
00000270: 4833 afba 53a0 98be 9180 9a3e 47db 84be
00000280: 462a 6fbd 80ef 8cbf 05ab f9be 11f5 b5bf
00000290: d39c 26be 6080 a63e 52fe b2bd 5c43 11bc
000002a0: 5c91 7ebe 7c75 5abf 4208 bd3e cec4 90bf
000002b0: ebff 3bbe a3b5 213f 3319 8cbd 082e 8dbd
000002c0: 648f dc3c 7c29 4d3e 786a 98bf df80 bb3f
000002d0: ba51 6fbe 0d98 c43e 4c13 343e 3793 11be
000002e0: 3a09 cd3d 6edb 1fbf 7779 ba3e bf0b 02be
000002f0: a78c 193f 8474 d9be fdab 063d 6837 50be
00000300: ce9a 113e 4a55 ea3e 3c41 58be 6528 9cbd
00000310: 8326 c33e ee36 113f 092e a63e b5aa cebe
00000320: 29d9 973e b6cd 783d dec2 b33e 3ab8 b73e
00000330: 4cd8 3fbf f711 9c3f 32bb 6a3e aaf1 ccbe
00000340: bd52 14bf db6a b33e 88e0 c2be 50a1 723f
00000350: cd94 34be 0378 99bd 5a73 22bf 1b60 cabe
00000360: fd68 503d 8af1 793e 140f 033d ae31 2b3f
00000370: 8984 edbb be93 8fbd fbe0 12be 2a5c f8bd
00000380: b64c d93d e1e3 cfbd 1780 a43d 4c85 803a
00000390: 8c0b 833f dcee e1bd 1656 c1bd 6c13 08bf
000003a0: fede fdbd 0a93 d03e e2b0 563f a9b7 ffbe
000003b0: 9027 1dbf 19a9 aa3e b3f9 3d3e 9dcf 83bc
000003c0: 9b82 c73d 5507 05c0 496d 0a3e 82b4 743e
000003d0: f9ec fcbe 622f a5be 1456 303e 2279 63bd
000003e0: 63d5 443f ad5c 93bd aca2 b6be a844 0a3f
000003f0: 4318 22be 0380 d3be 4c9f 30bf cb66 f6bd

net.0.bias f4 [256]
-0.6967531 -0.025904948 -0.1651085 0.24353854 0.13026953 -0.124305956 0.27157786 0.15289782
-0.18116546 -0.011332745 -0.30093902 -0.19224662 0.084739305 0.254513 0.24449378 0.12206392
0.32961 -0.3389366 0.27585727 0.2282767 0.07159892 0.1908373 0.060225874 0.20347302
-0.060548607 0.16903889 -0.0045837294 0.3470939 0.0905133 -0.11619717 0.38737246 0.13087943
-0.40620267 -0.12948969 -0.06310261 0.14923392 0.15906812 0.12225277 0.28597873 0.22855218
-0.19234021 -0.15689585 0.0061451686 0.3033998 0.1412354 -0.4098868 0.34707174 0.18429895
0.27243504 -0.235098 -0.2791689 0.22605512 -0.22169954 -0.081062175 -0.15591557 0.11434105
0.31895405 -0.12710935 0.2006605 0.044837788 0.29928353 0.10744425 -0.09851466 0.0686568
-0.56337357 0.18135378 0.30143404 -0.38682604 0.3864381 -0.0076039857 0.037700504 0.084718496
-0.022881532 0.30801615 -0.107617304 -0.34432313 -0.0401926 0.3353878 -0.06640106 -0.04517001
0.247217 0.0071116867 0.25675094 -0.2636882 -0.22205281 -0.53106004 0.09055769 -0.0826944
-0.25701377 0.3043552 -0.105094045 0.35767084 -0.09464506 0.023760514 -0.18555242 -0.21995328
-0.02769335 0.05712176 0.18281361 0.1238383 0.11088124 -0.16400835 0.028693447 0.16977626
0.15973622 0.088108756 -0.3150693 0.22958528 0.007037674 -0.025475802 -0.29349878 -0.2172209
0.026419258 -0.32181674 0.21024248 -0.22238958 -0.0109287845 -0.07708174 0.199395 0.34884033
-0.27469555 0.1328223 -0.061184824 -0.23135766 0.06622185 -0.08088648 -0.15037811 -0.46022853
0.08095969 -0.23697446 -0.573085 0.12216502 -0.022578401 0.11104069 0.05081165 0.09963876
-0.018763214 0.27339876 -0.043515738 -0.44426173 0.14388105 -0.2598197 0.35950854 0.3836956
0.22335993 0.3700535 -0.12277628 -0.20958643 -0.5040493 -0.18877661 -0.13159415 0.050984338
-0.08266714 0.12997104 0.034370337 0.35956687 -0.06806037 -0.22256637 -0.3620759 0.43716615
0.26865005 0.26617837 0.10094851 -0.38841233 0.009484794 -0.31022656 0.16195343 -0.042301945
0.09286387 -0.2745046 0.010550119 -0.01320558 0.121480644 -0.09331185 0.05816945 0.080643915
0.03771959 0.09207026 0.2157201 0.45935258 -0.467883 0.22229479 -0.12573352 0.15021184
-0.0093476605 0.25383708 -0.4367061 -0.12869717 -0.41561633 0.08931307 -0.11784866 -0.24646376
0.094313055 0.24136934 -0.115485474 -0.11885123 0.38328737 0.18183734 -0.1749511 0.24073882
0.34115958 -0.0335561 -0.11532222 -0.083560504 0.146103 -0.27377498 -0.32286116 -0.1334034
0.22741796 0.20297025 0.074645616 0.12983163 -0.07770275 -0.06849922 0.30456758 -0.3038723
-0.055560127 -0.04893625 -0.043830257 0.29589233 -0.39488623 0.18467608 -0.5891868 -0.03717596
0.021966355 0.13960855 0.23883761 -0.047600612 -0.09785256 -0.1949808 -0.27098495 -0.26523694
-0.17708126 -0.20934728 -0.24698162 0.14173357 -0.32628205 -0.27237216 0.053279296 -0.0009744824
0.22547694 -0.1690376 0.10875187 0.029233329 0.12620442 -0.02407717 -0.3472498 -0.14303654
-0.6467488 0.23817024 0.30263585 0.119284116 0.22770946 -0.24233715 -0.13966839 -0.0054325857
00000000: 695e 32bf 9d36 d4bc 3412 29be 2b62 793e
00000010: 6065 053e 1f94 febd 410c 8b3e 3f91 1c3e
00000020: 7083 39be faac 39bc ae14 9abe 4cdc 44be
00000030: cd8b ad3d 874f 823e 945c 7a3e a6fc f93d
00000040: a4c2 a83e 1989 adbe 2a3d 8d3e 5ec1 693e
00000050: 74a2 923d da6a 433e 68af 763d 3b5b 503e
00000060: d101 78bd 8818 2d3e 1c33 96bb 4bb6 b13e
00000070: 095f b93d c8f8 edbd af55 c63e 4205 063e
00000080: ccf9 cfbe f298 04be f13b 81bd c7d0 183e
00000090: c1e2 223e a95f fa3d ce6b 923e 9509 6a3e
000000a0: d5f4 44be 4ea9 20be 695d c93b 3857 9b3e
000000b0: 03a0 103e afdc d1be 63b3 b13e ddb8 3c3e
000000c0: 9b7c 8b3e 88bd 70be 3aef 8ebe fe7a 673e
000000d0: 3405 63be ed03 a6bd 55a8 1fbe a42b ea3d
000000e0: f24d a33e f428 02be f279 4d3e d4a7 373d
000000f0: b13b 993e bb0b dc3d 0ec2 c9bd f09b 8c3d
00000100: 4039 10bf ceb4 393e 9055 9a3e 100e c6be
00000110: 37db c53e db2a f9bb d86b 1a3d e480 ad3d
00000120: 0d72 bbbc 4bb4 9d3e 7666 dcbd 1f4b b0be
00000130: ffa0 24bd f3b7 ab3e 47fd 87bd 3004 39bd
00000140: 7426 7d3e 2709 e93b dc74 833e 2402 87be
00000150: d061 63be 8df3 07bf 4f76 b93d ae5b a9bd
00000160: 4f97 83be 72d4 9b3e 8c3b d7bd a220 b73e
00000170: 45d5 c1bd 69a5 c23c 7401 3ebe 6f3b 61be
00000180: 2add e2bc 82f8 693d 7e33 3b3e ef9e fd3d
00000190: b415 e33d cef1 27be 850e eb3c d4d9 2d3e
000001a0: e491 233e 5d72 b43d c350 a1be 6718 6b3e
000001b0: 4a9c e63b a1b2 d0bc 7945 96be 286f 5ebe
000001c0: 336d d83c 2ac5 a4be ce49 573e 18ba 63be
000001d0: a50e 33bc 08dd 9dbd 342e 4c3e 339b b23e
000001e0: e5a4 8cbe 9202 083e f09c 7abd 06e9 6cbe
000001f0: 529f 873d d0a7 a5bd b8fc 19be 13a3 ebbe
00000200: 32ce a53d 6fa9 72be b3b5 12bf a731 fa3d
00000210: 57f6 b8bc 4d69 e33d e01f 503d 680f cc3d
00000220: 50b5 99bc ecfa 8b3e 8f3d 32bd 4676 e3be
00000230: 8e55 133e 1607 85be 8111 b83e c073 c43e
00000240: 77b8 643e a777 bd3e 2172 fbbd d39d 56be
00000250: 6009 01bf a84e 41be 9ec0 06be f4d4 503d
00000260: 644d a9bd 2117 053e e9c7 0c3d 2619 b83e
00000270: 3c63 8bbd 70e8 63be 0362 b9be 3ed4 df3e
00000280: 808c 893e 8848 883e 18be ce3d fbdd c6be
00000290: 1c66 1b3c 04d6 9ebe 1fd7 253e ce44 2dbd
000002a0: 6a2f be3d de8b 8cbe 68da 2c3c 385c 58bc
000002b0: d8ca f83d 491a bfbd 1743 6e3d a328 a53d
000002c0: db7f 1a3d 558f bc3d bbe5 5c3e 4330 eb3e
000002d0: 5c8e efbe 3fa1 633e 4ac0 00be 22d1 193e
000002e0: ee26 19bc eff6 813e f197 dfbe 31c9 03be
000002f0: aacb d4be c5e9 b63d a35a f1bd ff60 7cbe
00000300: 3427 c13d 8629 773e a683 ecbd 4668 f3bd
00000310: 3e3e c43e 9133 3a3e 6226 33be 3d84 763e
00000320: 78ac ae3e 1f72 09bd 0e2e ecbd c521 abbd
00000330: 069c 153e 3c2c 8cbe 0f4e a5be e79a 08be
00000340: 41e0 683e 6fd7 4f3e cddf 983d 95f2 043e
00000350: 9f22 9fbd 5249 8cbd 48f0 9b3e 2695 9bbe
00000360: 0493 63bd 6171 48bd 5b87 33bd 337f 973e
00000370: 872e cabe ba1b 3d3e f2d4 16bf d245 18bd
00000380: c9f2 b33c 8bf5 0e3e d991 743e dcf8 42bd
00000390: ec66 c8bd 0ca9 47be 8abe 8abe 23cd 87be
000003a0: ca54 35be 225f 56be c0e8 7cbe 9b22 113e
000003b0: 710e a7be 5d74 8bbe 643b 5a3d 6874 7fba
000003c0: 6de3 663e 3118 2dbe 4db9 de3d bc7a ef3c
000003d0: bb3b 013e 7c3d c5bc baca b1be 2c78 12be
000003e0: 5491 25bf e6e2 733e 16f3 9a3e 3b4b f43d
000003f0: ab2c 693e 3b27 78be 3b05 0fbe d503 b2bb

net.2.weight f4 [256, 256]
0.25443983 0.26801866 -0.024043 0.053642504 0.5842548 -0.14059478 -1.0939385 -0.043083556
0.03346955 -0.017245278 0.0650532 -0.23583123 -0.8086764 0.12968083 0.0317995 -0.53794485
-0.9564931 0.17443673 0.1613549 -0.2490121 -0.40560952 -0.980793 0.2299897 -0.75420856
-0.09141266 0.24254203 0.2608044 0.1885782 -0.32510445 -0.050784077 0.0006384867 0.007345953
0.25293943 -0.031488866 -0.05890829 0.050484072 -0.47966737 -0.7778135 0.29212672 0.030025415
-0.34507957 0.09003453 0.15709423 0.0412473 -0.07467969 0.1119864 -0.58068603 -0.052774694
0.25753883 -0.385751 -0.03811195 0.03766944 -0.25361708 0.25009656 -0.16203712 -0.053939983
-0.35246086 -0.21597981 0.14660396 0.2482041 -0.061596174 -0.23065637 -0.3306658 -0.16760631
0.5032484 -0.10524611 -0.29164505 -0.35667187 0.05352682 -0.10607389 0.2834905 0.08027513
-0.25218824 -0.5599593 -0.14032283 0.09831549 0.017695345 -0.20346822 0.0054592863 -0.2726251
0.10997603 -0.44044203 -0.10393311 0.0046137827 -0.257092 -0.2324031 0.093314685 -0.38646597
-0.01399305 0.055922173 0.114264384 0.0654478 -0.39260718 0.011886027 0.017635122 -0.1724726
-0.3831489 0.12903747 -0.26453477 -0.13416779 -0.5874615 -0.11883897 -0.34996527 -0.21695137
-0.04473081 -0.05852199 0.24690686 0.20612022 -0.12569025 -0.4789185 -0.11335082 0.1168401
-0.80338305 0.3780075 -0.6469993 0.03685216 -0.42400143 0.24602413 -0.044328403 -0.2143861
-0.5740914 -0.1995308 -0.07509272 -0.25888106 -0.59489405 0.030241022 0.012176674 -0.6407816
0.20729409 -0.20610622 0.07916446 0.059563324 -0.21841569 -0.31109193 0.21496627 -0.04134244
0.08321127 -0.6416019 -0.09146965 -0.073084034 0.020335538 0.060491003 -0.04879747 0.23080626
0.29059082 0.11754876 -0.19823228 -0.47330564 0.15680964 0.10745471 -0.22734916 0.10754131
0.17397638 0.23085625 0.10435829 -0.18666619 0.093206175 0.094573796 0.1713727 0.0055823238
0.054482535 0.013792105 -0.3910484 -0.4788085 -0.26501378 -0.1642112 0.3734433 -0.23670235
-0.34793535 0.021199679 0.022823378 -0.14254801 -0.790504 -0.21490303 -1.0128467 -0.15176164
0.04480278 -0.031168256 -0.60243934 -0.008629864 -0.17051762 -0.5219927 0.101961985 0.17172413
0.03858506 -0.011489586 0.18010135 0.03407613 -0.8021104 -0.44435635 0.2947562 -0.3146755
-1.1624917 0.13812152 0.13059688 -0.3768456 -0.16631499 0.033943567 -0.5811555 -0.5509514
-0.43055132 -0.19976659 0.14377706 -0.32194144 -0.03759005 0.23981382 0.28191775 -0.15982316
0.08854533 -0.05276729 -0.021566246 0.053499665 0.0052197543 -0.3648851 -0.85733384 -0.19630338
-0.20182322 -0.10181213 0.1497317 -0.22747685 -1.0720212 0.26112753 -0.14624278 -0.302559
-0.02891009 -0.49057734 0.27960187 0.210394 -0.03757387 -0.05780759 0.25553188 -0.4705605
0.05542342 -0.2926028 -0.11828899 0.043528184 -0.007549855 0.12531506 -0.15154786 -0.103048295
0.32037038 -0.0023767368 0.20308417 0.13041884 -0.076405436 0.20714532 0.03915711 0.05568331
0.09662244 -0.8030188 0.15482122 -0.06769756 0.0077787247 -0.10764717 -0.3299644 0.11931973
00000000: f045 823e be39 893e d3f5 c4bc 3eb8 5b3d
00000010: b991 153f 14f8 0fbe 2d06 8cbf 6278 30bd
00000020: 5e17 093d f845 8dbc 9d3a 853d be7d 71be
00000030: 6b05 4fbf 0dcb 043e 3140 023d c1b6 09bf
00000040: bbdc 74bf 8b9f 323e 383a 253e 07fd 7ebe
00000050: 0dac cfbe 4015 7bbf 6b82 6b3e d013 41bf
00000060: 9036 bbbd f05c 783e 2888 853e a51a 413e
00000070: 1774 a6be f702 50bd 1e60 273a 52b6 f03b
00000080: 4781 813e 78fa 00bd d249 71bd 63c8 4e3d
00000090: f696 f5be c91e 47bf a291 953e dcf7 f53c
000000a0: 45ae b0be 0664 b83d 4fdd 203e eef2 283d
000000b0: aaf1 98bd 2059 e53d d7a7 14bf 472a 58bd
000000c0: 21dc 833e 2881 c5be 471b 1cbd 454b 1a3d
000000d0: 19da 81be a80c 803e 0fed 25be 2cf0 5cbd
000000e0: c075 b4be d029 5dbe 591f 163e 3729 7e3e
000000f0: 454c 7cbd 2f31 6cbe 074d a9be fda0 2bbe
00000100: e3d4 003f 468b d7bd 8052 95be b29d b6be
00000110: f03e 5b3d 453d d9bd ab25 913e 4a67 a43d
00000120: d11e 81be 7e59 0fbf cab0 0fbe a259 c93d
00000130: d4f5 903c f959 50be d0e3 b23b 8495 8bbe
00000140: 1d3b e13d 9e81 e1be e2da d4bd 372f 973b
00000150: 90a1 83be 14fb 6dbe c51b bf3d dede c5be
00000160: 1b43 65bc a60e 653d 7203 ea3d 7f09 863d
00000170: cf03 c9be 9cbd 423c 8877 903c a89c 30be
00000180: 182c c4be 6622 043e 1a71 87be 4863 09be
00000190: e063 16bf d961 f3bd a62e b3be 8028 5ebe
000001a0: a737 37bd c1b4 6fbd 27d5 7c3e 2e11 533e
000001b0: f2b4 00be ce34 f5be 7a24 e8bd dd49 ef3d
000001c0: 83aa 4dbf 338a c13e bfa1 25bf 4af2 163d
000001d0: b716 d9be c0ed 7b3e b391 35bd 0888 5bbe
000001e0: a7f7 12bf cd51 4cbe 36ca 99bd 0f8c 84be
000001f0: fa4a 18bf 05bc f73c ac80 473c 430a 24bf
00000200: e744 543e 820d 53be fa20 a23d acf8 733d
00000210: 5da8 5fbe 7147 9fbe 1e20 5c3e b156 29bd
00000220: ac6a aa3d 0640 24bf 7154 bbbd 15ad 95bd
00000230: b796 a63c 6ac5 773d dbdf 47bd 7a58 6c3e
00000240: 52c8 943e 67bd f03d 67fd 4abe 1e55 f2be
00000250: b592 203e 3711 dc3d 38ce 68be 9e3e dc3d
00000260: dd26 323e 9565 6c3e cdb9 d53d 6c25 3fbe
00000270: e1e2 be3d e8af c13d 537c 2f3e edeb b63b
00000280: 1429 5f3d 48f8 613c 7f37 c8be 6326 f5be
00000290: e3af 87be fb26 28be f633 bf3e 1a62 72be
000002a0: 9524 b2be f3aa ad3c 18f8 ba3c 1bf8 11be
000002b0: 785e 4abf 8a0f 5cbe f6a4 81bf 6767 1bbe
000002c0: 1f83 373d 9254 ffbc 7739 1abf 4664 0dbc
000002d0: 2c9c 2ebe 50a1 05bf 72d1 d03d 73d8 2f3e
000002e0: 5e0b 1e3d d13e 3cbc 7d6c 383e 6993 0b3d
000002f0: 1b57 4dbf ad82 e3be 49ea 963e 261d a1be
00000300: 87cc 94bf ba6f 0d3e 30bb 053e e8f1 c0be
00000310: 7a4e 2abe 6908 0b3d 9bc6 14bf 270b 0dbf
00000320: 3971 dcbe 9d8f 4cbe 4b3a 133e 82d5 a4be
00000330: 06f8 19bd c191 753e 8657 903e afa8 23be
00000340: 4157 b53d 8422 58bd b2ab b0bc 7722 5b3d
00000350: 790a ab3b 38d2 babe 3b7a 5bbf c103 49be
00000360: bfaa 4ebe e182 d0bd 4453 193e b1ef 68be
00000370: fe37 89bf 82b2 853e abc0 15be 03e9 9abe
00000380: dad4 ecbc f42c fbbe fa27 8f3e 8671 573e
00000390: 0fe7 19bd a7c7 6cbd 13d5 823e 4eed f0be
000003a0: ab03 633d 09d0 95be 7f41 f2bd 9c4a 323d
000003b0: c664 f7bb 9752 003e 5d2f 1bbe fc0a d3bd
000003c0: 9607 a43e 07c3 1bbb 4cf5 4f3e 848c 053e
000003d0: 747a 9cbd e71d 543e 3563 203d 2f14 643d
000003e0: fce1 c53d a492 4dbf 7489 1e3e 05a5 8abd
000003f0: ace4 fe3b 1f76 dcbd 18f1 a8be e75d f43d

net.2.bias f4 [256]
-0.0055256407 0.106881544 0.1799735 -0.089960545 0.05014683 -0.28727695 0.09811399 -0.36291632
0.0030721554 -0.09317192 -0.105793335 -0.06896999 0.16413653 -0.12533799 0.18837917 -0.18078537
-0.12846366 -0.09753253 -0.10638706 -0.16417752 0.00891458 -0.19958006 0.04428503 -0.046279795
-0.05584156 -0.23891106 0.072392575 -0.09519818 0.059571978 0.10442655 -0.09346451 0.15527001
-0.08366836 -0.04119234 0.008243785 -0.070267096 0.053165555 -0.28903177 -0.12914203 0.034808997
0.13361645 0.08014044 -0.035126224 0.04944097 0.048543766 0.14640236 -0.061300986 -0.073990524
0.02125221 -0.2483232 -0.0581199 -0.091086075 0.083036155 0.055976078 -0.0895239 0.049987506
-0.027539428 -0.31370133 -0.04867635 -0.025527695 0.15047634 -0.09692709 -0.09486897 0.03305652
0.0046442607 -0.2067206 -0.41961306 -0.023544176 -0.017738508 -0.019585963 0.0036632116 0.08553275
-0.025150592 0.0231038 0.029130574 0.009640767 0.15304416 -0.07543724 -0.34429422 0.040513564
-0.36813688 0.114142634 -0.06375981 -0.14880428 0.16848584 -0.13783377 0.028187804 -0.20455119
0.020434698 0.027111348 -0.00918205 -0.119016975 0.19403942 -0.16477227 0.093562305 -0.06960658
0.2080969 0.08297825 -0.01733646 -0.08861856 -0.027416201 -0.16204959 0.06920875 0.10981514
0.01210484 0.23662105 0.1927039 -0.33457473 -0.07644342 0.026995908 0.040344086 -0.022312177
0.060965408 -0.024880614 0.037643414 0.085000396 0.179376 -0.08996612 0.1208749 0.00400734
-0.01423239 0.06402863 -0.16022165 0.0004432784 -0.17863426 -0.21841943 -0.06583047 -0.8905714
-0.13040724 0.001146251 -0.008020901 -0.0283299 0.07980892 0.08060499 -0.12227202 -0.11505325
-0.020608809 0.21446972 -0.19096313 -0.06446181 0.21467787 0.1358984 -0.0009054182 -0.097699955
0.021769796 -0.09996628 0.089846015 -0.0812472 0.07721394 -0.26540807 -0.33547777 0.1984719
-0.057849377 -0.1893403 -0.119450934 0.11135464 -0.04465648 -0.010806141 0.10917125 0.13979268
0.15025541 -0.15076397 -0.04649733 -0.018093767 -0.21233918 0.0776239 -0.26099125 -0.013004918
0.16593784 -0.2657691 0.038270034 -0.14323051 0.1736837 -0.06668966 -0.02529903 -0.034401543
-0.033849068 -0.16461606 -0.15047386 -0.22525884 -0.06583413 -0.20967108 0.042249177 -0.12648402
0.2457182 0.25280067 -0.08920575 0.07277355 -0.050747965 0.0217247 -0.10353676 0.109073244
-0.17321692 0.033990163 -0.028249912 -0.0122817 -0.13885431 -0.065468796 -0.16214696 0.08101565
0.043808196 -0.1398814 0.11590984 -0.20083235 0.15319024 0.070957735 0.06286237 -0.10006087
0.1027516 -0.12283598 -0.045685582 -0.047542293 -0.29334757 0.13841817 -0.034691375 0.058641955
-0.15127166 0.12025683 -0.0037825727 0.08591565 0.07479064 -0.09973318 0.047388375 0.14288639
-0.097645916 -0.1539165 0.032196753 0.02143958 0.054641962 -0.06382998 0.09896176 0.015612762
0.0036291862 0.09403699 0.10443988 -0.085140534 -0.0041776616 0.119853385 -0.36625257 0.050190672
-0.1803976 -0.066997856 0.18603224 -0.13100149 0.019856267 0.08314274 -0.010170194 0.076963216
-0.3465731 -0.31172737 0.17991744 -0.040265888 0.104630254 0.20181534 -0.013603569 -0.0010758064
00000000: 6f10 b5bb b6e4 da3d f94a 383e 3c3d b8bd
00000010: c366 4d3d f715 93be fdef c83d 2bd0 b9be
00000020: 3756 493b ebd0 bebd 2daa d8bd 2340 8dbd
00000030: 6813 283e 9a58 00be 78e6 403e cd1f 39be
00000040: fa8b 03be 23bf c7bd 75e1 d9bd 271e 28be
00000050: 750e 123c b75e 4cbe 3864 353d e28f 3dbd
00000060: 1fba 64bd 1aa5 74be 8f42 943d 43f7 c2bd
00000070: bf01 743d 96dd d53d 526a bfbd 1aff 1e3e
00000080: 515a abbd 4db9 28bd f110 073c 32e8 8fbd
00000090: 20c4 593d f9fb 93be cf3d 04be e193 0e3d
000000a0: c0d2 083e ac20 a43d 84e0 0fbd 9d82 4a3d
000000b0: d4d5 463d 80ea 153e be16 7bbd 5888 97bd
000000c0: 1d19 ae3c 7048 7ebe 220f 6ebd 568b babd
000000d0: dc0e aa3d 2c47 653d 4e58 b7bd b3bf 4c3d
000000e0: 5e9a e1bc 769d a0be da60 47bd 751f d1bc
000000f0: 7816 1a3e b681 c6bd aa4a c2bd 4666 073d
00000100: e22e 983b 91ae 53be 86d7 d6be b7df c0bc
00000110: 5950 91bc be72 a0bc 7e12 703b cb2b af3d
00000120: 9d08 cebc 2e44 bd3c 3ea3 ee3c 4ff4 1d3c
00000130: 9cb7 1c3e d77e 9abd 5547 b0be 8df1 253d
00000140: 707c bcbe 9dc3 e93d 8194 82bd 2660 18be
00000150: 8d87 2c3e 4c24 0dbe 1cea e63c de75 51be
00000160: ab66 a73c 9e18 de3c 4f70 16bc 2cbf f3bd
00000170: 45b2 463e 10ba 28be 989d bf3d e58d 8ebd
00000180: 5b17 553e 80f0 a93d 3105 8ebc a67d b5bd
00000190: f197 e0bc 54f0 25be 51bd 8d3d c3e6 e03d
000001a0: 6153 463c ca4c 723e 2c54 453e 614d abbe
000001b0: 5e8e 9cbd 8626 dd3c d73f 253d 07c8 b6bc
000001c0: ddb6 793d 6ed2 cbbc fb2f 1a3d b014 ae3d
000001d0: 58ae 373e 2840 b8bd 428d f73d 0150 833b
000001e0: f82e 69bc 7121 833d 2511 24be d267 e839
000001f0: e6eb 36be 58a9 5fbe 20d2 86bd 7dfc 63bf
00000200: 7a89 05be cd3d 963a 196a 03bc 1b14 e8bc
00000210: dc72 a33d 3b14 a53d c169 fabd 0aa1 ebbd
00000220: ced3 a8bc f39d 5b3e d78b 43be 8e04 84bd
00000230: 84d4 5b3e f328 0b3e 9659 6dba ea16 c8bd
00000240: 9256 b23c 1fbb ccbd 3001 b83d ef64 a6bd
00000250: 5822 9e3d 91e3 87be bec3 abbe 383c 4b3e
00000260: 78f3 6cbd 6ce2 41be b1a2 f4bd e70d e43d
00000270: b7e9 36bd 3e0c 31bc 2d95 df3d d025 0f3e
00000280: 8edc 193e df61 1abe fc73 3ebd 6139 94bc
00000290: 716f 59be 47f9 9e3d a5a0 85be 9412 55bc
000002a0: 9ceb 293e e312 88be 0ac1 1c3d 05ab 12be
000002b0: 24da 313e 9794 88bd e93f cfbc a2e8 0cbd
000002c0: 52a5 0abd 1d91 28be d215 1abe 41aa 66be
000002d0: 0bd4 86bd 04b4 56be 790d 2d3d 0785 01be
000002e0: 8d9d 7b3e 176f 813e 81b1 b6bd 4d0a 953d
000002f0: 19dd 4fbd 00f8 b13c 150b d4bd cb61 df3d
00000300: c75f 31be 4539 0b3d 5c6c e7bc 2f39 49bc
00000310: d32f 0ebe 8114 86bd da09 26be 88eb a53d
00000320: 3970 333d 123d 0fbe 2362 ed3d ffa6 4dbe
00000330: e7dd 1c3e 4a52 913d fcbd 803d b7ec ccbd
00000340: 6e6f d23d 6e91 fbbd ce20 3bbd b5bb 42bd
00000350: a731 96be 7ebd 0d3e 8b18 0ebd 8c32 703d
00000360: f5e6 1abe 3649 f63d 0ae5 77bb 8bf4 af3d
00000370: d62b 993d e940 ccbd 501a 423d cf50 123e
00000380: 95fa c7bd 499c 1dbe bee0 033d 0fa2 af3c
00000390: 40d0 5f3d 4bb9 82bd 77ac ca3d accc 7f3c
000003a0: a4d7 6d3b 7796 c03d 93e4 d53d 295e aebd
000003b0: c4e4 88bb b175 f53d 7585 bbbe bc94 4d3d
000003c0: 26ba 38be 2c36 89bd 3c7f 3e3e 4125 06be
000003d0: 9ca9 a23c be46 aa3d e3a0 26bc e49e 9d3d
000003e0: 0872 b1be bb9a 9fbe 473c 383e d8ed 24bd
000003f0: 6348 d63d aea8 4e3e 81e1 5ebc 1302 8dba

net.4.weight f4 [2, 256]
0.367727 4.298853 2.437649 -5.767905 0.5400612 -0.8974737 1.0504649 -0.5341374
0.6571475 -0.4385501 -0.20466936 0.29992384 0.17527452 1.6076032 -0.5517791 0.16185574
-0.7277303 0.25064522 -1.1922426 -0.7072611 -0.025293486 0.76449454 -0.30795786 -0.03906709
-0.021250455 0.66413647 -0.23635848 -0.14062527 0.16959019 -0.40636098 0.34446037 0.14919136
0.5766444 -1.3199059 0.1729807 0.654017 0.18207978 0.8906155 0.24938509 -0.18850778
0.27924818 0.4309974 -0.020939233 1.8952571 1.3390167 0.2538014 -0.040661916 0.67308295
-4.715836 0.022729348 0.37730038 1.1330055 0.0074753817 -1.0863816 0.2487768 0.35550845
-1.2154237 0.03134493 0.098905034 4.013831 -0.2084928 -0.58538216 1.3634914 -0.26329157
-0.33287102 -0.10130475 0.38689297 1.0851957 0.3386078 0.61147755 -0.29411128 -0.21813515
0.045695584 -0.18932676 -0.25333676 1.0591189 -0.3598312 -1.1872481 -1.142225 -0.0351854
-0.77713925 -3.46814 -0.39788547 -0.56652564 6.4243145 -0.26524675 -0.16685091 0.9667263
0.018080799 0.047033474 -2.659347 -1.2839357 -0.10234694 0.63737285 -0.89958864 -0.11118437
0.35539305 -0.9145212 0.07907134 0.28354114 0.2339542 0.5742873 0.8905788 0.34064603
0.026228068 -2.9418778 -0.506226 0.13744971 0.98338664 -0.03857615 -1.5092798 -0.13243608
-0.25739232 0.60835826 -0.70108855 -1.7376065 -0.09272207 -1.4630692 0.112920344 -1.0503209
-0.2127186 0.36101282 0.67099595 -0.042121634 -0.19726524 0.74520326 -0.60516506 -1.9242337
0.19219904 -0.20351554 -0.6319721 2.6594627 0.053058166 -0.47293538 0.7927781 0.23543604
0.18898265 0.26715693 0.5847404 -0.085371085 0.1015643 0.18652166 0.4205533 0.22940658
-0.15688604 -2.5751781 -0.008903164 -0.10569034 4.1558185 -0.20648842 -1.0697236 -6.317893
-0.30805704 1.0038986 0.10236366 0.58417374 0.038345564 -0.32669154 -0.6595435 1.4995353
-0.44340742 1.4183275 -0.00052797416 0.018996945 -0.23221903 -1.0287619 0.02863077 -1.7054393
0.5400229 0.9354432 0.62628734 -0.43845803 8.493293 0.3494965 0.0073318635 -0.12409511
-2.1161816 -0.7958081 -0.18653221 0.92619467 -1.4851393 1.252175 -0.005170823 -0.77083915
0.18611483 5.9538746 -0.078861766 0.09879719 0.03259512 -0.33245397 0.4476872 0.9814795
-0.26103875 0.2955756 0.124667235 1.3640486 -1.0045632 -0.61095405 0.71523976 -0.10651408
-3.12883 1.021203 -6.151795 -0.7495613 5.3702044 0.321591 0.51564664 0.33842617
0.18605556 0.54208964 -0.58759695 0.002513341 -1.1017268 -0.5347659 0.15537181 0.36233455
-1.3819587 1.6665295 0.036623098 0.47562715 -0.23192996 -0.34779307 -0.82109076 1.2474477
0.55387515 0.17832616 3.0646412 1.0372916 -0.51888853 0.020125283 0.012028551 -0.12453181
-0.018133083 -0.09953977 -0.4633341 0.11531215 -0.32615232 0.007351136 -1.0362506 -0.5263036
0.0519078 -0.76660174 0.22299536 -0.5212541 0.12959738 -3.5327935 -0.054309554 -0.15319519
0.8400227 0.79261947 -0.34921154 -0.54317045 -0.44436282 -0.36624417 -0.9844974 0.46569157
00000000: b746 bc3e 3490 8940 7102 1c40 ae92 b8c0
00000010: 7341 0a3f d6c0 65bf a275 863f 3bbd 08bf
00000020: d23a 283f a489 e0be d894 51be 9e8f 993e
00000030: 2a7b 333e f1c5 cd3f 6541 0dbf 83bd 253e
00000040: 884c 3abf 9254 803e 689b 98bf 100f 35bf
00000050: 4934 cfbc eab5 433f a7ac 9dbe d004 20bd
00000060: 6f15 aebc d904 2a3f f507 72be 1200 10be
00000070: 0da9 2d3e 8c0e d0be 1c5d b03e 9fc5 183e
00000080: f89e 133f adf2 a8bf da21 313e a86d 273f
00000090: 1f73 3a3e 61ff 633f ce5e 7f3e 2f08 41be
000000a0: 9ef9 8e3e b1ab dc3e c188 abbc c997 f23f
000000b0: e664 ab3f 42f2 813e 1c8d 26bd 2a4f 2c3f
000000c0: 21e8 96c0 e632 ba3c 842d c13e 5306 913f
000000d0: 0cf4 f43b 8d0e 8bbf 58bf 7e3e 3405 b63e
000000e0: 0193 9bbf 8b63 003d b98e ca3d 4e71 8040
000000f0: 237f 55be 9bdb 15bf e386 ae3f 27ce 86be
00000100: 126e aabe dd78 cfbd d616 c63e b1e7 8a3f
00000110: 005e ad3e cb89 1c3f c195 96be d25e 5fbe
00000120: 4b2b 3b3d e0de 41be 5bb5 81be 3591 873f
00000130: cc3b b8be bff7 97bf 6e34 92bf 911e 10bd
00000140: 99f2 46bf 01f6 5dc0 a5b7 cbbe d307 11bf
00000150: fc93 cd40 6cce 87be f7da 2abe 607b 773f
00000160: 2f1e 943c 2ca6 403d be32 2ac0 0158 a4bf
00000170: 469b d1bd de2a 233f 714b 66bf a2b4 e3bd
00000180: 14f6 b53e 101e 6abf 28f0 a13d 4e2c 913e
00000190: b191 6f3e 7e04 133f f9fc 633f 2869 ae3e
000001a0: 3fdc d63c ba47 3cc0 0798 01bf 9ebf 0c3e
000001b0: 3abf 7b3f 0602 1ebd 1530 c1bf 539d 07be
000001c0: edc8 83be 5ebd 1b3f 8a7a 33bf e469 debf
000001d0: 12e5 bdbd da45 bbbf c842 e73d ea70 86bf
000001e0: e8d2 59be acd6 b83e 64c6 2b3f bc87 2cbd
000001f0: e6ff 49be a4c5 3e3f 19ec 1abf 4a4d f6bf
00000200: d3cf 443e 6166 50be ecc8 21bf a334 2a40
00000210: 8553 593d 9624 f2be 81f3 4a3f 2516 713e
00000220: ab84 413e cbc8 883e 8cb1 153f 09d7 aebd
00000230: f200 d03d 89ff 3e3e c352 d73e 8fe9 6a3e
00000240: bca6 20be b8cf 24c0 94de 11bc 2d74 d8bd
00000250: 77fc 8440 b371 53be b4ec 88bf 2e2c cac0
00000260: a7b9 9dbe c07f 803f 0aa4 d13d 698c 153f
00000270: 3d10 1d3d 1d44 a7be d8d7 28bf c6f0 bf3f
00000280: 4c06 e3be c18b b53f bf67 0aba 7b9f 9b3c
00000290: d3ca 6dbe 78ae 83bf 148b ea3c d64b dabf
000002a0: f13e 0a3f 3579 6f3f 5e54 203f 927d e0be
000002b0: 87e4 0741 35f1 b23e 2140 f03b 9425 febd
000002c0: 856f 07c0 14ba 4bbf 4d02 3fbe 181b 6d3f
000002d0: 0b19 bebf 4547 a03f 0270 a9bb b755 45bf
000002e0: e394 3e3e 2486 be40 4782 a1bd 2e56 ca3d
000002f0: 7682 053d 6837 aabe 4237 e53e 3e42 7b3f
00000300: dfa6 85be af55 973e 8951 ff3d 2599 ae3f
00000310: 8795 80bf 7c67 1cbf f419 373f 0e24 dabd
00000320: c03e 48c0 c8b6 823f 81db c4c0 40e3 3fbf
00000330: b7d8 ab40 93a7 a43e 6b01 043f 3246 ad3e
00000340: 5985 3e3e 63c6 0a3f c16c 16bf ddb6 243b
00000350: 6205 8dbf 6be6 08bf ca19 1f3e ea83 b93e
00000360: 06e4 b0bf d750 d53f 1a02 163d 6785 f33e
00000370: 0c7f 6dbe ef11 b2be 0133 52bf 5eac 9f3f
00000380: c3ca 0d3f 229b 363e 1523 4440 f9c5 843f
00000390: e1d5 04bf c7dd a43c 6613 453c 890a ffbd
000003a0: d58b 94bc 82db cbbd 213a edbe c728 ec3d
000003b0: 70fd a6be cce1 f03b dca3 84bf d5bb 06bf
000003c0: 469d 543d 0340 44bf e558 643e e970 05bf
000003d0: 2db5 043e 4a19 62c0 b273 5ebd 33df 1cbe
000003e0: ba0b 573f 1ce9 4a3f dbcb b2be 380d 0bbf
000003f0: 8683 e3be 5b84 bbbe 0608 7cbf 206f ee3e

net.4.bias f4 [2]
-0.044703025 0.13759728
00000000: 851a 37bd 4de6 0c3e
