manually_saved_runs/naive_ddpg_1/critic.pt (torch, 277455 bytes, 5 tensors)

net.0.weight f4 [256, 10]
000000 a1 22 cb be 4d 88 1e be 0e bd 2c bf c5 96 f5 3e
       -0.39674857 -0.15481682 -0.67475975 0.4796659
000010 8d 3c ab 3e a6 5c 84 3e b7 d3 92 3c 51 7e 52 3e
       0.33444634 0.25851935 0.01792322 0.20555998
000020 0f 15 5e 3d da 88 23 3d 7b 75 91 be 64 18 65 3f
       0.0542193 0.039925434 -0.28409943 0.8949034
000030 ec 0f c5 3d da db 5d bd 55 ae 44 3d a9 c9 08 be
       0.096221775 -0.054164745 0.04801782 -0.13358177
000040 42 fe 89 be 63 33 8a be 25 14 3e 3f b2 a8 95 bd
       -0.26951796 -0.2699233 0.7424949 -0.07307567
000050 80 3d 5c be d2 7c 5c 3d bc 25 77 3e 10 e9 65 3f
       -0.21507835 0.053829975 0.24135488 0.8980875
000060 44 eb cc 3e b1 c5 c7 3e 5c a6 f5 bb 11 a1 95 3e
       0.40023243 0.39018014 -0.007496638 0.29224446
000070 b0 77 0f be 9e d3 fe 3e 5e db 2d be 21 dc 06 3e
       -0.14010501 0.49770826 -0.16978213 0.1316991
000080 17 36 89 3d 10 85 18 3f 0c 1b fa 3e f8 19 12 3f
       0.0669977 0.5957804 0.4884876 0.57070875
000090 20 a4 20 be 5a e4 b5 b9 2c 6b d3 3d 28 1b 20 bd
       -0.15687609 -0.00034693145 0.10323176 -0.0390884
0000a0 c4 ca e0 3e c7 3c 03 be f6 c8 17 3d e1 2f 5b 3d
       0.43904698 -0.12816153 0.037056886 0.053512458
0000b0 58 26 40 bf 8d 88 a2 bf 6d 50 f7 bd fc 90 a4 3e
       -0.7505851 -1.2697922 -0.12075887 0.32141864
0000c0 51 2b fe bb 2e 91 90 3a 37 cf d5 3d 8a 60 b7 3e
       -0.0077566286 0.0011029595 0.10439914 0.3581584
0000d0 b3 8f c9 3d eb 02 d8 3e b1 c4 78 3e e9 64 a0 3d
       0.098418616 0.42189726 0.24293782 0.07831747
0000e0 38 55 2b 3f 3b a4 b0 3c 1a 6d 03 be d7 8f 8a bc
       0.6692691 0.021562686 -0.12834588 -0.016914291
0000f0 aa 9f 92 be 6f d6 d8 3b 26 05 b5 3c c8 d5 d5 3e
       -0.2863744 0.0066173594 0.022097182 0.41764665
000100 d3 55 fd 3e 34 b5 7a 3f 52 0d 04 3e dd ef d4 be
       0.4947954 0.97932744 0.12895706 -0.4158925
000110 9b 17 0a 3c 55 3a 8b bc 31 6e dd bd 7f f6 59 3f
       0.00842848 -0.016995588 -0.10812033 0.8514175
000120 bc 66 cd 3e a0 76 00 3f a9 7a 73 3d e5 d3 94 3e
       0.40117443 0.5018101 0.05944315 0.29067913
000130 6f 56 64 3a 37 7f 23 ba cf 56 1d bd c9 ec ed 3d
       0.00087103894 -0.0006236913 -0.038412865 0.11617429
000140 ff 9f 48 3e 00 b8 3a bd 9e 8e 33 3e 8c 4a 59 be
       0.19592284 -0.045585632 0.17534873 -0.21219844
000150 94 b6 5c bf 1a e0 b5 bf ac ef 76 bf 04 97 73 bf
       -0.8621609 -1.4209015 -0.9645946 -0.95152307
000160 09 6e 5f bc 3a f3 52 3c 92 54 a7 be db c8 92 be
       -0.013637074 0.012875373 -0.3268171 -0.28668866
000170 61 25 7c be d7 44 eb be b9 2e f1 3d 71 f3 46 3e
       -0.24623634 -0.45950958 0.1177649 0.19428803
000180 a1 76 91 3e 60 59 78 3e 10 90 ad bd 71 25 21 bd
       0.2841082 0.24252844 -0.08474743 -0.039342348
000190 aa 69 ce be cf 61 a1 3b dc 49 41 be f4 4f e9 be
       -0.4031499 0.00492499 -0.18875831 -0.45568812
0001a0 fe f5 f6 3e a5 90 5f 3d 85 ef 2a 3a bd 9f c8 be
       0.48234552 0.054581303 0.00065206765 -0.3918437
0001b0 fb 82 14 bd 10 e0 5c bc 9b 2f c0 bd fb c4 87 3e
       -0.036257725 -0.013481155 -0.0938408 0.26517472
0001c0 de 54 3c bb 49 33 06 3f c1 93 75 be b3 eb aa 3d
       -0.0028737108 0.52422005 -0.23982145 0.08345737
0001d0 2e 01 05 be 08 2d 3d 3e 5e 22 18 3e 45 cf 28 be
       -0.12988731 0.1847421 0.1485686 -0.16485317
0001e0 d9 8c 11 be 4c 27 65 3e 48 3c 02 3e c1 6f 8b 3d
       -0.14213885 0.22378272 0.12718308 0.06808425
0001f0 f5 04 7d bd 89 0b f6 3e f0 52 65 bf da 5e 38 bf
       -0.061772306 0.48055676 -0.8957968 -0.7201973
000200 08 80 45 bc 95 e0 86 bc 3c 42 e7 be 8b 1f c8 3e
       -0.012054451 -0.016464511 -0.4516772 0.39086565
000210 83 52 ad be f8 35 0f 3e 5a 2c 99 3e 3f 94 9b 3c
       -0.33852014 0.13985431 0.2991665 0.018991588
000220 61 f3 2a 3d 4f 93 21 3d 5b a5 f0 3d 5d e6 6c bd
       0.04173601 0.039447125 0.11750289 -0.05783688
000230 3b 07 f5 3e 20 11 be 3d d2 7f 74 3d e6 73 0e 3e
       0.4785708 0.0928061 0.05969221 0.13911399
000240 46 4f 3c 3e 98 cd f7 3e 79 a2 5c bf 30 b5 f7 3d
       0.18389615 0.48399043 -0.86185414 0.12095106
000250 4e 57 1a bd 4f 36 25 bd 87 99 36 3f a0 cb 30 3e
       -0.037680916 -0.040334996 0.71328014 0.17265177
000260 fd 1c 4e 3d e6 86 db 3d bf 5f 1a bf 45 6c 8a 3e
       0.050320614 0.10719089 -0.60302347 0.27035728
000270 32 e1 63 3c e4 a1 a0 3e 45 8b d7 3c 8e 02 73 3e
       0.013908671 0.31373513 0.026311526 0.23731443
000280 f5 ad 21 3f 13 64 35 3e d8 5b 89 be 13 8f 13 be
       0.6315606 0.17713957 -0.26827884 -0.14410047
000290 69 34 aa be 8b 96 97 bf 03 95 76 bf f0 73 02 3e
       -0.3324311 -1.1842817 -0.96321124 0.12739539
0002a0 23 33 24 3d 5a 34 3a 3d 93 52 67 3e 47 02 82 3d
       0.04008783 0.045460083 0.22590093 0.063480906
0002b0 1b 32 7b 3e 5a f6 fe 3d 25 a9 e7 be 81 4b d2 be
       0.24530832 0.124493316 -0.45246235 -0.4107323
0002c0 b8 3c 98 3e 4a b0 ed 3e 98 50 e1 bc 94 7b 73 bc
       0.29733825 0.4642356 -0.02750425 -0.014861006
0002d0 63 5a 5c 3d bd 89 ca 3e ad 4f e9 bc 1f 4c d3 bd
       0.053797137 0.3955821 -0.028480375 -0.10317253
0002e0 73 3d e5 3e aa e6 2f 3e 26 eb 6a be a1 04 4e be
       0.44773445 0.17177835 -0.22941265 -0.20118953
0002f0 e1 e4 0e bd b2 e9 ed be fe 3c c8 bd 62 8c 44 be
       -0.034886245 -0.46467358 -0.09777258 -0.19194177
000300 40 94 56 be 6d 7f 78 3f 73 74 cb 3d 3b bc cb be
       -0.2095499 0.97069436 0.0993432 -0.39792046
000310 4d 03 b4 be 16 03 c3 3e a3 e1 62 3d 23 da 19 3c
       -0.35158768 0.38088292 0.055390965 0.009390387
000320 1e 65 43 3d af cc d5 3d a3 28 36 bc ce a7 0f 3f
       0.047703855 0.10439431 -0.011118087 0.56115425
000330 5c cf 68 be 7b f8 4a 3e 1e f0 18 3e 8b 18 db 3e
       -0.22735351 0.1982135 0.14935347 0.42792162
000340 74 44 c3 3d 49 7f 91 bd 97 d8 13 3e 60 16 9b 3f
       0.09534541 -0.07104356 0.14438091 1.2116203
000350 2e c8 a3 3b cf 81 47 3e a6 9d ff bc fd 46 33 3e
       0.0049982285 0.19483112 -0.031203102 0.17507549
000360 9b 6a a7 3e 7a 31 ab 3e 12 73 32 be 1a b1 91 be
       0.3269852 0.33436185 -0.17426708 -0.2845543
000370 11 73 65 bf 12 ea 79 be d1 dd 16 be 38 41 0b bf
       -0.896287 -0.24405697 -0.14733054 -0.5439639
000380 7f 53 d3 3d 5b 6f 00 be 1c 44 da 3e d0 03 d8 bd
       0.1031866 -0.12542479 0.42630088 -0.10547602
000390 35 be eb bc 26 59 0e ba 3f 2a c4 bb 3f 9d 3b bf
       -0.028777221 -0.0005430154 -0.0059864814 -0.73286813
0003a0 d8 cf a6 be 31 22 59 bf af af fa 3e 18 78 1f bd
       -0.32580447 -0.84817797 0.4896216 -0.03893289
0003b0 d4 4e 44 3f ad b8 cd 3e 14 7e b2 3c 2b 31 cf 3d
       0.7668278 0.4017996 0.021788634 0.101168
0003c0 ab e0 98 be 89 41 da 3b 2c b2 b5 3e 00 20 a5 3e
       -0.29858908 0.0066606444 0.35487497 0.32250977
0003d0 f3 70 ff bd 1f 6f 71 3f 49 c8 71 bf 94 02 16 bf
       -0.12472715 0.9431018 -0.94446236 -0.58597684
0003e0 07 af 49 bd 88 28 ea bd 49 9e 37 3e 2e 6c d7 bf
       -0.049239185 -0.11433512 0.17931475 -1.6829889
0003f0 14 76 ae 3e 06 78 bc 3b b4 5d ff 3d 92 3d 43 be
       0.3407446 0.0057516126 0.12469044 -0.19066456

net.0.bias f4 [256]
000000 4b 41 10 bf b1 36 ee 3e d9 5a 1d 3f 5a 06 da 3e
       -0.5634963 0.465261 0.6146675 0.4258297
000010 3e 2d cb 3e f4 24 40 3f af 6d 87 3e cb bd a3 3e
       0.39682955 0.75056386 0.2645087 0.31980738
000020 02 cc 86 be c0 7f 9c be 42 03 b4 3e df cd 28 3f
       -0.2632752 -0.30566216 0.35158736 0.65939134
000030 a3 1f b1 be a8 e8 35 3f 14 5b f8 be 7a 1f d2 3e
       -0.3459445 0.7105813 -0.48506987 0.4103964
000040 fb c9 b4 bd f2 9d 23 3e b3 76 55 3d d0 9a f1 3e
       -0.08827587 0.1597822 0.052115154 0.47188425
000050 4c 9b 19 3f d9 40 1a 3f a3 d8 ab 3e b2 9d 23 be
       0.6000259 0.602552 0.33563718 -0.15978125
000060 d0 a1 da be 29 31 34 3f f7 9c bd 3e 4d e0 74 bd
       -0.42701578 0.7038751 0.37033817 -0.059784222
000070 56 47 13 bf 83 67 71 3e d6 a8 14 bd b6 b1 3a be
       -0.57530725 0.23574643 -0.036293827 -0.18231854
000080 4d 88 16 bf 19 39 94 3e 8e ea 68 3e 25 95 dc be
       -0.5880173 0.28949812 0.22745726 -0.43082538
000090 91 b8 ab 3e ff 1d 19 3f ba 3a 93 3e 9c a6 c2 bc
       0.3353925 0.59811395 0.28755742 -0.023761086
0000a0 24 b6 9d bd b0 1c 55 3e 2a 45 bd 3d ab 65 9e 3e
       -0.07700756 0.20811725 0.092417076 0.30936942
0000b0 54 39 bd 3e b1 a4 d7 3e 43 8e 75 be 8a 3d 52 3e
       0.369578 0.42117837 -0.2398005 0.20531288
0000c0 d7 2f bd 3e 8e 61 92 3e 1e 06 15 3f 7f d3 eb 3e
       0.3695056 0.28590053 0.5821246 0.46059796
0000d0 ea 6e 33 3f 58 b0 ae be 9e 6b 8d 3e 36 9a cf be
       0.70091116 -0.34118915 0.27621168 -0.4054734
0000e0 db 20 a7 3d a1 c1 af be ec 40 52 3e ce a9 cd 3d
       0.081605636 -0.34327415 0.20532578 0.10042153
0000f0 31 64 73 3f d1 07 13 3e 38 5a 15 bf 96 a4 66 3f
       0.95074755 0.1435845 -0.5834079 0.9009489
000100 ea 46 2d 3d b6 57 b9 3d 86 48 4d be 7a 0c b7 3e
       0.042303957 0.09049933 -0.20047197 0.35751706
000110 ef 5b 23 3f 98 3f 94 3e bb e3 08 3e e2 6d e7 ba
       0.63812155 0.28954768 0.13368122 -0.0017656649
000120 9b 57 69 3d 64 47 aa 3d 85 2d 93 bd 33 f6 0c 3f
       0.056968313 0.08314398 -0.071864165 0.5506317
000130 d4 0d 41 3f 3b 30 dd 3d b7 a1 bd 3d 7e 19 1f 3f
       0.75411725 0.10800215 0.0925936 0.62148273
000140 0e 65 01 bf d0 dc 4e bf 57 b7 60 3d b4 30 db 3d
       -0.5054482 -0.80805683 0.054862347 0.10702649
000150 6c 2a 7d 3c 78 7d a6 be 17 d5 ca 3e d2 42 f4 3e
       0.015452009 -0.325176 0.396157 0.4770723
000160 3c 0d ff be 94 32 0a be 49 c6 f7 bc 0c 69 54 3e
       -0.49814785 -0.13495857 -0.030245917 0.20743197
000170 31 73 d2 3e c9 3f e2 3d d2 b3 4c 3f 04 1b 37 3e
       0.4110351 0.11047322 0.79961884 0.178814
000180 2e 12 5b bd 98 85 a7 3d 2e ec aa be ea d5 42 3f
       -0.053484134 0.08179778 -0.33383316 0.76107657
000190 46 c0 85 3c bc ad d9 be 56 54 b4 3d e2 a8 89 3c
       0.016327035 -0.4251536 0.08805148 0.016804162
0001a0 10 1a af 3e 0b b9 0f 3e f6 56 05 3f e2 48 09 3f
       0.34199572 0.14035432 0.52085817 0.53626835
0001b0 f7 2c 80 3e 12 5c de bd 56 58 00 3f f5 6c be be
       0.25034305 -0.10857405 0.5013479 -0.37192503
0001c0 87 f2 d6 3e 8c c2 06 3f dd 0b 09 bf 94 63 1f bf
       0.4198191 0.52640605 -0.53533727 -0.6226132
0001d0 d7 fd 32 3f 31 de 4c 3d 7e dd 06 3f 13 84 c3 be
       0.6991858 0.050016586 0.5268172 -0.38186702
0001e0 4e 4f 8c bc 09 cf 20 3f 63 ca 3e 3e 4d 3d 27 3f
       -0.01712766 0.6281591 0.18631892 0.6532791
0001f0 22 c9 06 3f 43 9b 33 3e 45 bc fc 3d 82 f8 39 3d
       0.52650654 0.17539696 0.12340597 0.04540301
000200 73 ed d5 3d 58 9e e0 bd f6 6a 8b 3d e1 53 1e 3f
       0.104456805 -0.10967702 0.068075106 0.6184674
000210 d1 62 b5 bd 3a 2f ad 3e 1e dc 1f 3e 97 42 07 bf
       -0.08856738 0.33825094 0.15611312 -0.52835983
000220 73 e9 d5 3e 0a 29 bc be 3e 9b 95 3e 39 aa 5a bd
       0.4177967 -0.3675006 0.29220003 -0.053384993
000230 db 32 46 3f d4 3e 0a bf 45 ec bf 3e c7 15 d1 3d
       0.7742135 -0.5400212 0.37484947 0.10209232
000240 ed 61 03 3f 73 62 2f 3f f5 9e 38 3f cd 46 02 bf
       0.513213 0.68509597 0.7211755 -0.50889283
000250 16 37 6e be 11 1f 50 3c df 48 b7 3e e9 8a 1a 3f
       -0.23263201 0.012702719 0.35797784 0.6036821
000260 9f 3d 7e bf 41 f2 a7 3e 22 28 9e be 8d 6a 38 bd
       -0.99312776 0.32802013 -0.30889994 -0.04502349
000270 9f 05 ef 3e 5e ba 07 3e 77 88 62 3e 2c 7a 60 3f
       0.46683976 0.13254687 0.2212237 0.8768642
000280 08 d2 46 3e f7 2f 3b be fb 6c 2b bf 45 0a 57 3c
       0.19416058 -0.18280016 -0.66963166 0.013125007
000290 81 15 29 3e a0 7d ca 3e 0a 21 6a 3f d4 d3 66 3e
       0.1651211 0.3954897 0.91456664 0.22541744
0002a0 20 f8 8e bd fa c6 c7 bd f5 89 8a 3e 0d 4b 5c bd
       -0.0698092 -0.09754749 0.27058378 -0.05378251
0002b0 22 ec 41 3f 2f 2e 91 bd 9e 7a 69 3e 76 53 28 3e
       0.75750935 -0.07088887 0.22800681 0.16438088
0002c0 25 14 48 be 18 cb 1e bf 13 45 3e bd ac 5f 6a 3d
       -0.19538935 -0.62028646 -0.046452593 0.057220146
0002d0 e9 a9 db 3d b2 68 e6 3e e5 d6 f7 3d 82 a3 3a 3f
       0.10725767 0.4500175 0.12101535 0.72905743
0002e0 45 58 0a bf a6 b7 c4 3d a2 63 23 bc b4 c8 89 3e
       -0.5404094 0.09605341 -0.009972485 0.26910937
0002f0 3e 51 3e 3d 01 11 0a 3f 20 01 03 be f7 93 92 be
       0.046464197 0.53932196 -0.12793398 -0.28628513
000300 b5 b5 00 3d 7a 01 22 3e 9f 45 3d be 2f 52 df be
       0.03142329 0.15820876 -0.1848359 -0.4361739
000310 01 72 0c bd 82 b3 14 be 1e 54 13 bf 91 41 81 be
       -0.03428841 -0.14521602 -0.5755023 -0.25245336
000320 98 8f 0b 3f 60 24 7e 3e d9 ad b5 3d 2f 0f 5f 3e
       0.5451598 0.24818563 0.088710494 0.21783136
000330 10 38 17 3e 7a 41 e8 be 5b f0 bc 3e 9d 77 8d 3d
       0.1476748 -0.45362455 0.36902127 0.0690758
000340 0c 99 3e 3d 4a 82 1e 3f 0e d8 2d bd c1 d8 ca 3e
       0.046532676 0.61917555 -0.042442374 0.39618495
000350 74 bd a8 be 23 ad ef 3e 3d 30 61 3e fe bb 26 3e
       -0.3295704 0.4681178 0.21991058 0.16282651
000360 35 03 86 be c2 76 a8 be 0c fd f9 3e ba 9b 2e 3f
       -0.26174322 -0.32903105 0.48825872 0.6820637
000370 34 05 63 bd 2c 0b 52 bd 13 ed 5c bd ab f4 cd 3e
       -0.055424884 -0.051280186 -0.05393703 0.4022573
000380 89 d2 1c bc 43 b4 60 3d 89 58 d1 3d 55 4d fa 3e
       -0.00957168 0.05485941 0.10221965 0.48887125
000390 23 d2 21 3f 63 a6 2e 3e dc 87 d5 3e ed bd a1 bd
       0.6321127 0.17055659 0.41705215 -0.078975536
0003a0 10 49 33 ba fb c2 44 3e ed 16 ad bc 3c 2e e1 3e
       -0.0006839195 0.19215004 -0.021129096 0.43980587
0003b0 ec 33 89 3e 34 64 11 3f 2a 30 50 3e eb bc 6c 3d
       0.26797426 0.5679352 0.20330873 0.057797354
0003c0 86 0d 8c bf d0 13 89 3e d8 ad 51 3f 4d 51 46 bd
       -1.0941627 0.26772928 0.8190589 -0.04841738
0003d0 82 49 23 bf ab 98 5a bb 81 23 b6 be 1d 7d 91 bd
       -0.6378404 -0.0033355157 -0.35573962 -0.071039416
0003e0 79 1d 73 3e 67 3f 1c bd 3c 36 96 3e dd 31 3e 3f
       0.23741712 -0.038146403 0.29338253 0.74294835
0003f0 1f 53 17 3e bf 54 90 3a 54 e1 a2 3e 6b 32 85 3d
       0.14777802 0.0011011584 0.31812537 0.06503757

net.2.weight f4 [256, 256]
000000 16 69 99 3e 90 5e b9 bd 9b 4c f0 3c fe 0a a1 3d
       0.29962987 -0.090512395 0.029333403 0.07863425
000010 42 dd 9c bf e6 52 81 bd 4c c7 5b 3d 90 b7 d0 bb
       -1.2255023 -0.0631464 0.05365686 -0.0063695386
000020 c2 a4 e4 3e 9f 94 b4 bc 0c 3a 9b bc 05 f2 b9 3c
       0.4465695 -0.022043524 -0.018948577 0.022698412
000030 69 91 1a 3e 59 06 35 bd 84 a7 d2 3d b7 86 c8 be
       0.15094532 -0.044195507 0.10285857 -0.3916528
000040 91 7e 93 bf f3 38 81 bf 53 b4 68 3c 53 73 48 be
       -1.1523 -1.0095505 0.014203149 -0.19575243
000050 48 da d1 bc 8f da 1e bc 47 59 64 3d 1d 11 8c be
       -0.02561678 -0.009695663 0.055749204 -0.27356806
000060 d8 a8 96 3e bd b6 11 3e af 41 8a be a1 60 f3 be
       0.29425693 0.14229865 -0.27003238 -0.4753466
000070 f1 03 0a bf 76 e4 74 3e 32 5e 78 be dd 59 93 bd
       -0.53912264 0.23915276 -0.24254683 -0.071948744
000080 d1 03 4c bf ba 98 98 bf ba c0 a1 3e 0a a7 bd bc
       -0.79693323 -1.1921608 0.3159235 -0.02315094
000090 e9 a0 da bd f1 99 ab be 8c 24 23 bf 0c 62 01 3f
       -0.106752224 -0.33515885 -0.6372764 0.5054023
0000a0 60 2b 54 3e 2e 8a ff 3e 1a 3d 41 bf 2b 82 91 be
       0.20719671 0.4991011 -0.7548386 -0.28419623
0000b0 9c 9b 35 3d 4f 43 e0 3e 00 cf 86 bd fe b9 b0 bd
       0.044337854 0.43801352 -0.06582451 -0.08629225
0000c0 ac b7 56 3d 92 18 7e be 31 32 96 be 7a 64 24 3d
       0.052421257 -0.2481406 -0.29335168 0.040134884
0000d0 98 a1 a7 bd 09 cf bb 3d 7a c6 3e be de 32 f9 be
       -0.081851184 0.09170348 -0.186304 -0.4867162
0000e0 4a 5f e8 3e 40 14 af be 0a fc 44 bf b0 50 a3 3d
       0.453852 -0.34195137 -0.7694708 0.07974374
0000f0 fc 61 ff 3e da 91 7f 3e 9e 73 29 3f 72 eb 49 be
       0.49879444 0.24957982 0.6619204 -0.19718722
000100 16 7c b3 3c cb b3 73 3e 08 44 c7 3e 3c 66 dc be
       0.021909755 0.23799054 0.3891909 -0.4304675
000110 a6 35 e7 bd a7 03 dc 3e 87 d2 66 bf 5c 67 2c be
       -0.112895295 0.42971537 -0.9016499 -0.16836303
000120 51 72 7f bc 8b 5c 19 3d b4 b1 8f be 93 ea 2e be
       -0.01559122 0.03744177 -0.28065264 -0.1708167
000130 74 8a 10 3e 6a 44 80 be c4 75 00 3f 97 97 b0 3e
       0.14115316 -0.25052196 0.50179696 0.34490654
000140 a6 87 12 3f 29 db ec 3d cf c8 89 bf fa 13 a1 3e
       0.57238233 0.11565239 -1.0764407 0.31460553
000150 7a e7 a7 3e 7b cf 22 3e 6c 3e 09 3c a9 35 23 3d
       0.3279379 0.1589946 0.008376699 0.039846096
000160 68 a5 72 3e 07 f2 69 3e cd a8 68 3e 34 1b 19 bf
       0.2369591 0.22846232 0.22720642 -0.59807134
000170 a1 bc 76 3d 2a da 91 bf c9 70 38 bd 44 28 48 bd
       0.060238484 -1.1394703 -0.045029435 -0.048866525
000180 0b 5c d0 3d a1 8c 54 3e 59 a1 37 be 4b d5 09 3e
       0.10173806 0.2075677 -0.17932643 0.13460271
000190 5d 20 a5 3e 72 e8 d4 3e ac 03 39 bf 63 31 75 bf
       0.32251254 0.41583592 -0.7227123 -0.95778483
0001a0 b6 74 b2 be f1 7d 3f 3e 33 a0 08 3e 2f 89 ce be
       -0.34854668 0.18700387 0.13342361 -0.40339038
0001b0 18 55 30 be d8 e5 27 3d 6d b0 85 be 17 ad a6 bd
       -0.1721996 0.04099068 -0.26111165 -0.08138483
0001c0 90 c2 63 3e b7 48 0c be bd 96 e7 be 5c 8a c4 bd
       0.22242188 -0.13699614 -0.45232192 -0.095967025
0001d0 39 a3 78 be a2 f4 40 bf 61 9d 8c be 9b a7 f9 3d
       -0.24281015 -0.7537328 -0.2746382 0.12190171
0001e0 3f 46 3c be 83 01 49 bd 51 99 5c 3d 8d af ec 3b
       -0.18386172 -0.049073707 0.05385715 0.0072230757
0001f0 12 3f 0b bf e1 7c 08 3f 17 25 a3 be fe ed 29 be
       -0.5439311 0.5331555 -0.31864235 -0.16594693
000200 a4 44 1e 3e ec 93 21 be ac 7d 17 bf f3 38 a5 be
       0.15455872 -0.15779084 -0.59176135 -0.3227001
000210 32 23 6c 3f c9 10 1e be 74 be 13 bf 18 02 3d 3e
       0.92241204 -0.1543609 -0.57712483 0.1845783
000220 83 f9 45 3e d9 ad 08 3f eb c2 ad 3e 1d 0a 86 3d
       0.19333462 0.5339027 0.33937773 0.06544898
000230 6c f8 2d 3d d6 7c 2b 3f 78 d8 06 be 93 26 4e bd
       0.04247324 0.6698736 -0.13168514 -0.050329756
000240 b9 d0 36 3e cf 6a 9d 3e 65 65 2b be cd 44 de 3d
       0.17853059 0.3074555 -0.16737898 0.108529665
000250 b3 a2 2d 3d f5 2a a5 3e 71 17 a3 bd 75 18 8a be
       0.04239149 0.32259336 -0.079634555 -0.26971784
000260 72 59 65 3d 6b 52 00 bd c1 2c 5b be 3e 3c ba 3e
       0.055993505 -0.0313286 -0.21403791 0.36374086
000270 ec d3 62 3e 0b c2 11 3f 73 cd b0 b8 02 ce f6 bd
       0.22151154 0.5693671 -8.430602e-05 -0.120510116
000280 7b 56 d5 bf d4 d5 a0 3f e2 89 4a 3d a8 78 f7 3e
       -1.6667017 1.2565255 0.0494479 0.4833424
000290 0c cf 6a bd 20 d2 5a 3d 2d bd 36 be 20 ab c5 be
       -0.05732636 0.053423047 -0.17845602 -0.3860712
0002a0 89 5a 5e bf 1f 27 35 3e fe 78 88 3e 22 4c 4c 3e
       -0.86856896 0.17690705 0.2665481 0.19950917
0002b0 21 b1 7c bc a4 66 d9 bd ba ad f8 bd 56 b9 da be
       -0.01542309 -0.1061528 -0.12142511 -0.42719525
0002c0 ac f8 a2 be dc 7b f0 3e ea c5 cc 3e 38 d2 97 3c
       -0.31830347 0.46969497 0.39994746 0.018532857
0002d0 84 e3 02 3e 1d 2d 2b be 3d c7 0c bf f5 45 a3 3e
       0.12782103 -0.16716428 -0.54991513 0.3188931
0002e0 76 17 62 3e 76 5b 56 3e 13 be 3c 3c 98 07 b3 bf
       0.22079262 0.20933327 0.011519927 -1.3986692
0002f0 b5 8c 10 be ec 2e bc 3e 5c f7 3a 3d 44 e4 90 3d
       -0.14116175 0.3675455 0.045646057 0.07074788
000300 d7 e7 f3 be 7c 29 8b be 5f d0 b8 be d3 25 65 3f
       -0.47637817 -0.27180088 -0.36096475 0.8951084
000310 d7 e5 5c 3e 4f 9b fd bd 97 07 a1 bc 03 6f fd be
       0.21572052 -0.123831384 -0.01965694 -0.49498758
000320 d9 82 7f bf 9a a3 9a bc 3c aa 14 3e 4e 92 ba bd
       -0.9980903 -0.01887684 0.14518064 -0.09109937
000330 65 ec ec 3c 93 f4 b2 be c8 15 85 3e f1 5f 4c be
       0.028921315 -0.3495222 0.2599318 -0.19958474
000340 6e b0 9d be 61 9a 80 3c 2f 00 34 3e d1 2f 58 3e
       -0.30798668 0.015698614 0.17578195 0.2111199
000350 39 d1 1a 3e 5e c6 ed 3d b4 3c af bf 78 cf 54 bd
       0.15118875 0.11610101 -1.36904 -0.05195567
000360 21 47 aa be 0a 24 ee 3d 7d 0c d7 bd a9 49 fc 3d
       -0.33257392 0.11627968 -0.10500429 0.12318737
000370 89 e7 04 3e f7 28 c7 3e db 22 81 3e ac 28 54 be
       0.12978949 0.3889844 0.25221905 -0.2071864
000380 de 93 29 bd f6 a4 fe 3e 06 91 09 be 03 b5 4d 3a
       -0.041400783 0.4973523 -0.13434228 0.0007847102
000390 08 44 3d bd 20 dd dd be bb b3 75 3e b8 7f cb 3e
       -0.046207458 -0.43332767 0.23994343 0.3974588
0003a0 80 24 a7 3b e5 90 8c 3e 27 03 a4 bf 7f 4f 97 3e
       0.0051007867 0.27454296 -1.2813462 0.29552838
0003b0 93 90 77 be e5 01 73 3d 95 e2 df 3e f2 b8 f1 be
       -0.24176244 0.05932798 0.43727556 -0.47211415
0003c0 2c 2f 01 bf c5 df 5a bd 87 92 95 3c 30 d6 15 3e
       -0.50462604 -0.05343606 0.018258346 0.14632487
0003d0 84 2f 1b bb d8 0e 8d 3e 7a 5c 9c 3d a4 17 c7 bc
       -0.0023679445 0.27550387 0.07634826 -0.024303265
0003e0 47 67 f4 3d 84 4e 94 bd 74 ec b6 bf e4 47 11 be
       0.11933761 -0.07241538 -1.429091 -0.1418758
0003f0 a0 33 47 ba 29 fc 0e bf ba bd 21 bd 8a 7e bd be
       -0.000759894 -0.55853516 -0.039487578 -0.37010604

net.2.bias f4 [256]
000000 a5 cd fd bd 52 19 a2 3e 37 b2 f6 3c 40 5c af bd
       -0.12392739 0.31659943 0.030114276 -0.08562517
000010 d9 36 50 3e e1 5f a5 3d 92 66 2b 3e 3f 95 19 3e
       0.20333423 0.08074928 0.16738346 0.14998339
000020 98 bf 32 3e 4d 85 09 3e 17 97 62 bd e1 3e 4e 3e
       0.174559 0.13429756 -0.05531987 0.20141174
000030 80 8b 8d bd 88 d4 63 3e 0a 3f 86 3d 50 95 06 bd
       -0.06911373 0.22249043 0.065549925 -0.03285724
000040 cd 84 13 3e 74 97 22 3e 38 78 7d 3e 53 82 25 3e
       0.14406128 0.15878087 0.24752891 0.16162996
000050 93 88 58 be 98 48 eb 3d c1 dc 0b 3e 75 2b c9 3e
       -0.21145849 0.114884555 0.1365843 0.39290968
000060 c6 71 0d bd c9 f2 52 3e 5d ab 81 bd c7 4e 54 3e
       -0.03453233 0.20600428 -0.06331513 0.20733176
000070 66 ee 09 3e 46 98 22 3e cd 65 05 3e 99 66 af bc
       0.13469848 0.158784 0.13027115 -0.021411227
000080 4e 63 8b be 64 e5 ec bc d6 e1 0b 3e 85 d9 2b 3e
       -0.272242 -0.028917976 0.13660368 0.16782196
000090 34 f1 98 bd 91 02 7f 3e d1 38 aa 3e c7 81 60 3e
       -0.07467881 0.24903323 0.33246472 0.21924506
0000a0 13 25 2f 3e 0d dd 6e 3e eb 47 ed 3c 5a c7 2b 3e
       0.17103986 0.23326512 0.028964957 0.16775265
0000b0 a8 b1 6f bd f6 04 f0 3d f8 5b 0a be 8e ee 4f 3e
       -0.058519036 0.11719696 -0.13511646 0.20305845
0000c0 49 fb 7d bd b3 9e 0d 3e 70 4d 48 3e 1e 33 e8 3d
       -0.062007222 0.1383007 0.1956079 0.11337875
0000d0 e4 b9 66 3e c5 8c 63 bd 16 72 37 3e fe 33 96 bc
       0.22531849 -0.05555417 0.17914614 -0.018335339
0000e0 e5 08 70 3e a8 70 0e 3d c4 a2 93 be 83 1d 44 bd
       0.23440893 0.034775406 -0.28835118 -0.047879707
0000f0 ec da 31 3e d3 92 3b 3e ae 01 11 be a2 be a0 3e
       0.17368668 0.18317728 -0.14160797 0.3139544
000100 45 84 17 3e 6e 8d 36 3e 85 09 05 3e 2c 2a 91 3e
       0.1479655 0.17827389 0.12991913 0.28352487
000110 15 e7 b3 3d e4 9d 3e 3e 11 d8 88 3e 26 d2 37 3e
       0.0878431 0.18614918 0.26727346 0.17951259
000120 e8 93 0b bd c7 52 74 3e e3 1d 23 3d ad 47 06 3e
       -0.0340766 0.23859702 0.039823424 0.1311328
000130 a3 3f 6d 3e 37 26 5b 3e cf 78 14 3e a6 08 68 3e
       0.23168807 0.21401297 0.1449921 0.22659549
000140 66 7c 3c 3e 34 04 6a 3e 53 52 53 3e 5d 98 04 3c
       0.18406829 0.22853166 0.20636873 0.008092967
000150 95 be 89 3e 77 a5 4d 3e ca 09 4a bd e8 ab 80 bd
       0.26903215 0.20082651 -0.04932574 -0.062827885
000160 4d 6b 6a 3e 21 31 4e 3e 1a a5 27 3e c5 2e 04 3e
       0.22892494 0.20135929 0.16371575 0.12908466
000170 50 28 cb 3e bd bb ef 3e db 50 69 3e f9 34 e2 3d
       0.39679193 0.4682292 0.2278475 0.1104526
000180 6c 93 17 3e 04 1e 1d 3e 01 e6 14 3e 91 a1 c3 3e
       0.1480233 0.15343481 0.14540865 0.38209203
000190 0e 08 4f 3e 7b 07 47 3e 4e 5e 6a 3e a4 1e 08 3e
       0.20217916 0.19436447 0.22887537 0.13292938
0001a0 5e ac 9f 3c 72 67 44 3e e4 f3 6d 3e a4 e6 58 bc
       0.01949137 0.19180086 0.23237568 -0.013238583
0001b0 04 33 9f 3d 11 f2 33 3e 4a 88 58 3e b8 a7 7a 3e
       0.07773402 0.1757281 0.2114574 0.24478042
0001c0 d8 74 4a bd d5 39 ec 3d ef 12 69 bc bd 02 95 bd
       -0.049427837 0.11534468 -0.0142257055 -0.07275913
0001d0 eb 24 48 3e f7 b1 a4 3c b3 71 2d 3e 65 84 64 bd
       0.19545333 0.020104392 0.16937904 -0.055790324
0001e0 91 61 26 3e 5e e7 4b 3e 5a ab 4d 3e 91 4b e7 3e
       0.16248156 0.19912478 0.20084897 0.4517484
0001f0 69 ff 53 3e b1 62 c4 bd cd 79 24 3e 65 28 75 3d
       0.207029 -0.095891364 0.16062088 0.059852976
000200 4f 23 a5 be 09 f7 52 3e 45 eb 12 3e a3 0c 1b 3e
       -0.322535 0.20602049 0.1434756 0.1514154
000210 c3 85 67 3e c4 d6 6e 3d e2 38 15 3e 65 05 d9 3e
       0.2260962 0.058310285 0.1457248 0.42386928
000220 3e e8 3b be 7a 7e 12 3d eb f6 18 3e 52 e1 02 3e
       -0.18350312 0.03576515 0.14937942 0.12781265
000230 02 23 84 3e 07 0a 73 3e b5 7e 4c 3e b0 75 bc bd
       0.2580796 0.23734294 0.1997021 -0.092021346
000240 45 98 e5 3d c1 cd 34 3e 73 32 51 3e a4 dd 37 3d
       0.11210684 0.17656614 0.20429401 0.044889107
000250 38 42 8c bd 40 10 c1 3b ae b9 0f 3e c5 93 0c 3e
       -0.06848568 0.0058918297 0.14035675 0.13728245
000260 0c 57 bc 3e ef 8c 17 3e 59 f3 3d 3e 40 f8 5f 3e
       0.36785161 0.14799856 0.18549861 0.21872044
000270 5d 6d 57 3e ec 6a 81 3b 3b 56 e5 bd 71 38 d4 ba
       0.21037813 0.0039495137 -0.11198088 -0.0016191137
000280 0c 2f 5a 3e 91 d7 6a 3e d9 fa c4 3d e1 99 55 3e
       0.2130701 0.22933795 0.09618158 0.20859481
000290 ae 2e 67 3e f6 93 46 bd 2d 51 65 bd 48 1a 31 3e
       0.225764 -0.04848095 -0.05598562 0.17295182
0002a0 38 72 07 3e d9 65 87 be 98 3f 37 3e 71 12 39 3e
       0.13227165 -0.2644489 0.17895353 0.18073441
0002b0 36 6f 82 3e 9f c8 e5 3d 76 39 61 3d e4 a3 63 3e
       0.25475472 0.11219906 0.05498644 0.22230488
0002c0 cb 3c 60 3e 9c 7c 72 3e 01 65 1c 3e f3 96 94 3e
       0.2189819 0.23680347 0.15272905 0.29021415
0002d0 24 92 ea 3e db a1 b0 bd 0a 64 32 3e d0 c5 14 3e
       0.4581462 -0.086246215 0.17420974 0.14528584
0002e0 16 1e 05 bf b3 eb 75 3e 2b c7 ca 3d 23 1e 76 3a
       -0.5199903 0.24015693 0.099012695 0.0009388646
0002f0 65 d3 0b 3e 84 c4 2f 3e 16 e7 e4 3e d4 1c 08 bf
       0.1365486 0.17164809 0.44707555 -0.5316899
000300 0f 6f 91 3e b5 94 88 bd 97 29 19 3d 62 30 86 3e
       0.28405043 -0.066689886 0.03739318 0.26208788
000310 ca 40 2e bd 51 7d 45 3e a4 ff f0 3d 24 e0 8b 3e
       -0.042542256 0.19286086 0.117675096 0.27319443
000320 bd 3f 73 3e c3 db a8 3e d2 0e 5d bd 0d f5 5f 3e
       0.23754783 0.32980165 -0.053969212 0.21870823
000330 b1 26 3b 3e f1 bb 2b 3e a3 69 1d 3e 95 24 50 3e
       0.18276478 0.16770913 0.15372328 0.20326455
000340 62 3f 27 3e f1 b9 3b 3e d7 4f 05 3e a7 76 04 3e
       0.16332772 0.1833265 0.13018738 0.12935887
000350 b0 21 74 3e ac 12 03 3e 82 7f 74 3d 91 b2 01 3e
       0.23840976 0.12800092 0.059691913 0.12665774
000360 e7 ef c1 3e 85 4b 32 3e 10 be fa 3d cf 25 98 3d
       0.37878343 0.17411621 0.12243283 0.074290864
000370 ac 8a 0a 3e e3 32 54 3e b3 67 91 3e 1c 01 cb be
       0.13529462 0.20722537 0.2839943 -0.39649284
000380 59 10 67 3e 62 be b2 bd fa 31 72 3e 2d e8 59 3e
       0.2256483 -0.08727719 0.23651877 0.21279974
000390 aa c7 42 3e 9b 52 4a be 57 7e 8e 3a a0 1c 20 3d
       0.19021478 -0.19758074 0.0010871392 0.0390898
0003a0 22 d9 14 3e bc ef 94 3d 89 e0 6b 3e 90 16 22 3e
       0.14535955 0.07272288 0.23034872 0.1582892
0003b0 e9 24 4b 3e c7 c1 e9 3a 87 e8 d8 3c 01 85 f7 3c
       0.19838299 0.0017834239 0.026478065 0.030214788
0003c0 4b a6 0e 3e 42 84 0b 3e 9a c8 f6 3c 8d 64 69 be
       0.13930623 0.13624671 0.030124951 -0.22792263
0003d0 10 45 7a 3e 0a 6d 29 3e f9 4c 0b 3e af 8e 36 3e
       0.24440408 0.16545501 0.13603581 0.17827867
0003e0 07 0a d3 3e 31 ec 43 3e 5f a5 e1 3c 32 af 17 3e
       0.41218588 0.19133069 0.027544675 0.14812925
0003f0 1f f4 5c 3e 53 f7 26 3d 3e ed 0a 3d ce 17 00 3e
       0.215775 0.04076321 0.033917658 0.12509081

net.4.weight f4 [1, 256]
000000 a7 09 cf bf 0b 97 71 3f e7 53 70 be 9a d7 9e 3f
       -1.6174821 0.943711 -0.23469506 1.2409546
000010 df fa 5e be ad 40 4c be 6b c7 57 be c6 a1 30 be
       -0.21775387 -0.19946547 -0.21072166 -0.17249212
000020 1c a5 9f 3f 98 6b 6d be bf 3f 71 3f ed 37 53 be
       1.2472262 -0.23185575 0.94237894 -0.20626803
000030 60 2a b8 3c 0c 42 5a be 19 6d 78 3f f1 ed a9 3c
       0.022481143 -0.21314257 0.9704147 0.020743342
000040 84 6d 3e be 38 44 42 be f5 e6 47 3f 3a 1f 65 be
       -0.18596464 -0.18971336 0.7808679 -0.22375193
000050 98 5f 68 3f db 75 52 3f 17 89 27 be d8 25 34 3f
       0.90770864 0.82211083 -0.1636089 0.70370245
000060 c5 1d 44 3d d6 2f 52 be 23 f9 c1 bf b1 9b 68 be
       0.047879953 -0.2052606 -1.5154155 -0.22715642
000070 c7 e6 22 be 80 ff 86 3f a4 9b 41 be 08 f0 32 bc
       -0.15908347 1.0546722 -0.18907028 -0.010921486
000080 1e 32 a1 3f 4d c4 c2 3f 21 35 7c be cd 3c 2a bf
       1.259342 1.5216156 -0.24629642 -0.66499025
000090 2f b3 4f 3f f0 53 76 3f cf f2 57 3f e6 27 57 be
       0.8113279 0.9622183 0.8435487 -0.21011314
0000a0 f6 37 47 be ae e8 5f be 36 8b ce 3c 60 77 68 be
       -0.19454941 -0.21866104 0.025212865 -0.22701788
0000b0 37 4f ab 3c c8 f7 47 be 2d aa 8f 3f 31 52 78 3f
       0.020911796 -0.19528115 1.1223809 0.97000414
0000c0 2b c9 bf 3c 1b 2b 39 be 3a 56 82 be ac 19 00 bf
       0.023411354 -0.1808285 -0.2545641 -0.5003917
0000d0 1b c1 32 be 55 bb 02 3d 81 74 2e be f8 72 09 3d
       -0.17456476 0.031916935 -0.1703663 0.03355691
0000e0 f0 c3 3f 3f 13 bc a2 3f 88 5c 48 3f d8 e9 a6 ba
       0.7490835 1.2713646 0.7826619 -0.0012734486
0000f0 34 74 39 be b1 e1 3b be 4a c1 78 3f c6 90 51 3f
       -0.18110734 -0.18347813 0.97169936 0.8186153
000100 a7 88 18 3f 2d 88 24 3f 64 58 52 be 9c da 4e 3f
       0.59583515 0.6427029 -0.20541531 0.8080232
000110 ea 80 84 be 34 c1 65 be 66 4d 37 3f cb 37 34 be
       -0.25879604 -0.22436982 0.71602476 -0.17599408
000120 35 cd 79 3c 57 89 63 be 7a 1f 72 3f 63 c9 2d be
       0.015246679 -0.2222036 0.9457928 -0.16971354
000130 74 6b 6f be 34 fa 71 be d3 04 8d 3f c7 1c 4b be
       -0.23380834 -0.23630601 1.1017097 -0.19835196
000140 d0 8a 5a be 59 31 6e be 82 08 54 be bc b8 ca 3f
       -0.21342015 -0.23261012 -0.2070637 1.5837626
000150 8c f3 79 3f 63 b4 0d bf b9 46 53 3c 33 3f fe 3c
       0.9763725 -0.55353373 0.01289528 0.031035995
000160 ed 62 59 be c2 86 29 be 0a 11 60 be c3 76 5c be
       -0.21229143 -0.16555312 -0.218815 -0.21529679
000170 97 aa 49 3f 5f fc 4e 3f 41 dc 55 be 71 66 69 be
       0.78775924 0.8085384 -0.20884801 -0.22792985
000180 0c 18 56 be 04 18 4b be 38 5f 69 3f 67 d3 66 3f
       -0.2090761 -0.1983338 0.9116092 0.90166324
000190 e6 b7 5c be 52 97 29 be f5 be 5d be bb 5b 63 be
       -0.21554527 -0.1656163 -0.21654876 -0.22202961
0001a0 2a 83 89 3b 22 6f 4f be c9 e5 7b 3f d3 f9 e5 bf
       0.004196544 -0.20257238 0.983975 -1.7966865
0001b0 d9 b0 8d be 18 9b 1c be cc 1c 57 3f 34 55 6a be
       -0.27673987 -0.15293539 0.84028316 -0.22884065
0001c0 23 a5 87 3c c3 a7 3a be a5 06 d7 3c 5d 83 10 3d
       0.016558236 -0.18228059 0.026248286 0.035281528
0001d0 41 8e 3a be 51 e9 aa 3c 5a 96 31 be 43 5f a1 3c
       -0.18218328 0.020863207 -0.17342511 0.019698745
0001e0 67 f2 4d 3f 95 34 3a 3f 69 44 42 be e5 43 52 3f
       0.80448 0.72736484 -0.18971409 0.8213485
0001f0 27 fc 6a be 82 da 6e 3f f4 14 40 be 5f 89 a0 3f
       -0.22947751 0.93302166 -0.18757993 1.2541922
000200 2b 95 dd 3f ac 92 44 be 38 aa 43 be de dc 99 3f
       1.7311147 -0.19196576 -0.19107902 1.2020528
000210 e7 7a 49 be f9 41 5e 3f df 01 6b be eb ea 84 3f
       -0.1967579 0.86819416 -0.22949933 1.0384191
000220 83 34 79 3f c3 28 25 3d 76 00 28 be 59 3b 40 be
       0.9734575 0.040322077 -0.16406426 -0.1877264
000230 da e4 6e 3f ac 28 3d be cb e1 54 3f 54 4b 63 3f
       0.9331795 -0.18472546 0.8315703 0.88786817
000240 7c 45 bf bf 2d e9 23 3f bd 5e 5b be 9d ab 91 3f
       -1.494308 0.64027673 -0.21422859 1.1380497
000250 c2 8a d2 3f 38 20 c4 3c 89 d6 66 3f d2 07 0b bf
       1.6448596 0.023941144 0.90171105 -0.5430881
000260 28 d6 52 3f 42 80 e5 3f 67 a9 54 be 17 52 59 c0
       0.82358027 1.7929766 -0.20767747 -3.3956354
000270 68 79 53 be ac 7c ef bf 0e 01 0a 40 f5 63 1d bf
       -0.20651782 -1.8709922 2.1563144 -0.6148065
000280 96 39 93 3f 8e 12 80 be 92 7d e4 be 61 50 4d be
       1.1501949 -0.25014156 -0.44627053 -0.20050193
000290 4d 6f 2c be a4 14 c9 bc 82 94 9e 3f 81 d5 5c be
       -0.16839333 -0.024545975 1.2389071 -0.2156582
0002a0 0e cc 2e be 49 4a 84 3f df 51 43 be 39 8f e0 be
       -0.17070028 1.033517 -0.190742 -0.4385927
0002b0 a6 2d 52 3f 7e cc 58 be 5e a7 c1 3f 65 b9 d1 be
       0.82100904 -0.21171758 1.5129201 -0.40961757
0002c0 a2 c7 4b be 08 5c 7b 3f 89 85 3a be 74 ab 7e 3f
       -0.19900373 0.98187304 -0.18215002 0.99480367
0002d0 88 c7 37 3f 38 65 c9 bf 92 da 4c be cc d6 4f be
       0.71788836 -1.5734015 -0.20005253 -0.20296782
0002e0 3b 36 4e 3f f7 0d 8d 3f 6c 32 5c be 8d 62 6c 3f
       0.805515 1.1019887 -0.2150361 0.92337877
0002f0 ef b4 5a be 45 96 48 be 1b be 5e 3f d2 4e 41 3f
       -0.21358083 -0.19588573 0.8700883 0.75510895
000300 03 de 1c 3f 15 55 b6 bc f4 19 0d 3d 84 c2 57 3f
       0.61276263 -0.022257367 0.03444858 0.8428118
000310 5c eb 11 3c 2b 6d 51 be eb d2 e6 be 4b 8b 62 3f
       0.008906212 -0.204518 -0.45082793 0.88493794
000320 8d 9a 38 be c9 6c 2c 3f 8b eb 49 3b e4 bf 44 be
       -0.18027706 0.6735349 0.003081056 -0.19213825
000330 da 1e 58 be 22 7e 2a be 1d 6a 49 be 35 2a 3c be
       -0.21105519 -0.16649678 -0.19669385 -0.18375476
000340 d3 1f 3e be 7f 82 c0 3f 92 2a 72 be 94 7c 96 3f
       -0.18566827 1.5039824 -0.23649052 1.1756768
000350 7a d5 6a be e1 e0 44 be df f2 07 bc 55 cf 36 3f
       -0.22932997 -0.1922641 -0.008297651 0.71410114
000360 8c f7 45 3f a6 23 35 be f8 25 31 be 97 fa 73 3f
       0.7733085 -0.1768938 -0.1729964 0.95304245
000370 cb f1 ef be d3 73 6d be e8 91 78 3f 33 6e 8a 3f
       -0.4686416 -0.23188715 0.97097635 1.081488
000380 39 64 3d be ab 3e 4c 3d 10 83 73 3f e7 65 6a be
       -0.18495263 0.049864452 0.9512186 -0.22890435
000390 bb 7c 77 be be 7a c6 3f 18 d2 57 3d 80 69 d0 3f
       -0.24168675 1.5506208 0.052690595 1.6282196
0003a0 5a 40 9d 3f 11 c8 81 be a4 94 68 be 41 7c 81 3f
       1.2285264 -0.2534795 -0.22712952 1.0116044
0003b0 60 48 3e be 47 f1 bc bf 9a 8e c5 3c 07 9f de 3c
       -0.18582296 -1.4761132 0.02411585 0.02717544
0003c0 58 3a 07 bf e2 70 62 be 53 81 c3 bf 91 36 76 3f
       -0.528234 -0.22113374 -1.5273842 0.9617701
0003d0 c9 01 64 3f d7 d3 5a be 3a 8e 4a be 1f e7 5f be
       0.89065224 -0.21369873 -0.19780818 -0.2186551
0003e0 83 29 5e 3f 5b 03 55 3f 50 8c 02 3d 69 d8 62 be
       0.8678209 0.83208245 0.031872094 -0.22152866
0003f0 d5 f0 52 be b9 22 1c 3d 2b fc aa 3f c3 c9 42 be
       -0.20599683 0.03811905 1.3358206 -0.19022278
