manually_saved_runs/naive_ddpg_1/target_critic.pt (torch, 277831 bytes, 5 tensors)

net.0.weight f4 [256, 10]
000000 e0 fe ca be ca 7b 20 be d8 f6 2c bf e5 4d f5 3e
       -0.3964758 -0.15672222 -0.67564154 0.4791099
000010 bc 6a aa 3e 2e 06 85 3e 80 e9 8e 3c 9a ca 54 3e
       0.33284557 0.25981277 0.017445326 0.20780411
000020 31 5f 54 3d a4 0f 25 3d d1 37 91 be b2 16 65 3f
       0.051848594 0.04029812 -0.28362897 0.89487755
000030 01 fd c2 3d e4 68 5f bd 31 27 41 3d 09 10 0d be
       0.09520913 -0.05454339 0.047156516 -0.13775648
000040 c0 ac 89 be 98 af 89 be 95 27 3e 3f ea 18 98 bd
       -0.2688961 -0.2689178 0.7427915 -0.07426627
000050 4c 08 5e be f7 b2 5a 3d f1 fe 74 3e a1 21 66 3f
       -0.21682853 0.05339333 0.23925377 0.89895064
000060 1b 61 cc 3e 71 78 c7 3e cc 4a e3 bb 5c 07 95 3e
       0.39917836 0.38959077 -0.0069364067 0.29107177
000070 eb fe 0c be 63 d5 ff 3e 0f 67 2d be 97 cf 06 3e
       -0.13769118 0.4996749 -0.16933845 0.13165127
000080 7c 28 87 3d 53 79 18 3f 78 bd fa 3e 29 57 12 3f
       0.06599519 0.59560126 0.48972678 0.57164246
000090 d0 1a 21 be f2 6b 13 39 18 a8 d4 3d 93 ef 19 bd
       -0.15732884 0.00014059225 0.10383624 -0.03758199
0000a0 14 e1 e0 3e 14 30 03 be 48 fa 13 3d 70 f5 56 3d
       0.4392172 -0.12811309 0.03612736 0.05248016
0000b0 57 52 40 bf ad 10 a2 bf 26 e3 f7 bd f4 eb a4 3e
       -0.7512564 -1.2661339 -0.12103872 0.32211268
0000c0 77 03 fb bb f7 1b b2 39 c9 d3 d7 3d aa 60 b7 3e
       -0.007660325 0.0003397164 0.10538442 0.35815936
0000d0 2b 1a ca 3d bc 91 d8 3e f5 98 78 3e 8b 94 9a 3d
       0.098682724 0.42298687 0.24277098 0.075478636
0000e0 ef 3e 2b 3f 8a 62 ac 3c c2 52 03 be e5 8c 8b bc
       0.66892904 0.02104308 -0.12824538 -0.017034957
0000f0 64 c3 92 be b1 bb b5 3b f7 77 a2 3c fc 92 d5 3e
       -0.28664696 0.005546056 0.019832594 0.41713703
000100 46 62 fe 3e ed e1 7a 3f 4b bf 04 3e e5 92 d3 be
       0.49684352 0.98000985 0.12963597 -0.4132301
000110 bf da 0e 3c e5 da 80 bc f0 8d db bd 0b c7 59 3f
       0.008719145 -0.015729377 -0.10720432 0.8506934
000120 19 d5 cc 3e 54 6a 00 3f 9a 47 76 3d 78 a0 94 3e
       0.4000633 0.50162244 0.06012688 0.29028678
000130 d8 b2 e3 3a fd 93 d6 b6 58 ed 0f bd 7d 31 f0 3d
       0.0017372025 -6.394925e-06 -0.035138458 0.11728189
000140 15 45 4a 3e f4 a1 37 bd 57 a9 35 3e 29 cf 5a be
       0.19752915 -0.044832185 0.1774038 -0.21368088
000150 5f 76 5d bf d9 0e b6 bf e9 20 75 bf 6e 8e 73 bf
       -0.86508745 -1.4223281 -0.9575334 -0.95139205
000160 f2 65 51 bc 1a 37 5f 3c b6 d9 a7 be 97 a0 91 be
       -0.012780653 0.013623977 -0.32783288 -0.28442833
000170 ec e8 7d be 96 61 ea be c7 00 f3 3d 04 d7 48 3e
       -0.24795884 -0.45777577 0.11865383 0.19613272
000180 63 f9 90 3e bc dd 77 3e a2 76 b0 bd 00 b3 23 bd
       0.28315267 0.24205679 -0.086163774 -0.03996563
000190 fb 13 cf be 75 c0 99 3b 08 b1 40 be 51 29 e9 be
       -0.4044493 0.004692132 -0.18817532 -0.45539334
0001a0 dd 74 f6 3e e2 e6 6d 3d 66 2b 0d 3a 21 d7 c8 be
       0.48136035 0.058081515 0.000538519 -0.3922663
0001b0 79 01 13 bd 21 99 63 bc e5 fb c0 bd a4 ca 87 3e
       -0.035890076 -0.013891489 -0.09423045 0.2652179
0001c0 af 31 63 bb bb 4f 06 3f 45 80 75 be a7 78 a9 3d
       -0.0034667065 0.5246541 -0.23974712 0.08274966
0001d0 90 a0 04 be fc e4 3c 3e bc 34 18 3e b8 c3 28 be
       -0.12951875 0.18446726 0.14863867 -0.16480911
0001e0 81 cf 11 be a8 02 64 3e 39 6e 01 3e 97 ee 8c 3d
       -0.14239313 0.22266638 0.12639703 0.06881445
0001f0 5a 84 80 bd 01 0d f7 3e d6 51 65 bf 73 6f 38 bf
       -0.06275244 0.4825211 -0.89577997 -0.7204506
000200 5b a5 43 bc b3 0b 81 bc 5c 1e e7 be 2c 4b c8 3e
       -0.011941279 -0.015752649 -0.4514035 0.39119852
000210 f0 3c ad be 44 11 0e 3e 27 08 99 3e 28 ea 8e 3c
       -0.33835554 0.13873774 0.29889032 0.017445639
000220 9e e0 2b 3d 77 a8 21 3d 1a c4 f0 3d 3c ed 6e bd
       0.04196226 0.0394673 0.117561534 -0.058331713
000230 d5 dc f5 3e d9 80 bf 3d af 40 7b 3d 54 fe 10 3e
       0.48020044 0.093507476 0.061340984 0.14159518
000240 fd d7 3c 3e 7a ce f6 3e 27 a3 5c bf b0 ae f7 3d
       0.18441768 0.48204404 -0.8618645 0.12093866
000250 8c a7 10 bd 2e aa 2c bd 1f ab 36 3f 23 87 31 3e
       -0.035316035 -0.042154483 0.7135486 0.17336707
000260 ee 86 4f 3d 71 ca e1 3d b0 ee 19 bf b6 bd 8a 3e
       0.05066579 0.11024941 -0.60129833 0.27097863
000270 a2 3b 55 3c f6 9f a0 3e de 1f da 3c fd 0c 72 3e
       0.013014706 0.3137204 0.026626524 0.23637767
000280 8a 1f 21 3f 98 6f 34 3e c1 42 8a be 94 a2 13 be
       0.6293875 0.17620695 -0.27004054 -0.14417487
000290 b5 03 ab be e5 8b 97 bf 8f 42 76 bf 5f 5b 02 3e
       -0.33401266 -1.1839567 -0.9619531 0.12730168
0002a0 ec 73 19 3d 16 52 36 3d 17 ab 67 3e 2c 0c 82 3d
       0.037464067 0.044511877 0.2262386 0.06349978
0002b0 1f 26 7b 3e 76 2d ff 3d 2a 73 e7 be 1c 8b d1 be
       0.24526261 0.12459843 -0.4520505 -0.40926445
0002c0 f6 25 98 3e 8c 9e ed 3e f4 0b e6 bc d0 77 7e bc
       0.29716462 0.46410024 -0.028081872 -0.015531495
0002d0 91 f9 5b 3d a9 58 c9 3e 65 1c db bc 35 18 cf bd
       0.053704802 0.39325455 -0.026746938 -0.10112039
0002e0 e4 ca e4 3e 2f 16 30 3e 8c 88 6a be 48 5d 4c be
       0.44686043 0.17195962 -0.22903651 -0.19957459
0002f0 16 5d 0b bd af 87 ed be 9d bf c8 bd e2 17 43 be
       -0.03402432 -0.4639258 -0.09802172 -0.1905208
000300 c8 88 57 be 5e ef 77 3f 6e 07 cc 3d d6 f2 cb be
       -0.21048272 0.9684962 0.099623546 -0.39833707
000310 2f 57 b3 be c4 c3 c2 3e b8 a5 6b 3d 46 15 1c 3c
       -0.35027453 0.38039982 0.05753109 0.009526556
000320 d9 46 40 3d dd b0 d5 3d 0d 1d 40 bc 90 1b 10 3f
       0.046942566 0.104341246 -0.011725676 0.5629206
000330 ed a3 68 be f0 d9 4a 3e b3 63 19 3e 17 cc da 3e
       -0.22718783 0.19809699 0.14979438 0.42733833
000340 fb de c3 3d b0 34 90 bd 8f 95 15 3e 3b 11 9b 3f
       0.095640145 -0.07041299 0.14607833 1.2114633
000350 bf 6d d2 3b 74 db 48 3e b0 76 02 bd 5c 07 31 3e
       0.006421774 0.19614965 -0.03185147 0.17287964
000360 20 f7 a6 3e 8e c4 aa 3e 8a d8 32 be b4 d0 91 be
       0.32610416 0.33353084 -0.17465416 -0.2847954
000370 5f 98 65 bf 17 74 7a be cb db 17 be 47 1d 0b bf
       -0.89685625 -0.24458347 -0.14829938 -0.5434155
000380 f2 c9 d6 3d e0 72 00 be cf 18 da 3e 91 70 d8 bd
       0.10487737 -0.12543821 0.42597052 -0.10568345
000390 93 88 f1 bc 61 b1 12 ba 4c 99 c0 bb af b6 3a bf
       -0.029484069 -0.00055958895 -0.0058776494 -0.72935003
0003a0 3d 6e a6 be 81 6a 59 bf 9f 9d f9 3e 46 ad 1e bd
       -0.3250598 -0.8492814 0.48753068 -0.038739465
0003b0 bb 9e 44 3f cf 8a cd 3e f0 1b b3 3c 17 cd cf 3d
       0.76804703 0.40144965 0.021863908 0.1014654
0003c0 51 de 97 be e1 7b 0c 3c 5c 1c b6 3e ed fc a5 3e
       -0.296618 0.008574457 0.3556851 0.3241953
0003d0 2f b1 fc bd b6 65 71 3f 98 a2 71 bf 86 c2 15 bf
       -0.123384826 0.94295824 -0.94388723 -0.58499944
0003e0 28 80 5b bd 0c 1b ea bd 04 7b 37 3e b8 22 d7 bf
       -0.053589016 -0.1143094 0.1791802 -1.680747
0003f0 f4 c7 ad 3e 5e cd 8a 3b 0f 88 fe 3d e4 d5 42 be
       0.33941615 0.0042359075 0.12428295 -0.19026905

net.0.bias f4 [256]
000000 22 4e 10 bf 7a 85 ee 3e 66 d8 1c 3f 58 e5 d9 3e
       -0.5636922 0.4658621 0.612677 0.42557788
000010 ca 32 cb 3e 03 2a 40 3f ce 97 87 3e 3d 11 a4 3e
       0.39687186 0.75064105 0.26483005 0.32044402
000020 34 ad 86 be 49 c5 9c be 29 97 b3 3e 12 c9 28 3f
       -0.26304018 -0.30619267 0.35076264 0.6593181
000030 2f 88 b1 be aa 02 36 3f fb 03 f8 be a3 2e d2 3e
       -0.34674212 0.71097815 -0.48440537 0.41051206
000040 e5 92 b5 bd c0 86 23 3e c6 d6 53 3d 5a ea f1 3e
       -0.088659085 0.15969372 0.051718496 0.4724911
000050 b9 7b 19 3f e7 2a 1a 3f 07 92 ab 3e ff a9 23 be
       0.5995441 0.60221714 0.33509848 -0.15982817
000060 b9 11 db be 58 1c 34 3f ff 99 bd 3e 28 64 75 bd
       -0.4278696 0.7035575 0.37031552 -0.05990997
000070 f5 af 12 bf 77 17 71 3e 6d d5 16 bd fb 94 3a be
       -0.5729974 0.23544107 -0.036824632 -0.18220894
000080 7b 4e 16 bf 34 96 94 3e 3e cb 69 3e 2d ec dc be
       -0.587135 0.29020846 0.22831437 -0.43148938
000090 57 bf ab 3e 6f de 18 3f 0e c4 93 3e e9 58 c8 bc
       0.33544418 0.59714407 0.28860515 -0.024456458
0000a0 3c 43 9c bd 52 ab 56 3e 46 87 be 3d b2 87 9e 3e
       -0.076300114 0.20963791 0.09303145 0.30962902
0000b0 e2 14 bd 3e 64 a8 d7 3e e6 32 75 be ea 51 51 3e
       0.36929995 0.4212066 -0.23945197 0.20441404
0000c0 7e f1 bc 3e fc 0e 92 3e ec e4 14 3f 3c f9 eb 3e
       0.36902994 0.28527057 0.5816181 0.46088588
0000d0 d3 67 33 3f c5 35 af be 3a 60 8d 3e 08 6b cf be
       0.700803 -0.3422071 0.27612478 -0.40511346
0000e0 c3 44 a7 3d fd 26 af be ad d0 52 3e bb ef cd 3d
       0.08167412 -0.34209433 0.20587416 0.100554906
0000f0 89 5e 73 3f a0 42 11 3e e8 32 15 bf 98 80 66 3f
       0.95066124 0.14185572 -0.582808 0.9003997
000100 45 a1 2f 3d b2 84 b7 3d 2e 74 4c be 43 f8 b6 3e
       0.042878408 0.089608565 -0.19966194 0.35736284
000110 9c 12 23 3f fa 60 94 3e 7d 7a 08 3e 01 9f 18 bb
       0.6370027 0.28980237 0.13327976 -0.0023288133
000120 95 b4 6d 3d ca cb a8 3d 1e 2c 91 bd f8 f3 0c 3f
       0.058033545 0.08241995 -0.07088493 0.55059767
000130 b9 f9 40 3f c6 2a dd 3d 26 5f bc 3d a6 16 1f 3f
       0.75381047 0.10799174 0.091978356 0.62143934
000140 df 4b 01 bf 4b da 4e bf dd 15 5f 3d d6 4b da 3d
       -0.50506395 -0.8080184 0.05446421 0.10658996
000150 5b 92 7c 3c 06 a9 a5 be 00 e0 ca 3e 59 0a f4 3e
       0.015415753 -0.32355517 0.39624023 0.47664145
000160 8c c6 fe be 7f e7 09 be f7 4a f4 bc 65 36 54 3e
       -0.49760854 -0.13467215 -0.029820902 0.20723875
000170 c7 41 d2 3e d2 42 e3 3d 17 e3 4c 3f 4d ac 37 3e
       0.4106581 0.11096729 0.8003401 0.17936821
000180 a7 a4 59 bd 8b 87 a7 3d 3d 9e aa be 52 ad 42 3f
       -0.05313554 0.0818015 -0.3332385 0.76045716
000190 a4 70 8e 3c c2 55 da be 7c 22 b2 3d 32 89 88 3c
       0.017387696 -0.42643553 0.086979836 0.016666982
0001a0 1e a7 ae 3e 8b 06 0f 3e 1e 56 05 3f b2 41 09 3f
       0.34111875 0.1396734 0.5208453 0.5361587
0001b0 d2 12 80 3e 94 df da bd 3e 5f 00 3f 2b f7 bf be
       0.2501436 -0.106871754 0.5014533 -0.37493262
0001c0 33 36 d7 3e 39 c4 06 3f e2 6a 08 bf 78 fc 1e bf
       0.42033538 0.5264316 -0.5328809 -0.62103987
0001d0 aa fb 32 3f a5 ee 4b 3d 23 e8 06 3f 68 0a c2 be
       0.6991526 0.049788136 0.5269796 -0.37898564
0001e0 13 5a 87 bc 34 b7 20 3f 80 a0 3e 3e e7 40 27 3f
       -0.016522443 0.62779546 0.18615913 0.6533341
0001f0 c7 c2 06 3f bd 6c 33 3e 9d 2a fb 3d 2f 70 3b 3d
       0.52640957 0.17521949 0.12263987 0.045761283
000200 e2 62 d5 3d 18 02 e3 bd b1 2e 8b 3d fe 5f 1e 3f
       0.10419251 -0.11084384 0.06796015 0.6186522
000210 7f 7f b4 bd 52 b5 ac 3e be 49 20 3e 53 da 06 bf
       -0.088133805 0.33732086 0.1565313 -0.52676886
000220 1a b8 d5 3e 63 84 bc be 30 80 95 3e 88 9d 5a bd
       0.4174202 -0.36819753 0.29199362 -0.05337289
000230 1f f8 45 3f 15 45 0a bf 71 f5 bf 3e 68 e9 cf 3d
       0.7733173 -0.5401166 0.37491944 0.101519406
000240 fa 43 03 3f 17 4b 2f 3f b5 88 38 3f f5 ee 01 bf
       0.512756 0.68473953 0.720836 -0.50755244
000250 9d cc 6e be 2c 2e 44 3c 88 5d b7 3e 49 86 1a 3f
       -0.23320241 0.011973899 0.35813546 0.6036115
000260 a1 39 7e bf 91 9c a7 3e 19 f8 9d be c7 75 36 bd
       -0.99306685 0.32736638 -0.30853346 -0.044545915
000270 99 bb ee 3e c0 7d 08 3e 9b 78 63 3e 94 71 60 3f
       0.466275 0.1332922 0.22213976 0.87673306
000280 18 a6 45 3e d7 58 3a be c8 04 2b bf 25 5a 53 3c
       0.19301641 -0.18197952 -0.6680417 0.01289991
000290 f3 e2 29 3e 1f d9 ca 3e bf 18 6a 3f b0 01 68 3e
       0.1659048 0.39618775 0.9144401 0.22656894
0002a0 59 be 91 bd 68 73 c9 bd 1a 55 8a 3e e6 4f 59 bd
       -0.07116384 -0.09836465 0.27018052 -0.053054713
0002b0 e4 ee 41 3f fb 02 90 bd 2d a8 69 3e 48 34 29 3e
       0.75755143 -0.070318185 0.2281806 0.1652385
0002c0 e9 e6 47 be aa 04 1f bf f6 a8 3d bd 60 2f 6e 3d
       -0.19521679 -0.6211649 -0.04630371 0.05815065
0002d0 e6 83 dc 3d 10 8f e6 3e a8 aa f8 3d 1e a2 3a 3f
       0.10767345 0.45031023 0.12141925 0.7290362
0002e0 5f 79 0a bf 18 f6 c5 3d 60 b7 1b bc a8 94 89 3e
       -0.5409145 0.09666079 -0.009504169 0.26871228
0002f0 b1 d1 3f 3d b9 cb 09 3f d1 8d 03 be 1b e8 91 be
       0.046830837 0.5382648 -0.12847067 -0.28497395
000300 e6 49 fb 3c 02 67 23 3e a3 97 3c be 60 2c de be
       0.030674886 0.15957263 -0.1841722 -0.4339323
000310 90 34 0e bd 92 9d 15 be 9c 44 13 bf 40 47 81 be
       -0.034718096 -0.1461089 -0.57526565 -0.25249672
000320 c9 85 0b 3f 01 8e 7d 3e e2 6f b7 3d 27 97 5e 3e
       0.54501015 0.24761201 0.08956887 0.21737348
000330 8c e3 17 3e b3 23 e8 be 7c 94 bc 3e 2d 67 8d 3d
       0.14832896 -0.45339736 0.36832035 0.06904445
000340 e0 e8 44 3d f3 81 1e 3f bd 57 39 bd df ba ca 3e
       0.04807365 0.61917037 -0.04524969 0.39595696
000350 b7 73 a8 be 69 e3 ef 3e 2c 7b 61 3e 04 42 25 3e
       -0.32900783 0.46853188 0.22019643 0.16138464
000360 23 35 86 be c4 53 a8 be 21 ae f9 3e d3 0e 2e 3f
       -0.26212415 -0.32876408 0.48765662 0.6799137
000370 be 51 64 bd 36 0e 54 bd 0d 71 5d bd f5 e0 cd 3e
       -0.055742018 -0.051771365 -0.05406289 0.4021069
000380 e1 3e 23 bc da cf 5f 3d 74 a9 d0 3d cb 45 fa 3e
       -0.009963722 0.054641582 0.101885706 0.48881373
000390 7a c3 21 3f f4 76 2e 3e 84 fc d5 3e 51 f3 9f bd
       0.631889 0.17037565 0.41794217 -0.07810081
0003a0 86 45 c6 b9 ac bf 44 3e 10 a5 b0 bc ee 15 e1 3e
       -0.00037817302 0.19213742 -0.021563083 0.43962044
0003b0 e1 3e 89 3e 3d 25 11 3f be 96 4f 3e 48 3d 6a 3d
       0.26805785 0.56697446 0.20272347 0.05718735
0003c0 30 f5 8b bf d8 be 88 3e 05 9e 51 3f dd dd 44 bd
       -1.09342 0.26708102 0.81881744 -0.048063148
0003d0 d2 22 23 bf 65 e7 0c bb ae f5 b5 be 18 59 90 bd
       -0.63725007 -0.0021500227 -0.35539 -0.07048243
0003e0 c5 7b 73 3e fe 44 19 bd 44 47 96 3e dd 08 3e 3f
       0.23777683 -0.03741931 0.29351246 0.74232274
0003f0 de 2b 16 3e 50 92 9e 3a a9 05 a3 3e 84 c9 86 3d
       0.14665172 0.0012098048 0.31840256 0.06581405

net.2.weight f4 [256, 256]
000000 15 50 99 3e 40 ba b9 bd b7 40 ee 3c a2 22 a1 3d
       0.2994391 -0.090687275 0.029083593 0.07867934
000010 68 ae 9c bf 91 6b 83 bd c3 e1 5b 3d e9 28 ed bb
       -1.2240725 -0.06417001 0.0536821 -0.007237543
000020 f4 a5 e4 3e 35 ff b5 bc 62 5b 93 bc ed e6 b7 3c
       0.44657862 -0.022216419 -0.01798791 0.022448981
000030 48 38 1a 3e 5e 6b 33 bd e1 04 d2 3d 29 0f ca be
       0.15060532 -0.043803565 0.10254837 -0.3946469
000040 40 80 93 bf 5c 31 81 bf 06 38 6c 3c bf 49 48 be
       -1.1523514 -1.0093188 0.014417654 -0.19559382
000050 eb 61 dd bc 51 f2 2a bc ad 6b 66 3d 35 81 8c be
       -0.02702423 -0.010433749 0.05625503 -0.27442327
000060 0c 23 96 3e 1d a8 11 3e 66 33 8b be c5 0a f4 be
       0.29323614 0.14224286 -0.2718765 -0.47664467
000070 5a 19 0a bf 19 ea 72 3e 28 f1 78 be 6a ef 93 bd
       -0.53944933 0.23722114 -0.24310744 -0.07223399
000080 8c e8 4b bf 95 45 98 bf 1f 3a a1 3e 90 e0 b9 bc
       -0.79651713 -1.1896235 0.31489655 -0.022690088
000090 f5 cd da bd 80 08 ac be f6 58 23 bf 94 b2 01 3f
       -0.106838144 -0.33600235 -0.6380762 0.50663114
0000a0 0a 8c 54 3e a7 c5 ff 3e 67 1c 41 bf 97 35 92 be
       0.20756546 0.49955484 -0.75433964 -0.2855651
0000b0 d6 46 31 3d bf 65 e1 3e f1 20 7f bd cc 14 af bd
       0.043280445 0.4402294 -0.062287275 -0.085488886
0000c0 d7 b5 55 3d e8 7c 7b be 16 6a 96 be a3 12 1f 3d
       0.05217537 -0.24559367 -0.29377812 0.038836133
0000d0 42 9e a6 bd b2 d0 bb 3d 9c 10 3e be d9 1a f9 be
       -0.08135654 0.09170665 -0.18561023 -0.48653296
0000e0 ab 21 e7 3e 83 1a af be 22 96 44 bf 7f ce a0 3d
       0.45142874 -0.34199914 -0.76791584 0.07851886
0000f0 ea 12 ff 3e 7e 24 80 3e b1 fc 29 3f cd b9 4a be
       0.49819118 0.2502784 0.664012 -0.1979744
000100 bc 16 b8 3c aa b5 73 3e 78 02 c7 3e 32 e0 db be
       0.022471778 0.23799768 0.3886907 -0.42944485
000110 97 8f e6 bd 21 f1 dc 3e 9c 8c 66 bf 16 bf 2b be
       -0.11257856 0.43152717 -0.900583 -0.16772112
000120 e8 e3 8f bc f8 e9 21 3d 81 ed 8f be a5 cc 2d be
       -0.017564729 0.03952977 -0.2811089 -0.16972597
000130 fb 9e 10 3e 62 0b 81 be de 17 00 3f b2 2b b1 3e
       0.14123146 -0.25203997 0.5003642 0.3460365
000140 ba e1 12 3f 60 1c ed 3d d8 b7 89 bf b2 c5 a0 3e
       0.5737568 0.11577678 -1.075923 0.3140083
000150 b0 10 a8 3e 22 a5 22 3e 3c 6b 18 3c 60 3c 22 3d
       0.32825232 0.15883306 0.00930291 0.03960836
000160 3f 08 74 3e c1 32 6a 3e 4d 1b 69 3e ed d1 18 bf
       0.2383127 0.22870924 0.2276432 -0.5969532
000170 c7 bf 76 3d c7 9a 91 bf 4d d6 39 bd 5d cb 53 bd
       0.060241487 -1.1375359 -0.04537039 -0.051707614
000180 cd 93 d2 3d 6e 98 54 3e 5e a2 37 be 9d 1f 09 3e
       0.10282097 0.20761272 -0.17933032 0.13390966
000190 30 bf a5 3e 1d 1c d5 3e 4a 0f 39 bf 5c 56 75 bf
       0.32372427 0.4162301 -0.72288954 -0.958349
0001a0 11 80 b2 be 9b 01 3e 3e 89 8f 08 3e a1 39 cf be
       -0.34863332 0.185553 0.13336004 -0.40473655
0001b0 a4 83 31 be 6e 71 26 3d c3 43 86 be 54 c5 a4 bd
       -0.17335373 0.04063552 -0.26223573 -0.0804545
0001c0 32 77 61 3e ab c8 0c be f8 93 e7 be a7 ef bf bd
       0.22018126 -0.13748424 -0.4523008 -0.09371882
0001d0 a8 ec 77 be 05 cc 40 bf 30 7e 8c be e0 56 f4 3d
       -0.24211371 -0.7531131 -0.27440023 0.119306326
0001e0 0a 24 3c be de 40 48 bd 16 5a 64 3d 0f 8d dd 3b
       -0.18373123 -0.048889987 0.055749975 0.0067612003
0001f0 53 ed 0a bf f3 2c 08 3f 4d 24 a3 be 72 9b 29 be
       -0.5426838 0.5319359 -0.31863633 -0.16563204
000200 3c e8 1a 3e 2e 21 22 be 0a 61 17 bf 54 5c a5 be
       0.15127653 -0.1583297 -0.59132445 -0.32297003
000210 3c 43 6c 3f 58 fc 1c be a5 4d 14 bf 93 99 3c 3e
       0.9229009 -0.15330637 -0.57930976 0.18417959
000220 a9 12 45 3e 2c a1 08 3f 3e 8b ad 3e b6 9b 87 3d
       0.192454 0.5337093 0.33895296 0.066214964
000230 13 23 2a 3d 10 b7 2b 3f b7 d2 04 be c1 cd 54 bd
       0.041537356 0.67076206 -0.12971006 -0.051954035
000240 c0 bd 37 3e e9 6d 9d 3e 37 be 2b be df fb df 3d
       0.17943478 0.30747917 -0.1677178 0.109367125
000250 2e 5f 30 3d e1 83 a4 3e 7f c8 a1 bd 2e 36 8a be
       0.04305952 0.32131866 -0.0789957 -0.2699446
000260 4d 09 64 3d 02 fe f3 bc bb 1c 5b be 3d d8 b8 3e
       0.055672932 -0.029784206 -0.21397679 0.36102477
000270 34 71 63 3e 39 83 11 3f 78 5a 35 3a c9 83 f6 bd
       0.22211152 0.56840855 0.0006918083 -0.12036855
000280 b3 37 d5 bf 99 c0 a0 3f db f4 4e 3d c7 18 f7 3e
       -1.6657623 1.2558776 0.05052648 0.4826109
000290 ef 89 6d bd fc 5e 56 3d 2c ea 36 be 67 6f c5 be
       -0.05799287 0.052336678 -0.17862767 -0.38561556
0002a0 d4 6b 5e bf dc 06 35 3e fb aa 88 3e b5 b6 4d 3e
       -0.8688328 0.17678398 0.26692948 0.20089228
0002b0 3e 71 7f bc ef 9e d8 bd 69 e0 fd bd c1 60 dc be
       -0.015590964 -0.10577189 -0.123963185 -0.43042567
0002c0 6a 59 a3 be 44 97 f0 3e 18 28 cc 3e b2 e2 8c 3c
       -0.31904155 0.46990407 0.3987434 0.01719794
0002d0 3e a9 02 3e ae dd 2b be 6c 35 0d bf 1e 35 a3 3e
       0.12759873 -0.16783783 -0.5515964 0.31876463
0002e0 7f dd 61 3e ea 1d 54 3e e1 44 0f 3c 81 69 b3 bf
       0.2205715 0.20714536 0.008744449 -1.4016572
0002f0 60 01 11 be b1 08 bb 3e 55 45 39 3d db b4 90 3d
       -0.14160681 0.3653007 0.045232136 0.070657454
000300 fc 08 f4 be 01 c7 8c be 07 fa b8 be 5d 43 65 3f
       -0.47663105 -0.27495578 -0.36128256 0.89555913
000310 ef a0 5b 3e c1 1f fd bd 2b 71 a5 bc ca 6d fd be
       0.2144811 -0.12359572 -0.020195564 -0.49497825
000320 23 dc 7f bf b3 db 97 bc 8b 6a 15 3e ab 51 b6 bd
       -0.99945277 -0.018537378 0.14591424 -0.08902296
000330 ba a6 f1 3c d5 1e b3 be 00 35 84 3e 20 fb 4a be
       0.029498447 -0.3498446 0.25821686 -0.19822359
000340 ae 92 9e be fe 7e 85 3c e8 0e 32 3e 61 30 57 3e
       -0.30971283 0.016295906 0.17388499 0.21014549
000350 cb 34 1b 3e 73 22 ed 3d 6c fd ae bf 27 ee 60 bd
       0.15156858 0.11578836 -1.3671088 -0.05491462
000360 5b 48 aa be ad 23 ee 3d ce 0a d8 bd 82 41 f9 3d
       -0.33258328 0.11627898 -0.10548936 0.12170698
000370 94 2a 06 3e 57 a0 c6 3e 9d a8 81 3e e6 b4 54 be
       0.1310218 0.38794205 0.25323954 -0.20772132
000380 80 40 2a bd ee e4 ff 3e 84 7a 09 be 49 c2 73 3a
       -0.04156542 0.49979347 -0.13425642 0.0009298665
000390 db 0a 35 bd 57 4b df be 5b 01 75 3e 7b d6 cb 3e
       -0.044199806 -0.43612167 0.23926298 0.39812073
0003a0 b4 49 74 3b 10 c2 8b 3e 9c af a3 bf 06 fe 96 3e
       0.0037275376 0.27296495 -1.2787967 0.2949068
0003b0 6b dd 77 be 6c 78 71 3d 90 0d e0 3e b7 0b f1 be
       -0.24205558 0.058952734 0.43760347 -0.4707925
0003c0 04 15 01 bf 05 c7 63 bd 84 03 99 3c fc aa 14 3e
       -0.5042269 -0.05560972 0.018678434 0.1451835
0003d0 b4 00 1f bb 12 6a 8d 3e 66 bf 9c 3d 0e f3 c5 bc
       -0.0024261894 0.27619988 0.07653694 -0.02416375
0003e0 e5 34 f2 3d 09 81 94 bd 50 fb b6 bf 23 0f 12 be
       0.11826495 -0.07251174 -1.4295444 -0.14263587
0003f0 64 c0 55 ba df 8a 0e bf 0c 4e 25 bd 9a 25 bd be
       -0.00081539736 -0.5568065 -0.040357634 -0.3694275

net.2.bias f4 [256]
000000 7d 45 fd bd 34 e4 a1 3e 98 54 f6 3c e0 ef ac bd
       -0.123667695 0.31619418 0.030069634 -0.0844419
000010 6e f8 4f 3e e4 e2 a4 3d 31 28 2b 3e 45 57 19 3e
       0.20309612 0.080510885 0.1671455 0.14974697
000020 02 5f 32 3e 55 46 09 3e 1c 0d 63 bd ae 00 4e 3e
       0.17419055 0.13405736 -0.055432424 0.20117447
000030 e4 88 8d bd 5e 96 63 3e 59 77 83 3d 9e 93 06 bd
       -0.069108754 0.2222533 0.06419248 -0.032855622
000040 be 46 13 3e 74 59 22 3e f4 b2 7d 3e ef 43 25 3e
       0.14382455 0.15854436 0.24775296 0.16139196
000050 ef 9f 57 be f1 6e eb 3d 03 9f 0b 3e 72 ff c8 3e
       -0.21057104 0.1149577 0.13634877 0.3925739
000060 74 71 0d bd c5 b4 52 3e a4 d7 81 bd 86 10 54 3e
       -0.034532025 0.2057677 -0.06339958 0.20709428
000070 e6 b0 09 3e 7d ce 22 3e 7f 27 05 3e f8 64 af bc
       0.13446388 0.15899082 0.13003348 -0.02141045
000080 8d c6 8a be 1a c8 ed bc fa a9 0b 3e f6 86 2b 3e
       -0.27104607 -0.02902608 0.1363906 0.16750702
000090 4c ce 98 bd af 00 7f 3e 6b 21 aa 3e 7a 43 60 3e
       -0.07461223 0.24902605 0.3322862 0.2190074
0000a0 d5 e6 2e 3e dc 9e 6e 3e ec 48 ed 3c da 88 2b 3e
       0.17080243 0.23302788 0.028965436 0.16751423
0000b0 1f b2 6f bd 4e 88 ef 3d 56 11 0a be ec a4 4f 3e
       -0.05851948 0.1169592 -0.13483176 0.20277756
0000c0 6b fa 7d bd 93 60 0d 3e cd 0e 48 3e e9 cf e8 3d
       -0.062006395 0.13806371 0.19536896 0.11367781
0000d0 67 7c 66 3e b4 8c 63 bd 4f 34 37 3e ab 33 96 bc
       0.22508393 -0.055554107 0.17891048 -0.018335184
0000e0 17 0e 70 3e f4 bc 16 3d 69 5c 94 be ba 1d 44 bd
       0.23442875 0.036801293 -0.28976753 -0.047879912
0000f0 21 9d 31 3e e5 54 3b 3e 46 48 12 be 88 d7 a0 3e
       0.17345096 0.18294103 -0.14285383 0.31414437
000100 2f d9 17 3e 0c 8b 36 3e 39 cb 04 3e 7d ed 90 3e
       0.14828943 0.1782648 0.12968148 0.2830619
000110 4b eb b3 3d 70 5f 3e 3e 27 c5 88 3e 5b 94 37 3e
       0.08785113 0.18591094 0.26712915 0.17927687
000120 fa 90 0b bd 7f 14 74 3e a1 b5 27 3d cc 09 06 3e
       -0.034073807 0.23835944 0.0409447 0.13089675
000130 25 01 6d 3e c8 e7 5a 3e 91 08 15 3e c1 ca 67 3e
       0.23144968 0.2137748 0.14554049 0.22635938
000140 29 3e 3c 3e 99 c5 69 3e 30 14 53 3e f6 04 1d 3c
       0.18383087 0.22829284 0.2061317 0.009583702
000150 3a cb 89 3e a4 44 4d 3e 5f 09 4a bd e1 ab 80 bd
       0.26912862 0.20045716 -0.049325343 -0.06282783
000160 25 2d 6a 3e 9f f3 4d 3e d1 66 27 3e 66 f0 03 3e
       0.22868784 0.20112465 0.16347815 0.12884673
000170 15 01 cb 3e 50 93 ef 3e b6 12 69 3e 92 b7 e1 3d
       0.39649263 0.46792078 0.22761044 0.110213414
000180 21 55 17 3e ca df 1c 3e b2 86 14 3e 20 bf c3 3e
       0.14778568 0.15319744 0.14504507 0.38231754
000190 d4 c9 4e 3e fd c9 46 3e 05 20 6a 3e 28 e0 07 3e
       0.20194179 0.1941299 0.22863777 0.13269103
0001a0 7a ad 9f 3c 4b 29 44 3e 0e 05 6e 3e c7 d9 6f bc
       0.0194919 0.19156377 0.23244116 -0.0146393245
0001b0 1a 17 9f 3d c8 b4 33 3e ca 5f 57 3e 7a 69 7a 3e
       0.07768078 0.17549431 0.21032634 0.24454299
0001c0 d7 72 4a bd bb bd eb 3d c9 12 69 bc fa 02 95 bd
       -0.049425926 0.115107976 -0.01422567 -0.07275958
0001d0 24 e7 47 3e a6 b2 a4 3c fa 33 2d 3e cd 82 64 bd
       0.19521767 0.020104717 0.16914359 -0.055788804
0001e0 45 48 26 3e 13 04 4c 3e 6b 6d 4d 3e 41 21 e7 3e
       0.16238506 0.19923429 0.20061271 0.45142558
0001f0 c6 c0 53 3e ed c7 c4 bd cb 3b 24 3e 75 a2 78 3d
       0.20679006 -0.09608445 0.16038434 0.060701806
000200 ca 5a a5 be 13 b9 52 3e 1b ad 12 3e d6 4d 19 3e
       -0.3229583 0.20578413 0.14323847 0.14971098
000210 d5 47 67 3e e1 df 6c 3d 0d fa 14 3e 73 d8 d8 3e
       0.22585995 0.057830695 0.14548512 0.42352638
000220 db 8e 39 be 57 82 12 3d 4b b9 18 3e 14 a3 02 3e
       -0.18120901 0.035768833 0.14914434 0.12757522
000230 1d 0f 84 3e 4c cc 72 3e 48 52 4c 3e 29 f0 ba bd
       0.2579278 0.23710746 0.19953263 -0.09127838
000240 69 de e6 3d 90 2e 35 3e 44 f4 50 3e 2a 86 39 3d
       0.1127289 0.17693543 0.2040568 0.045293964
000250 b5 de 8b bd 77 10 c1 3b 0d 7b 0f 3e 78 2f 0c 3e
       -0.06829587 0.0058918553 0.14011784 0.13689983
000260 7e 28 bc 3e 5d e7 16 3e 31 b5 3d 3e 3a c5 62 3e
       0.36749643 0.14736696 0.1852615 0.22145548
000270 19 2f 57 3e bc b5 86 3b 31 71 e5 bd 31 35 05 bb
       0.2101406 0.00411102 -0.1120323 -0.0020325894
000280 1d 9f 5a 3e ce 98 6a 3e b7 10 c5 3d db 5b 55 3e
       0.2134976 0.22909853 0.09622329 0.20835821
000290 43 f1 66 3e f6 93 46 bd c0 41 60 bd f9 db 30 3e
       0.22552972 -0.04848095 -0.054750204 0.17271413
0002a0 78 34 07 3e 68 53 87 be 75 01 37 3e 17 38 39 3e
       0.13203609 -0.2643082 0.1787165 0.18087803
0002b0 ac 82 82 3e 7d 4b e5 3d 1f 58 62 3d a7 59 63 3e
       0.2549032 0.11196039 0.05525982 0.22202168
0002c0 d3 fe 5f 3e 73 f1 72 3e 14 27 1c 3e aa 49 94 3e
       0.21874551 0.23724918 0.15249282 0.2896245
0002d0 2b b3 ea 3e 0d 59 b1 bd eb 25 32 3e 92 87 14 3e
       0.4583982 -0.08659563 0.17397277 0.14504841
0002e0 1e a5 05 bf 02 41 76 3e d2 49 ca 3d d8 16 86 3a
       -0.52205074 0.24048236 0.09877361 0.0010230197
0002f0 fd 94 0b 3e 5f 86 2f 3e a4 cd e4 3e 0e a4 08 bf
       0.13631053 0.17141102 0.4468814 -0.5337533
000300 75 46 91 3e 58 93 88 bd 65 2d 19 3d 5b 13 86 3e
       0.28374067 -0.066687286 0.037396807 0.26186642
000310 00 40 2e bd 4e 3f 45 3e b2 01 f0 3d c2 be 8b 3e
       -0.042541504 0.1926243 0.11719073 0.27293974
000320 33 02 73 3e 5e cd a8 3e 9f 0c 5d bd 02 b7 5f 3e
       0.23731308 0.32969183 -0.053967115 0.21847156
000330 67 e8 3a 3e 5c 7e 2b 3e 57 2b 1d 3e be e6 4f 3e
       0.18252717 0.16747421 0.15348564 0.20302865
000340 5f 01 27 3e 09 f3 3b 3e 2d 11 05 3e 54 e9 03 3e
       0.16309117 0.1835443 0.12994833 0.12881976
000350 2b e3 73 3e 8d d4 02 3e 9a 80 74 3d af 29 01 3e
       0.23817126 0.12776394 0.059692957 0.12613557
000360 21 05 c2 3e a8 0d 32 3e 1e 42 fa 3d d5 b5 98 3d
       0.37894538 0.17388022 0.12219642 0.07456557
000370 6d 35 0a 3e 5f f4 53 3e e1 31 91 3e 6a fa cb be
       0.13496943 0.20698689 0.28358367 -0.39839488
000380 ae d2 66 3e 59 46 b7 bd 91 60 72 3e ef a9 59 3e
       0.22541305 -0.089489646 0.2366965 0.21256231
000390 13 89 42 3e c4 a6 4a be fc 7e 8e 3a 52 72 1d 3d
       0.18997602 -0.19790179 0.0010871585 0.038439102
0003a0 7c ee 14 3e 67 b4 94 3d 06 a2 6b 3e dc 38 22 3e
       0.145441 0.072609715 0.23011026 0.15842003
0003b0 db e6 4a 3e 90 01 c7 39 03 ea d8 3c 0c 86 f7 3c
       0.19814627 0.00037957402 0.026478773 0.030215286
0003c0 ca f1 0d 3e 7f 45 0b 3e a2 32 e6 3c e4 35 69 be
       0.13861766 0.1360073 0.028100315 -0.22774464
0003d0 61 32 7a 3e 97 2e 29 3e 8e 0e 0b 3e 4e 50 36 3e
       0.2443328 0.16521679 0.13579771 0.17804071
0003e0 4c e0 d2 3e a4 42 44 3e 52 a8 e1 3c c2 70 17 3e
       0.4118675 0.19166046 0.027546082 0.14789107
0003f0 e1 b5 5c 3e b0 f8 26 3d 2f d7 07 3d 49 b3 ff 3d
       0.21553756 0.04076451 0.0331642 0.12485368

net.4.weight f4 [1, 256]
000000 d7 db ce bf 09 84 71 3f e1 b2 70 be 4c f3 9e 3f
       -1.616084 0.94342095 -0.23505737 1.2417998
000010 e5 ed 5e be 12 52 4c be 95 ba 57 be 64 96 30 be
       -0.21770437 -0.19953182 -0.21067269 -0.1724487
000020 98 93 9f 3f ed 6c 6d be 9b 6a 71 3f db 31 53 be
       1.2466917 -0.23186083 0.9430329 -0.20624487
000030 17 2b b8 3c c8 43 5a be 18 3b 78 3f 83 ee a9 3c
       0.022481484 -0.21314919 0.9696517 0.020743614
000040 b7 6c 3e be f4 3c 42 be eb c8 47 3f 99 17 65 be
       -0.18596159 -0.18968564 0.7804095 -0.22372283
000050 86 7c 68 3f ee 63 52 3f c3 8b 27 be f6 18 34 3f
       0.9081501 0.8218373 -0.16361909 0.7035059
000060 a1 21 44 3d e9 21 52 be b8 25 c2 bf 9d 9d 68 be
       0.047883634 -0.20520748 -1.5167761 -0.22716375
000070 44 ea 22 be be e2 86 3f e2 ab 41 be 22 f3 32 bc
       -0.15909678 1.0537946 -0.18913224 -0.010922225
000080 cc 0a a1 3f 9e ba c2 3f 78 0a 7c be f2 1b 2a bf
       1.258142 1.5213201 -0.24613369 -0.6644889
000090 a1 a3 4f 3f bc 2b 76 3f cc e3 57 3f c6 23 57 be
       0.8110905 0.96160483 0.84331965 -0.2100974
0000a0 83 33 47 be 51 e4 5f be a2 8d ce 3c be 71 68 be
       -0.19453244 -0.2186444 0.02521402 -0.22699639
0000b0 fc 51 ab 3c 24 f7 47 be 04 be 8f 3f 13 48 78 3f
       0.020913117 -0.1952787 1.1229863 0.96984977
0000c0 3d cc bf 3c ed 2c 39 be 01 51 82 be 3f 0d 00 bf
       0.023412818 -0.18083544 -0.25452426 -0.5002021
0000d0 48 bb 32 be 22 bf 02 3d 20 69 2e be e7 75 09 3d
       -0.17454255 0.03192056 -0.1703229 0.033559706
0000e0 53 d1 3f 3f 20 ca a2 3f fd ce 47 3f 11 e9 a6 ba
       0.7492878 1.2717934 0.78050214 -0.0012734254
0000f0 c0 6d 39 be 1c de 3b be 13 85 78 3f 94 80 51 3f
       -0.18108273 -0.18346447 0.97078055 0.8183682
000100 df 7c 18 3f 73 95 24 3f 32 58 52 be 64 99 4e 3f
       0.5956554 0.6429054 -0.20541456 0.80702806
000110 c8 80 84 be 99 ab 65 be c0 49 37 3f 2e 30 34 be
       -0.25879502 -0.2242874 0.7159691 -0.17596504
000120 fe cf 79 3c 57 7f 63 be d4 07 72 3f 15 c9 2d be
       0.015247343 -0.22216545 0.94543195 -0.16971238
000130 05 76 6f be 9f fb 71 be 7a 02 8d 3f e0 1a 4b be
       -0.23384865 -0.23631142 1.1016381 -0.19834471
000140 f2 95 5a be 19 3b 6e be 35 06 54 be 36 d9 ca 3f
       -0.21346262 -0.23264731 -0.20705493 1.5847538
000150 ac 11 7a 3f a9 9c 0d bf 96 48 53 3c ba 40 fe 3c
       0.97683215 -0.5531717 0.012895724 0.031036723
000160 13 57 59 be 1e 8a 29 be d5 14 60 be 0a 7b 5c be
       -0.21224622 -0.16556594 -0.21882947 -0.2153131
000170 ad 9c 49 3f b0 ec 4e 3f 8a d5 55 be 64 6d 69 be
       0.78754693 0.80829906 -0.2088224 -0.22795635
000180 5a 22 56 be 35 1c 4b be 51 34 69 3f e6 c5 66 3f
       -0.20911542 -0.19834979 0.91095454 0.9014572
000190 8d ae 5c be 0b 97 29 be 02 bd 5d be 70 52 63 be
       -0.21550961 -0.16561525 -0.21654132 -0.22199416
0001a0 88 85 89 3b f6 7e 4f be 47 aa 7b 3f 29 8b e5 bf
       0.0041968264 -0.20263276 0.983067 -1.7933093
0001b0 5a a6 8d be 71 9a 1c be 29 b9 56 3f a9 48 6a be
       -0.2766598 -0.1529329 0.8387628 -0.2287928
0001c0 f6 a8 87 3c e0 9c 3a be 89 09 d7 3c 85 86 10 3d
       0.016560059 -0.18223906 0.026249664 0.035284538
0001d0 06 8c 3a be 6c ec aa 3c 2c 97 31 be fc 62 a1 3c
       -0.18217477 0.020864688 -0.17342824 0.01970052
0001e0 4f c1 4d 3f 77 f8 39 3f af 3e 42 be e8 35 52 3f
       0.8037309 0.7264475 -0.18969224 0.82113504
0001f0 64 fe 6a be b4 ee 6e 3f 56 13 40 be 11 8d a0 3f
       -0.22948605 0.9333298 -0.18757376 1.254305
000200 a2 ac dd 3f 77 9a 44 be 90 a1 43 be 7a ad 99 3f
       1.7318308 -0.19199549 -0.191046 1.2006066
000210 1f 7a 49 be c3 5b 5e 3f 06 fb 6a be 61 de 84 3f
       -0.19675492 0.8685877 -0.2294732 1.0380365
000220 18 07 79 3f bf 2b 25 3d 01 01 28 be dd 42 40 be
       0.9727645 0.040324923 -0.16406633 -0.18775506
000230 fc b0 6e 3f 93 25 3d be 90 bd 54 3f ae 84 63 3f
       0.93238807 -0.18471365 0.8310175 0.8887433
000240 fb 11 bf bf 87 c2 23 3f ad 5b 5b be e9 a9 91 3f
       -1.4927362 0.639687 -0.2142169 1.1379977
000250 0c 64 d2 3f 38 20 c4 3c 7c c4 66 3f bc 0d 0b bf
       1.6436782 0.023941144 0.9014356 -0.5431783
000260 fb c4 52 3f 8f 6d e5 3f 22 9a 54 be 51 5b 59 c0
       0.8233182 1.792406 -0.20761922 -3.3961985
000270 72 76 53 be ff df ee bf a6 f7 09 40 d1 5b 1d bf
       -0.20650652 -1.8662108 2.1557403 -0.61468226
000280 e9 17 93 3f 40 0b 80 be 36 50 e4 be cd 49 4d be
       1.1491672 -0.25008583 -0.44592446 -0.20047684
000290 52 74 2c be a4 14 c9 bc 13 91 9e 3f be d8 5c be
       -0.16841248 -0.024545975 1.2388023 -0.21567056
0002a0 29 d0 2e be f5 64 84 3f d7 51 43 be c9 37 e0 be
       -0.17071594 1.034331 -0.19074188 -0.4379256
0002b0 ea 1e 52 3f e5 ca 58 be b2 c0 c1 3f 40 7b d1 be
       0.8207842 -0.21171148 1.5136931 -0.40914345
0002c0 60 bd 4b be 58 33 7b 3f 2d 92 3a be 37 6b 7e 3f
       -0.1989646 0.9812522 -0.18219824 0.99382347
0002d0 e4 bd 37 3f 9d f3 c8 bf d2 e3 4c be 1d d6 4f be
       0.71774125 -1.5699345 -0.20008782 -0.20296521
0002e0 dd 56 4d 3f 10 f9 8c 3f a8 38 5c be 37 57 6c 3f
       0.8021067 1.1013508 -0.21505988 0.9232058
0002f0 76 a0 5a be cb 8e 48 be 59 a7 5e 3f db 6e 40 3f
       -0.21350273 -0.19585721 0.869741 0.7516915
000300 e4 d0 1c 3f 55 56 b6 bc 83 1b 0d 3d 43 a7 57 3f
       0.6125624 -0.022257963 0.034450065 0.84239596
000310 e7 ed 11 3c af 71 51 be 3c 98 e6 be 19 97 62 3f
       0.008906818 -0.20453523 -0.4503802 0.88511807
000320 d0 91 38 be 32 63 2c 3f 06 ee 49 3b 74 b8 44 be
       -0.18024373 0.6733886 0.003081204 -0.19210988
000330 ba 12 58 be fe 7a 2a be d9 6d 49 be 19 1f 3c be
       -0.21100894 -0.1664848 -0.1967081 -0.18371238
000340 3e 17 3e be 03 74 c0 3f 28 2e 72 be 8a 68 96 3f
       -0.18563554 1.5035404 -0.2365042 1.1750653
000350 af d0 6a be 11 e1 44 be 16 f7 07 bc 9a ab 36 3f
       -0.22931169 -0.19226481 -0.008298656 0.71355593
000360 16 eb 45 3f 00 24 35 be 95 24 31 be d4 fb 73 3f
       0.7731184 -0.17689514 -0.17299111 0.95306134
000370 bb b3 ef be 8f 66 6d be c1 55 78 3f d6 ff 89 3f
       -0.4681681 -0.23183654 0.9700585 1.07812
000380 d3 69 3d be 69 e4 3c 3d d4 63 73 3f 01 63 6a be
       -0.184974 0.046116266 0.950742 -0.2288933
000390 3b 77 77 be 40 7e c6 3f aa d4 57 3d 59 6a d0 3f
       -0.24166577 1.5507278 0.052693047 1.6282455
0003a0 5d 24 9d 3f 04 bd 81 be 15 89 68 be 80 80 81 3f
       1.2276722 -0.2533952 -0.22708543 1.011734
0003b0 a0 48 3e be 97 85 bc bf d2 90 c5 3c df a2 de 3c
       -0.18582392 -1.4728268 0.024116907 0.027177272
0003c0 cb 16 07 bf 66 6c 62 be 61 8f c3 bf 52 e3 75 3f
       -0.52769154 -0.22111663 -1.5278131 0.9604999
0003d0 2e ca 63 3f 7c df 5a be 1e 92 4a be f9 df 5f be
       0.88980377 -0.21374315 -0.19782302 -0.21862783
0003e0 e7 17 5e 3f 31 c3 54 3f 42 90 02 3d b9 da 62 be
       0.8675522 0.8311034 0.031875856 -0.22153749
0003f0 c2 eb 52 be 1f 27 1c 3d dc e4 aa 3f e2 b8 42 be
       -0.20597747 0.038123246 1.3351092 -0.1901584
