manually_saved_runs/naive_ddpg_1/target_actor.pt (torch, 276799 bytes, 6 tensors)

net.0.weight f4 [256, 8]
-0.48721373 0.28865704 0.6534585 0.20657346 0.05842476 1.3881881 -0.55144686 -0.37833485
0.06213186 0.16105226 -0.038211342 1.0263948 0.7441383 -0.65688914 -1.1031531 0.33481956
0.79319745 -0.004105114 0.57063234 0.07964205 -0.5134092 0.19391835 -0.04529829 0.4113813
0.33692226 -0.26132804 -0.15469366 0.14031698 -0.3839311 0.27422103 -0.27080604 -0.0548653
-0.5180145 -0.8963306 -0.8385946 0.45195812 0.19629297 0.5582013 0.035280783 -0.10932524
-0.093439095 0.16333069 -1.3223525 0.3813796 -0.12634727 0.40629718 0.057321496 -0.5503359
0.6653067 -0.49304938 0.2582768 0.43999156 0.2754939 -0.17926629 -0.49240568 0.17394465
0.18625017 -0.09787432 -0.018521199 -0.8033455 0.13214669 -1.0544711 -0.2739561 -0.15989716
-0.51190424 0.34443626 0.42029577 0.16118382 0.49861005 -0.54101014 -0.56867117 -0.49040914
0.12227242 0.24234477 -0.9931064 1.6711421 -0.28618985 -1.2521704 -0.3757237 -0.67082304
-0.56631297 0.47844067 -0.3629915 -0.49102342 -0.3217817 0.40580875 -0.04163427 0.13562414
0.9842692 0.10880994 -0.5213731 0.44847375 0.97976905 0.111582235 -0.32536933 -0.6773497
-0.21635294 -0.39794576 0.19774993 0.59917676 0.64753705 -0.37086108 0.009761189 -0.04281263
-0.25541902 -0.57596225 -0.17774639 -0.69683146 -0.11078981 -0.49332193 -0.20306951 -0.15418926
0.048154533 -0.33208475 -0.32647082 0.15056434 0.11336543 -0.7838107 0.06839289 -0.29331315
0.07612874 -0.16250375 -0.023202822 -0.24282828 0.3548662 0.22011922 -0.40896893 -0.106218085
0.36245638 -0.39792147 0.009896302 -0.06105265 0.11749471 0.18528835 0.5651465 0.069943585
0.31803843 0.08316781 0.43425405 -0.41433477 0.70884657 0.20447667 0.22968511 0.3075719
0.21305372 0.027908169 -0.1730447 0.12440539 -0.3283856 -0.20678897 -1.0056028 0.13979617
0.54449594 -0.6118525 0.24788313 0.33727244 -0.0024804866 -0.29788023 0.30086643 -0.2603584
-0.055389795 -1.0976597 -0.4887118 -1.4235963 -0.16099249 0.32690078 -0.08677713 -0.00958866
-0.24933833 -0.8548983 0.36665246 -1.1300483 -0.18420546 0.63207483 -0.0704189 -0.06891795
0.02673129 0.20102227 -1.1881609 1.4661492 -0.23521398 0.38304564 0.1757679 -0.14261787
0.09619308 -0.62424356 0.36287582 -0.12543556 0.598972 -0.42517853 0.033616614 -0.20298892
0.14114477 0.46028468 -0.21217492 -0.07792874 0.37859142 0.5657111 0.3238614 -0.40221125
0.29376754 0.062080767 0.34941584 0.35790032 -0.75288075 1.2199689 0.22988376 -0.39934087
-0.5777591 0.35076916 -0.37919334 0.9492716 -0.17147905 -0.07343493 -0.63571584 -0.39292386
0.050331153 0.24314733 0.033185784 0.66896003 -0.0062780967 -0.06921688 -0.14507933 -0.12356557
0.104743674 -0.099713765 0.0819254 -0.00044702945 1.0249934 -0.10903873 -0.09379958 -0.5310395
-0.12201366 0.40786523 0.8374827 -0.5028722 -0.6172088 0.33141395 0.18531871 -0.017948993
0.09460256 -2.0817046 0.13264321 0.24127272 -0.49833477 -0.3251083 0.16972518 -0.05434618
0.76771396 -0.072106905 -0.355796 0.5394634 -0.1572121 -0.4106867 -0.68859124 -0.12499388
00000000: 1474 f9be dbca 933e 0e49 273f fe87 533e
00000010: cd4e 6f3d 26b0 b13f 9f2b 0dbf 1bb5 c1be
00000020: fa7d 7e3d e2ea 243e 7f83 1cbd e860 833f
00000030: d97f 3e3f e329 28bf 1f34 8dbf 786d ab3e
00000040: fd0e 4b3f 3184 86bb f614 123f 5f1b a33d
00000050: c96e 03bf 8892 463e b38a 39bd 92a0 d23e
00000060: 1381 ac3e cacc 85be 0468 1ebe 41af 0f3e
00000070: 9e92 c4be b366 8c3e 17a7 8abe 70ba 60bd
00000080: 999c 04bf ec75 65bf 23ae 56bf 0e67 e73e
00000090: 0601 493e 48e6 0e3f 9582 103d e9e5 dfbd
000000a0: ff5c bfbd 2940 273e d942 a9bf 3044 c33e
000000b0: 2e61 01be 2f06 d03e f2c9 6a3d d0e2 0cbf
000000c0: 8a51 2a3f f870 fcbe db3c 843e 9346 e13e
000000d0: 890d 8d3e 9591 37be 991c fcbe 8c1e 323e
000000e0: 5db8 3e3e 5572 c8bd c5b9 97bc 0da8 4dbf
000000f0: 7651 073e e9f8 86bf f943 8cbe 15bc 23be
00000100: 280c 03bf f359 b03e 0231 d73e 5f0d 253e
00000110: d149 ff3e a47f 0abf 6f94 11bf e816 fbbe
00000120: f669 fa3d 3a29 783e 393c 7ebf fce7 d53f
00000130: 7a87 92be 1f47 a0bf db5e c0be 0fbb 2bbf
00000140: e3f9 10bf 2df6 f43e 06da b9be 6c67 fbbe
00000150: 92c0 a4be 2ac6 cf3e b288 2abd 0ee1 0a3e
00000160: 11f9 7b3f bfd7 de3d b578 05bf 5a9e e53e
00000170: 25d2 7a3f 3a85 e43d cf96 a6be ca66 2dbf
00000180: a08b 5dbe 8cbf cbbe f57e 4a3e a663 193f
00000190: fdc4 253f 81e1 bdbe 65ed 1f3c 4c5c 2fbd
000001a0: 48c6 82be 4372 13bf 2603 36be 8c63 32bf
000001b0: c5e5 e2bd b194 fcbe 74f1 4fbe cae3 1dbe
000001c0: b03d 453d 0307 aabe 2f27 a7be 8a2d 1a3e
000001d0: 222c e83d d1a7 48bf 9211 8c3d 242d 96be
000001e0: 63e9 9b3d 6267 26be d813 bebc faa7 78be
000001f0: 06b1 b53e ef66 613e 6064 d1be de88 d9bd
00000200: e293 b93e 5dbc cbbe 1924 223c 5812 7abd
00000210: 11a1 f03d 3bbc 3d3e 71ad 103f 953e 8f3d
00000220: efd5 a23e e353 aa3d 8c56 de3e b023 d4be
00000230: f876 353f 5562 513e 9332 6b3e 107a 9d3e
00000240: c12a 5a3e ac9f e43c a132 31be 41c8 fe3d
00000250: 2822 a8be 7dc0 53be 98b7 80bf ba26 0f3e
00000260: 1664 0b3f 5ea2 1cbf 13d5 7d3e f9ae ac3e
00000270: a98f 22bb c283 98be 2a0b 9a3e b24d 85be
00000280: 69e0 62bd 1d80 8cbf 6f38 fabe 6738 b6bf
00000290: 37db 24be 8a5f a73e 35b8 b1bd c119 1dbc
000002a0: 8c52 7fbe 9dda 5abf dfb9 bb3e 6ca5 90bf
000002b0: 5ba0 3cbe a8cf 213f c937 90bd db24 8dbd
000002c0: 94fb da3c c8d8 4d3e a815 98bf c7aa bb3f
000002d0: efdb 70be 8f1e c43e 80fc 333e 6b0a 12be
000002e0: e100 c53d 6dce 1fbf dcca b93e 2e72 00be
000002f0: 3b56 193f 00b1 d9be 93b1 093d 54dc 4fbe
00000300: 4188 103e 6faa eb3e 6244 59be 1a99 9fbd
00000310: bcd6 c13e 71d2 103f 29d1 a53e a2ee cdbe
00000320: b368 963e 6748 7e3d a2e6 b23e b63e b73e
00000330: cbbc 40bf f127 9c3f a666 6b3e 6876 ccbe
00000340: 05e8 13bf 0498 b33e a125 c2be 7703 733f
00000350: 3498 2fbe 0d65 96bd 46be 22bf 512d c9be
00000360: 0a28 4e3d 9dfb 783e d1ed 073d f740 2b3f
00000370: 7eb8 cdbb 94c1 8dbd ad8f 14be f20f fdbd
00000380: da83 d63d bb36 ccbd 81c8 a73d 475f eab9
00000390: fc32 833f b34f dfbd ff19 c0bd 34f2 07bf
000003a0: 4ce2 f9bd b6d3 d03e 4465 563f 3cbc 00bf
000003b0: 6501 1ebf 17af a93e 30c4 3d3e c409 93bc
000003c0: fdbe c13d a63a 05c0 9fd3 073e 3210 773e
000003d0: bc25 ffbe 9874 a6be 70cc 2d3e 1a9a 5ebd
000003e0: e788 443f c9ac 93bd e52a b6be 461a 0a3f
000003f0: 35fc 20be 8745 d2be 8447 30bf cbfc ffbd

net.0.bias f4 [256]
-0.6982605 -0.028389549 -0.16547525 0.23965704 0.13055442 -0.12414382 0.27281067 0.15396233
-0.17993341 -0.010755124 -0.29799938 -0.1960385 0.08443489 0.2542266 0.24498558 0.121099874
0.33221272 -0.33722588 0.27502018 0.22782056 0.06981968 0.19184564 0.06117458 0.20438601
-0.059271064 0.16799103 -0.0030133405 0.34578207 0.092293106 -0.11513139 0.38727838 0.12982278
-0.40397352 -0.13211662 -0.065803595 0.15428804 0.15809655 0.12409887 0.2849466 0.22765104
-0.19170554 -0.15648694 0.0038356483 0.3039115 0.14179996 -0.4085124 0.34830597 0.18317127
0.27173093 -0.23416626 -0.28074697 0.22556499 -0.2227475 -0.08018282 -0.15806454 0.11536876
0.31914347 -0.12806968 0.19916523 0.04536174 0.30150744 0.107226655 -0.09845635 0.06830362
-0.56393135 0.1792223 0.30329028 -0.38879 0.38683626 -0.0073679565 0.038337313 0.08547073
-0.020586936 0.31023127 -0.106727906 -0.34344754 -0.042736344 0.33617654 -0.06711185 -0.043442365
0.2456533 0.007377884 0.2577304 -0.26218644 -0.21892953 -0.532438 0.08864299 -0.0781488
-0.2563081 0.30461916 -0.10448421 0.35435718 -0.09090012 0.02307018 -0.18679033 -0.21767406
-0.027863145 0.05444103 0.18668635 0.121654734 0.113741726 -0.16219305 0.032540534 0.16803917
0.16194323 0.087375075 -0.31502336 0.2299213 0.00756931 -0.023525061 -0.29506546 -0.21574499
0.02679372 -0.32022047 0.21315736 -0.21971314 -0.0068042567 -0.07978896 0.1985549 0.34821063
-0.27364516 0.13354394 -0.060236897 -0.2343345 0.06483966 -0.07949629 -0.15320227 -0.45877984
0.07982279 -0.23613359 -0.5744558 0.122610696 -0.023120318 0.110852115 0.049457822 0.09972556
-0.017135205 0.2716782 -0.041229982 -0.44355825 0.14600188 -0.25848275 0.35951924 0.38207617
0.22263132 0.36871678 -0.122063965 -0.2102405 -0.5029076 -0.1901145 -0.1326977 0.04949894
-0.08427393 0.13051426 0.033158313 0.360379 -0.06838795 -0.22089894 -0.36289665 0.43643442
0.264768 0.26666576 0.10193315 -0.39053586 0.007092469 -0.31116754 0.16250342 -0.04417569
0.090427674 -0.27189133 0.010688752 -0.013466144 0.12350491 -0.09184805 0.05942376 0.08181716
0.038509123 0.08942187 0.21363306 0.4603931 -0.46804315 0.2252253 -0.126122 0.14839055
-0.009842533 0.25173947 -0.43662784 -0.13003716 -0.4170602 0.083009325 -0.11810719 -0.24615327
0.09212786 0.24030821 -0.11498047 -0.11898527 0.3846211 0.18184204 -0.17312671 0.24265547
0.34057027 -0.034046873 -0.114852905 -0.08764247 0.14566699 -0.27333912 -0.3211378 -0.13287534
0.22606327 0.20214963 0.07400742 0.12725174 -0.077327065 -0.07013285 0.30788234 -0.30442074
-0.0507859 -0.048360124 -0.04381995 0.29651245 -0.3977245 0.18433717 -0.58916974 -0.036701087
0.025115317 0.13961637 0.2376973 -0.050226558 -0.095587716 -0.19416384 -0.26954582 -0.26054102
-0.17942883 -0.20759857 -0.24593794 0.14410456 -0.32527086 -0.27158058 0.050073873 0.00050499156
0.22302549 -0.16982608 0.11090012 0.03171444 0.127761 -0.024779582 -0.345176 -0.14302343
-0.6472888 0.23882456 0.30204713 0.12017567 0.22806744 -0.24281482 -0.13931811 -0.0017321481
00000000: 33c1 32bf 3391 e8bc 5872 29be a868 753e
00000010: 0fb0 053e 1d3f febd d7ad 8b3e 4da8 1d3e
00000020: 7740 38be 4236 30bc 6093 98be 51be 48be
00000030: 33ec ac3d fd29 823e 80dd 7a3e 3603 f83d
00000040: c917 aa3e dfa8 acbe 72cf 8c3e cb49 693e
00000050: 9ffd 8e3d 2f73 443e 3292 7a3d 914a 513e
00000060: 37c6 72bd d705 2c3e 777b 45bb 590a b13e
00000070: 2b04 bd3d 02ca ebbd 5a49 c63e 43f0 043e
00000080: 9ed5 cebe 9449 07be 09c4 86bd affd 1d3e
00000090: 10e4 213e 8c27 fe3d 85e4 913e 5b1d 693e
000000a0: 754e 44be 1d3e 20be 805f 7b3b 4a9a 9b3e
000000b0: 0234 113e 8a28 d1be 2955 b23e 4091 3b3e
000000c0: 5120 8b3e 48c9 6fbe 11be 8fbe 82fa 663e
000000d0: ec17 64be e436 a4bd acdb 21be 7546 ec3d
000000e0: c666 a33e b324 03be f8f1 4b3e 3bcd 393d
000000f0: 2f5f 9a3e a699 db3d 7ca3 c9bd c5e2 8b3d
00000100: ce5d 10bf 0d86 373e dd48 9b3e 7c0f c7be
00000110: 670f c63e e66e f1bb 9607 1d3d 470b af3d
00000120: efa5 a8bc a2d6 9e3e 2994 dabd 5bd8 afbe
00000130: 4e0c 2fbd 551f ac3e f071 89bd 9ff0 31bd
00000140: 8a8c 7b3e 2dc2 f13b 3df5 833e 4d3d 86be
00000150: 102f 60be db4d 08bf 758a b53d 7a0c a0bd
00000160: d13a 83be 0bf7 9b3e d1fb d5bd 4e6e b53e
00000170: d829 babd adfd bc3c f745 3fbe f3e5 5ebe
00000180: 4041 e4bc 8ffd 5e3d b52a 3f3e 1e26 f93d
00000190: 6cf1 e83d ef15 26be 3949 053d 7612 2c3e
000001a0: 72d4 253e b4f1 b23d be4a a1be 7d70 6b3e
000001b0: f907 f83b a1b7 c0bc d212 97be 41ec 5cbe
000001c0: 817e db3c f0f3 a3be ec45 5a3e 7bfc 60be
000001d0: 3ef6 debb 6568 a3bd fa51 4b3e aa48 b23e
000001e0: 381b 8cbe bebf 083e f7ba 76bd 62f5 6fbe
000001f0: a8ca 843d f3ce a2bd 0ee1 1cbe 31e5 eabe
00000200: 227a a33d 01cd 71be 890f 13bf 511b fb3d
00000210: d266 bdbc 6f06 e33d 4994 4a3d ea3c cc3d
00000220: 215f 8cbc 6819 8b3e c5e0 28bd 111a e3be
00000230: 8481 153e da57 84be e812 b83e 7d9f c33e
00000240: 77f9 633e 72c8 bc3e acfc f9bd 4949 57be
00000250: 8dbe 00bf 60ad 42be e8e1 07be 67bf 4a3d
00000260: cf97 acbd 88a5 053e 03d1 073d 9983 b83e
00000270: fb0e 8cbd 5533 62be 97cd b9be 5574 df3e
00000280: ac8f 873e 6a88 883e 54c2 d03d 51f4 c7be
00000290: f167 e83b 5a51 9fbe 4c67 263e 91f1 34bd
000002a0: 2532 b93d 5735 8bbe e01f 2f3c 1aa1 5cbc
000002b0: 24f0 fc3d d51a bcbd 5466 733d c18f a73d
000002c0: bebb 1d3d d022 b73d a0c2 5a3e a5b8 eb3e
000002d0: 5aa3 efbe 76a1 663e 2026 01be b1f3 173e
000002e0: 9342 21bc ffe3 803e af8d dfbe 7628 05be
000002f0: ea88 d5be cb00 aa3d 2fe2 f1bd 9a0f 7cbe
00000300: 88ad bc3d 5b13 763e e17a ebbd 8dae f3bd
00000310: 0fed c43e cd34 3a3e 2148 31be ad7a 783e
00000320: 3a5f ae3e bc74 0bbd 0038 ebbd e57d b3bd
00000330: ba29 153e 1bf3 8bbe 2c6c a4be 7910 08be
00000340: 217d 673e 5000 4f3e 3491 973d 484e 023e
00000350: a75d 9ebd d0a1 8fbd c1a2 9d3e 09dd 9bbe
00000360: e004 50bd 4415 46bd 8c7c 33bd 7bd0 973e
00000370: 8ca2 cbbe e2c2 3c3e d4d3 16bf e153 16bd
00000380: a3be cd3c 98f7 0e3e ec66 733e 5dba 4dbd
00000390: 7ec3 c3bd e3d2 46be e901 8abe a265 85be
000003a0: 31bc 37be b894 54be 28d7 7bbe 2590 133e
000003b0: e789 a6be 9c0c 8bbe 431a 4d3d 6961 043a
000003c0: cb60 643e e3e6 2dbe 9a1f e33d 00e7 013d
000003d0: c8d3 023e 8dfe cabc e9ba b0be bc74 12be
000003e0: b8b4 25bf 6d8e 743e eca5 9a3e a91e f63d
000003f0: 838a 693e 73a4 78be 68a9 0ebe 3f09 e3ba

net.2.weight f4 [256, 256]
0.25683957 0.2670972 -0.027002474 0.057527985 0.58308613 -0.13998502 -1.0906229 -0.041758258
0.033340286 -0.016543116 0.06595634 -0.23957016 -0.8096592 0.13076976 0.032298956 -0.53620756
-0.95120203 0.17452796 0.16229682 -0.25010926 -0.4048889 -0.97586465 0.22997671 -0.7508385
-0.091385305 0.24065726 0.26095662 0.18870033 -0.32378933 -0.050188884 0.0008364758 0.009185459
0.24988358 -0.030703412 -0.058670558 0.048523262 -0.4792473 -0.7784478 0.29210594 0.029629992
-0.34416276 0.08814787 0.15413861 0.042387903 -0.074001856 0.11199484 -0.58019924 -0.052145623
0.25805625 -0.38810137 -0.041601263 0.037128627 -0.25268954 0.25009418 -0.1619504 -0.05658708
-0.35253254 -0.21682696 0.14692056 0.24925858 -0.060472615 -0.22620249 -0.3308603 -0.1711044
0.50411046 -0.104499236 -0.287554 -0.3566999 0.053104017 -0.10607156 0.2833213 0.08090712
-0.24784344 -0.5586095 -0.14025694 0.09938971 0.016710756 -0.20204426 0.006209304 -0.27258104
0.11125691 -0.4415165 -0.10320754 0.0047824187 -0.25697264 -0.23074204 0.094971515 -0.3867109
-0.013993767 0.055514146 0.11421574 0.06792094 -0.3914699 0.0124441115 0.019318176 -0.17215344
-0.38317335 0.13013196 -0.26381302 -0.13166396 -0.5883798 -0.11568901 -0.35158828 -0.21626104
-0.04446201 -0.055709265 0.24853045 0.20486094 -0.12609753 -0.48046076 -0.11326891 0.12146145
-0.8011973 0.37869775 -0.6419666 0.03730648 -0.42208812 0.24569473 -0.043506086 -0.21499792
-0.5704405 -0.19836771 -0.07465405 -0.2593665 -0.5941948 0.03196129 0.012912688 -0.64203393
0.21022901 -0.20469731 0.07921589 0.05663585 -0.21683322 -0.3132581 0.21570192 -0.040122055
0.082108654 -0.64265126 -0.09147687 -0.07095083 0.01348558 0.06091541 -0.04956994 0.2315866
0.29003406 0.11796314 -0.19962764 -0.47129923 0.1556434 0.10745003 -0.22810452 0.10761396
0.17235245 0.23050182 0.10353174 -0.18516372 0.09408031 0.094103836 0.17094438 0.005018835
0.055234693 0.013376102 -0.39148894 -0.47897518 -0.26562914 -0.1631125 0.37259245 -0.23821275
-0.34724814 0.019099051 0.023575298 -0.13963787 -0.791056 -0.21305719 -1.0128107 -0.1515607
0.04556078 -0.031927798 -0.603285 -0.010863459 -0.17052363 -0.5219237 0.10277402 0.17155233
0.039440315 -0.011523496 0.18034498 0.035359323 -0.8031852 -0.44201154 0.29499507 -0.3114913
-1.1581261 0.13649255 0.13107717 -0.37928998 -0.16761057 0.034162037 -0.58146715 -0.54715496
-0.42809576 -0.20298485 0.14359021 -0.32257938 -0.03743831 0.23966278 0.2815057 -0.15752675
0.08849872 -0.053942066 -0.019467132 0.054775737 0.0053628082 -0.364989 -0.85262936 -0.19688305
-0.20132135 -0.10181721 0.14802453 -0.22635947 -1.070153 0.25847024 -0.14624932 -0.30520123
-0.029452728 -0.49214247 0.2794249 0.21082889 -0.038063638 -0.06085335 0.255498 -0.47371224
0.05684397 -0.29548517 -0.11716649 0.04405388 -0.0070282253 0.12214087 -0.15248507 -0.10298463
0.31999537 -0.0013705688 0.20396248 0.13051508 -0.07697837 0.20461388 0.038166653 0.055325273
0.09933609 -0.80256784 0.15465133 -0.0684118 0.007452271 -0.10681054 -0.33038163 0.116782114
00000000: 7a80 833e f7c0 883e 4b34 ddbc 77a2 6b3d
00000010: 2245 153f 3c58 0fbe 8899 8bbf b50a 2bbd
00000020: d38f 083d 6e85 87bc 1e14 873d e151 75be
00000030: d345 4fbf 82e8 053e e94b 043d e644 09bf
00000040: fa81 73bf 75b7 323e 2331 263e 520e 80be
00000050: 994d cfbe 44d2 79bf 047f 6b3e f436 40bf
00000060: 3828 bbbd db6e 763e 1b9c 853e a93a 413e
00000070: b7c7 a5be dc92 4dbd f146 5b3a 9c7e 163c
00000080: 7be1 7f3e b985 fbbc 8a50 70bd 54c0 463d
00000090: e75f f5be 5b48 47bf e98e 953e 99ba f23c
000000a0: 1a36 b0be df86 b43d 83d6 1d3e f09e 2d3d
000000b0: 498e 97bd 8d5d e53d f087 14bf a696 55bd
000000c0: f31f 843e 39b5 c6be 1666 2abd 3014 183d
000000d0: 8660 81be 580c 803e 53d6 25be dbc7 67bd
000000e0: 257f b4be e307 5ebe 5872 163e a43d 7f3e
000000f0: 22b2 77bd a0a1 67be 8566 a9be fe35 2fbe
00000100: 620d 013f b203 d6bd 473a 93be 5fa1 b6be
00000110: 9983 593d 0c3c d9bd 7d0f 913e a2b2 a53d
00000120: acca 7dbe 0801 0fbf 849f 0fbe d58c cb3d
00000130: ffe4 883c b1e4 4ebe 6b77 cb3b be8f 8bbe
00000140: aada e33d 730e e2be 7a5e d3bd d6b5 9c3b
00000150: eb91 83be a447 6cbe 6d80 c23d f9fe c5be
00000160: 1d46 65bc cd62 633d f1e9 e93d 221a 8b3d
00000170: be6e c8be 63e2 4b3c 2741 9e3c fe48 30be
00000180: 4c2f c4be 5041 053e 8012 87be ebd2 06be
00000190: 0fa0 16bf 5cee ecbd 6103 b4be 8973 5dbe
000001a0: cc1d 36bd 662f 64bd c47e 7e3e 11c7 513e
000001b0: b61f 01be f4fe f5be 88f9 e7bd c8c0 f83d
000001c0: 441b 4dbf ace4 c13e ec57 24bf aece 183d
000001d0: ef1b d8be 6697 7b3e 7033 32bd 6a28 5cbe
000001e0: 6308 12bf e820 4bbe 39e4 98bd b0cb 84be
000001f0: 271d 18bf d7e9 023d bd8f 533c 565c 24bf
00000200: 4646 573e 2c9c 51be f13b a23d fefa 673d
00000210: 8709 5ebe 5e63 a0be f7e0 5c3e 0657 24bd
00000220: 9528 a83d cb84 24bf 3a58 bbbd ab4e 91bd
00000230: 9ff2 5c3c 7082 793d d909 4bbd 0a25 6d3e
00000240: 587f 943e a996 f13d 306b 4cbe 224e f1be
00000250: fc60 1f3e c30e dc3d 3b94 69be b564 dc3d
00000260: 297d 303e ab08 6c3e 7308 d43d 8f9b 3dbe
00000270: 2dad c03d 83b9 c03d 0b0c 2f3e 0a75 a43b
00000280: c63d 623d 7027 5b3c 3d71 c8be 3c3c f5be
00000290: 8b00 88be f706 27be 70c4 be3e 0bee 73be
000002a0: 82ca b1be 9d75 9c3c fc20 c13c 3bfd 0ebe
000002b0: a582 4abf aa2b 5abe c8a3 81bf ba32 1bbe
000002c0: f19d 3a3d b9c6 02bd e370 1abf a6fc 31bc
000002d0: bf9d 2ebe cb9c 05bf 2f7b d23d 6aab 2f3e
000002e0: 2b8c 213d 0ccd 3cbc 5bac 383e f0d4 103d
000002f0: 8c9d 4dbf 564f e2be 9809 973e ca7b 9fbe
00000300: 7a3d 94bf b4c4 0b3e 1839 063e 4c32 c2be
00000310: 1ba2 2bbe 7eed 0b3d 08db 14bf 5912 0cbf
00000320: 5e2f dbbe 43db 4fbe 5009 133e 2029 a5be
00000330: ea58 19bd 296a 753e 8421 903e b14e 21be
00000340: d13e b53d 5bf2 5cbd 8979 9fbc 865c 603d
00000350: 7fba af3b d7df babe eb45 5abf b69b 49be
00000360: 2f27 4ebe 8b85 d0bd be93 173e c7ca 67be
00000370: c6fa 88bf 3656 843e 62c2 15be 5643 9cbe
00000380: d946 f1bc 19fa fbbe c810 8f3e 87e3 573e
00000390: 9ee8 1bbd 5d41 79bd a2d0 823e 698a f2be
000003a0: 39d5 683d d549 97be fcf4 efbd d771 343d
000003b0: 074d e6bb fe24 fa3d 0c25 1cbe 9be9 d2bd
000003c0: 6fd6 a33e a8a4 b3ba 8adb 503e bfa5 053e
000003d0: d6a6 9dbd 4d86 513e a354 1c3d c19c 623d
000003e0: b870 cb3d 1675 4dbf eb5c 1e3e 7c1b 8cbd
000003f0: 2e32 f43b 7cbf dabd c827 a9be 762b ef3d

net.2.bias f4 [256]
-0.005050528 0.10720672 0.17998599 -0.091226764 0.05009706 -0.28679872 0.09746393 -0.36395326
0.0050542587 -0.089908406 -0.10619684 -0.06756643 0.16443497 -0.12680164 0.18997821 -0.17954272
-0.12763387 -0.09597495 -0.10771958 -0.16655691 0.0089152 -0.19822076 0.043474957 -0.046278015
-0.055840958 -0.23691037 0.07131214 -0.09645952 0.06047541 0.10444424 -0.092129186 0.15687299
-0.0844086 -0.042726304 0.008584566 -0.06907013 0.05362864 -0.2882891 -0.12734139 0.034753054
0.13397875 0.07934973 -0.035124354 0.049848374 0.048546743 0.14501734 -0.06129858 -0.07335689
0.021253984 -0.24922128 -0.05684144 -0.088857956 0.082814336 0.05428741 -0.088102594 0.05142457
-0.025824765 -0.31485027 -0.048627853 -0.026988253 0.1490031 -0.09701243 -0.095455736 0.032278296
0.0041148895 -0.20503372 -0.41961086 -0.024341017 -0.018174661 -0.018658936 0.0023703675 0.0854448
-0.02515069 0.02323162 0.027348531 0.009641641 0.15256819 -0.07642102 -0.34478462 0.040514916
-0.366822 0.11510281 -0.06484248 -0.14979653 0.16903521 -0.13868153 0.026762536 -0.20196433
0.020436274 0.02711208 -0.008619858 -0.1201893 0.19146638 -0.16411227 0.092939496 -0.07128279
0.20596367 0.0806891 -0.01733493 -0.08928257 -0.027939508 -0.16238004 0.069973364 0.10991969
0.012105021 0.2353442 0.19082242 -0.33656886 -0.07624687 0.026996594 0.04345329 -0.020328319
0.061124623 -0.0233149 0.03680961 0.085248575 0.17836055 -0.08865951 0.12088728 0.0065098465
-0.013994025 0.064034835 -0.16109404 0.0004433007 -0.17799295 -0.21623868 -0.06506422 -0.89208454
-0.12918355 0.0006688827 -0.009681388 -0.028702985 0.077736445 0.07931367 -0.121953286 -0.115231514
-0.021530444 0.21598963 -0.18976195 -0.06251611 0.21492626 0.1378246 0.00066672254 -0.097110264
0.02108793 -0.100971445 0.08855275 -0.08034636 0.07742284 -0.26705596 -0.33685645 0.1982615
-0.057470348 -0.19006748 -0.1174631 0.111082435 -0.042496424 -0.010539352 0.1071002 0.13996963
0.14998741 -0.14780475 -0.046474848 -0.018093038 -0.21091698 0.07760151 -0.2604837 -0.014185289
0.16400929 -0.26719922 0.037296053 -0.14383708 0.17644301 -0.066214986 -0.025297841 -0.035051566
-0.032926083 -0.16489151 -0.15276252 -0.22454017 -0.06563342 -0.20761208 0.042250924 -0.12528475
0.24554805 0.25368223 -0.090146415 0.072360605 -0.048537962 0.022578279 -0.10194996 0.1104413
-0.17444836 0.035304952 -0.02602048 -0.0124335475 -0.13964221 -0.06431134 -0.16125798 0.08019524
0.04260135 -0.13810891 0.115685664 -0.20187485 0.15318988 0.071898274 0.06148409 -0.09985573
0.10151829 -0.12112868 -0.047905758 -0.047476314 -0.29536456 0.13685773 -0.036106545 0.058402173
-0.15141141 0.121568955 -0.003782499 0.08617311 0.0759919 -0.098582275 0.047800973 0.14289212
-0.09519236 -0.15110014 0.032233253 0.022947991 0.053565364 -0.063826226 0.10141689 0.0137143945
0.0036290616 0.09194456 0.10281987 -0.08230416 -0.0034039398 0.11852103 -0.3669814 0.05074805
-0.18324214 -0.066579066 0.18514253 -0.13111678 0.021340752 0.08342084 -0.010169708 0.07319584
-0.3463137 -0.31258377 0.17656444 -0.04026532 0.10409095 0.20170543 -0.011354777 -0.0011270486
00000000: e67e a5bb 328f db3d 3f4e 383e 19d5 babd
00000010: 9332 4d3d 48d7 92be 2b9b c73d 1558 babe
00000020: 329e a53b e621 b8bd bb7d d9bd 4560 8abd
00000030: a461 283e 4ad8 01be a689 423e 0cda 37be
00000040: 74b2 02be 848e c4bd 159c dcbd e58d 2abe
00000050: 0f11 123c 62fa 4abe cc12 323d 048e 3dbd
00000060: 7db9 64bd a298 72be 190c 923d 928c c5bd
00000070: 10b5 773d dde6 d53d 3aae bcbd 50a3 203e
00000080: 6bde acbd c701 2fbd 48a6 0c3c a474 8dbd
00000090: b4a9 5b3d a19a 93be c865 02be 3859 0e3d
000000a0: ba31 093e 1c82 a23d 8ede 0fbd cf2d 4c3d
000000b0: f3d8 463d 6d7f 143e 3814 7bbd 233c 96bd
000000c0: d61c ae3c dd33 7fbe 92d2 68bd 29fb b5bd
000000d0: 909a a93d 7a5c 5e3d 226f b4bd 92a2 523d
000000e0: 758e d3bc 0e34 a1be 002e 47bd 7816 ddbc
000000f0: 4594 183e 74ae c6bd 4c7e c3bd 3f36 043d
00000100: 32d6 863b 5cf4 51be 3cd7 d6be d066 c7bc
00000110: 07e3 94bc a0da 98bc 2b58 1b3b affd ae3d
00000120: d208 cebc 3d50 be3c 070a e03c f9f7 1d3c
00000130: d63a 1c3e a082 9cbd 9c87 b0be f8f2 253d
00000140: 18d0 bbbe 06bb eb3d 22cc 84bd 4364 19be
00000150: 9117 2d3e 8802 0ebe 1b3d db3c bdcf 4ebe
00000160: f969 a73c 271a de3c 4e3a 0dbc cf25 f6bd
00000170: c30f 443e 0c0d 28be 1057 be3d b6fc 91bd
00000180: 24e8 523e 5440 a53d fc01 8ebc c8d9 b6bd
00000190: 65e1 e4bc f446 26be 324e 8f3d 931d e13d
000001a0: 2354 463c 12fe 703e f466 433e c152 acbe
000001b0: 5227 9cbd f627 dd3c 14fc 313d 9387 a6bc
000001c0: d05d 7a3d e4fe bebc acc5 163d ce96 ae3d
000001d0: 26a4 363e 1e93 b5bd c093 f73d 8d50 d53b
000001e0: 3247 65bc b224 833d d6f5 24be d06a e839
000001f0: c943 36be ac6d 5dbe 6440 85bd a75f 64bf
00000200: b148 04be f557 2f3a af9e 1ebc 8622 ebbc
00000210: 4934 9f3d 356f a23d a5c2 f9bd 80fe ebbd
00000220: 9d60 b0bc 632c 5d3e f550 42be 7208 80bd
00000230: a115 5c3e e421 0d3e fec6 2e3a bfe1 c6bd
00000240: 98c0 ac3c 1eca cebd 255b b53d a28c a4bd
00000250: de8f 9e3d 8fbb 88be 7378 acbe 1005 4b3e
00000260: 0766 6bbd 0da1 42be 7e90 f0bd 307f e33d
00000270: bb10 2ebd 3fad 2cbc 5a57 db3d 3354 0f3e
00000280: 4d96 193e 215a 17be 695c 3ebd da37 94bc
00000290: 9ffa 57be 8aed 9e3d 1f5e 85be 6a69 68bc
000002a0: 0df2 273e 56ce 88be bfc3 183d 074a 13be
000002b0: 7aad 343e b99b 87bd 6b3d cfbc 3b92 0fbd
000002c0: 80dd 06bd 52d9 28be c76d 1cbe dced 65be
000002d0: d16a 86bd 4398 54be 4e0f 2d3d a54a 00be
000002e0: f370 7b3e a3e2 813e af9e b8bd cc31 943d
000002f0: becf 46bd 15f6 b83c 24cb d0bd 0c2f e23d
00000300: 97a2 32be ed9b 103d e728 d5bc 14b6 4bbc
00000310: 5efe 0ebe aab5 83bd d020 25be 673d a43d
00000320: c17e 2e3d 6c6c 0dbe 9bec ec3d 48b8 4ebe
00000330: cfdd 1c3e 673f 933d bed6 7b3d 2981 ccbd
00000340: d2e8 cf3d 5012 f8bd d438 44bd 8676 42bd
00000350: 063a 97be 6f24 0c3e 75e4 13bd 1e37 6f3d
00000360: 980b 1bbe 25f9 f83d cee3 77bb 877b b03d
00000370: a4a1 9b3d 81e5 c9bd f4ca 433d 5052 123e
00000380: 36f4 c2bd ffb9 1abe 0407 043d 6dfd bb3c
00000390: 5b67 5b3d 53b7 82bd a9b3 cf3d 57b2 603c
000003a0: 8dd5 6d3b 6e4d bc3d 3993 d23d 158f a8bd
000003b0: a214 5fbb 27bb f23d fce4 bbbe 30dd 4f3d
000003c0: d4a3 3bbe 9b5a 88bd 0196 3d3e 7a43 06be
000003d0: cdd2 ae3c 8cd8 aa3d d99e 26bc b3e7 953d
000003e0: 0750 b1be fb0a a0be 4fcd 343e 40ed 24bd
000003f0: a32d d53d de8b 4e3e 6309 3abc 7ab9 93ba

net.4.weight f4 [2, 256]
0.3678755 4.2867246 2.437742 -5.7672567 0.5434633 -0.8975697 1.049932 -0.5348535
0.6587912 -0.44219884 -0.20019235 0.30074498 0.1782476 1.6088507 -0.5472327 0.1616414
-0.7275386 0.25169384 -1.1960918 -0.7040556 -0.025294114 0.76450944 -0.30724537 -0.039069485
-0.021250261 0.6652405 -0.23880497 -0.14095776 0.17138839 -0.40576482 0.3455842 0.15251696
0.57669944 -1.3178468 0.17205122 0.658103 0.18350604 0.89142084 0.24938774 -0.18768433
0.28183728 0.42969438 -0.020941056 1.8904915 1.3390355 0.25296775 -0.040663928 0.6712131
-4.7162185 0.01914325 0.37667593 1.1319616 0.009028233 -1.082379 0.24887805 0.35579482
-1.2122154 0.03259372 0.097089976 4.0111713 -0.20757231 -0.585701 1.362257 -0.2623105
-0.33039424 -0.10260132 0.38699675 1.0847378 0.33499956 0.6105063 -0.2943899 -0.21914737
0.04569686 -0.18953365 -0.25287682 1.0592477 -0.35930112 -1.1857792 -1.1411705 -0.03518768
-0.7757457 -3.463575 -0.39825332 -0.5656809 6.424748 -0.26635742 -0.16583394 0.96726
0.018079998 0.047034256 -2.6569822 -1.2827373 -0.10069017 0.63538295 -0.89682126 -0.109508
0.3570914 -0.91546255 0.07907775 0.28541595 0.23357034 0.57392263 0.88993734 0.33881262
0.026229175 -2.9411383 -0.50665027 0.13899013 0.9864859 -0.03857774 -1.5041368 -0.13250768
-0.25615042 0.6105557 -0.69860244 -1.7366232 -0.09118541 -1.4587449 0.1140422 -1.0524849
-0.21168363 0.36104485 0.6700581 -0.04212426 -0.19922018 0.74381816 -0.6045504 -1.9228123
0.19266567 -0.20227648 -0.63189965 2.660336 0.05454467 -0.47068503 0.79144496 0.23593676
0.18720542 0.27262437 0.58431786 -0.08376232 0.10102146 0.18505651 0.42191932 0.23002277
-0.15664007 -2.5710082 -0.01175801 -0.10432539 4.158687 -0.2079349 -1.0685687 -6.3126445
-0.30793363 1.0027692 0.10193471 0.58406043 0.037603892 -0.32622927 -0.6570139 1.4970093
-0.442765 1.4185771 8.495266e-05 0.018998293 -0.23039778 -1.0268898 0.027541114 -1.7043843
0.53963226 0.93658644 0.6265915 -0.4393327 8.492672 0.34969273 0.0073316987 -0.123399355
-2.1173632 -0.7961228 -0.18633991 0.92767626 -1.4849495 1.2525877 -0.005171002 -0.7683049
0.18697612 5.954547 -0.07941569 0.097503126 0.03255226 -0.3315076 0.44741514 0.98271996
-0.25866318 0.29693684 0.1253308 1.3660984 -1.0048698 -0.60821784 0.71485573 -0.10799092
-3.1224988 1.0202172 -6.1460195 -0.7499556 5.3693066 0.32246894 0.51785994 0.3372229
0.1869817 0.54121494 -0.588761 0.0020953678 -1.1010244 -0.5338252 0.15257648 0.36311296
-1.3788539 1.667209 0.03662566 0.4800206 -0.23113866 -0.3466101 -0.8203623 1.2434268
0.5521223 0.17652327 3.06104 1.0394802 -0.52293897 0.020127071 0.013218471 -0.12580204
-0.018134015 -0.09847385 -0.46421832 0.11494489 -0.32485184 0.007848839 -1.0367049 -0.5205783
0.053159554 -0.7671676 0.22250244 -0.5199385 0.12967983 -3.5292552 -0.054313567 -0.15191019
0.8388999 0.7850998 -0.3492147 -0.5432139 -0.4416694 -0.3654167 -0.98075885 0.4645284
00000000: 2d5a bc3e d92c 8940 f703 1c40 5e8d b8c0
00000010: 6920 0b3f 21c7 65bf 2c64 863f 29ec 08bf
00000020: 8aa6 283f e367 e2be 39ff 4cbe 3ffb 993e
00000030: 8a86 363e d2ee cd3f 7117 0cbf 5385 253e
00000040: f83f 3abf 04de 803e 8919 99bf fd3c 34bf
00000050: 9a35 cfbc e4b6 433f 444f 9dbe 5307 20bd
00000060: 0715 aebc 344d 2a3f 4a89 74be 3b57 10be
00000070: 7080 2f3e 68c0 cfbe 6af0 b03e 682d 1c3e
00000080: 93a2 133f 34af a8bf 322e 303e 7079 283f
00000090: 02e9 3b3e 2834 643f 805f 7f3e 5230 40be
000000a0: fa4c 903e e700 dc3e 948c abbc a0fb f13f
000000b0: 8465 ab3f fd84 813e 388f 26bd 9fd4 2b3f
000000c0: 43eb 96c0 4ed2 9c3c abdb c03e 1ee4 903f
000000d0: 27eb 133c 658b 8abf e3d9 7e3e bd2a b63e
000000e0: e029 9bbf fe80 053d 1cd7 c63d 845b 8040
000000f0: d68d 54be 80f0 15bf 705e ae3f 904d 86be
00000100: 6f29 a9be a420 d2bd 7024 c63e b0d8 8a3f
00000110: 1085 ab3e 244a 1c3f 46ba 96be 2b68 60be
00000120: a12c 3b3d 1c15 42be 1279 81be 6e95 873f
00000130: 51f6 b7be 9dc7 97bf e011 92bf f520 10bd
00000140: 4597 46bf 36ab 5dc0 dce7 cbbe 77d0 10bf
00000150: 8997 cd40 0060 88be 5fd0 29be 5a9e 773f
00000160: 811c 943c fea6 403d ff0b 2ac0 bc30 a4bf
00000170: a636 cebd 75a8 223f 1496 65bf bb45 e0bd
00000180: afd4 b63e c15b 6abf 84f3 a13d 0a22 923e
00000190: 102d 6f3e 98ec 123f efd2 633f d978 ad3e
000001a0: 91de d63c 9c3b 3cc0 d5b3 01bf 6e53 0e3e
000001b0: 578a 7c3f b103 1ebd 8e87 c0bf 18b0 07be
000001c0: 2626 83be 614d 1c3f 9cd7 32bf ab49 debf
000001d0: 6bbf babd 27b8 babf f58e e93d d3b7 86bf
000001e0: 98c3 58be dfda b83e ed88 2b3f 7d8a 2cbd
000001f0: 6000 4cbe de6a 3e3f d1c3 1abf b71e f6bf
00000200: 264a 453e 9121 4fbe 2dc4 21bf f242 2a40
00000210: 3b6a 5f3d a1fd f0be 239c 4a3f 6899 713e
00000220: c7b2 3f3e 6c95 8b3e db95 153f 948b abbd
00000230: 57e4 ce3d 747f 3d3e cf05 d83e 178b 6b3e
00000240: 4166 20be 668b 24c0 aba4 40bc 8da8 d5bd
00000250: f713 8540 e3ec 54be dcc6 88bf 2f01 cac0
00000260: 7aa9 9dbe be5a 803f 25c3 d03d fc84 153f
00000270: 8a06 1a3d 8607 a7be 1032 28bf 009e bf3f
00000280: 18b2 e2be ef93 b53f 9d28 b238 4fa2 9b3c
00000290: 65ed 6bbe 2071 83bf e79d e13c 4429 dabf
000002a0: 5725 0a3f 21c4 6f3f 4d68 203f 37f0 e0be
000002b0: fce1 0741 ed0a b33e bf3e f03b cdb8 fcbd
000002c0: e182 07c0 b4ce 4bbf e4cf 3ebe 317c 6d3f
000002d0: d312 bebf cb54 a03f 8271 a9bb a1af 44bf
000002e0: ab76 3f3e a68b be40 b1a4 a2bd b8af c73d
000002f0: 8555 053d 5dbb a9be 9913 e53e 8993 7b3f
00000300: 806f 84be 1b08 983e b856 003e 50dc ae3f
00000310: 939f 80bf 2ab4 1bbf c900 373f 582a ddbd
00000320: 05d7 47c0 7a96 823f 31ac c4c0 17fd 3fbf
00000330: 5cd1 ab40 a61a a53e 7892 043f 7ba8 ac3e
00000340: 2178 3f3e 108d 0a3f 0ab9 16bf 7052 093b
00000350: 5eee 8cbf c5a8 08bf 023d 1c3e f1e9 b93e
00000360: 497e b0bf 1b67 d53f ca04 163d 43c5 f53e
00000370: 9daf 6cbe e176 b1be 4403 52bf 9c28 9f3f
00000380: e357 0d3f 84c2 343e 14e8 4340 b00d 853f
00000390: 54df 05bf 87e1 a43c 4992 583c 40d2 00be
000003a0: c98d 94bc a8ac c9bd 06ae edbe 3a68 eb3d
000003b0: fb52 a6be 6b98 003c bfb2 84bf 9f44 05bf
000003c0: d5bd 593d 1965 44bf aed7 633e b11a 05bf
000003d0: caca 043e 51df 61c0 e777 5ebd 588e 1bbe
000003e0: 25c2 563f 4dfc 483f 45cc b2be 1110 0bbf
000003f0: 7e22 e2be e617 bbbe 0313 7bbf abd6 ed3e

net.4.bias f4 [2]
-0.04380295 0.13848539
00000000: b96a 33bd 1dcf 0d3e
