manually_saved_runs/naive_ddpg_1/task_params.npy (npy, 2048 bytes, 1 tensors)

array f8 [120, 2]
000000 20 2c 1a d6 90 61 be 3f 80 df dc 0e e6 fc 70 bf
       0.11867623545747152 -0.0041474329607850136
000010 b4 fa 4b 90 1f cc ca bf 10 d7 e1 4a 27 e1 c5 3f
       -0.209354348618907 0.17093363911015347
000020 28 76 57 77 28 94 d0 bf a0 e1 c8 8f 6e f7 a0 bf
       -0.2590428510137337 -0.03313775544342268
000030 fc d4 cf 35 31 f8 c9 3f 80 e7 46 7d c0 ec 87 bf
       0.20288672568828037 -0.011682037184858052
000040 7c 44 d9 55 e7 da c6 bf ce 5d f7 3c 18 1e d6 3f
       -0.17855540935355296 0.3455868335126667
000050 c4 3f af f4 8c 8e c1 bf 88 96 89 78 65 a7 ce 3f
       -0.13716279933441744 0.23948353181474524
000060 96 a9 33 7c cf d1 dc bf 80 f3 34 08 21 93 c4 bf
       -0.45030581597407016 -0.1607400217125381
000070 00 dd 54 bf 9b 53 8b bf 02 67 3d 39 b6 dd db bf
       -0.013343064094995416 -0.4354072150214138
000080 80 8b 86 c5 d4 5d a9 3f 04 15 5e e2 2b e0 db 3f
       0.04954399977875479 0.4355573378200719
000090 68 21 ef fc b1 a3 df 3f 20 ae 6f 35 28 2e 9d bf
       0.49436616612049145 -0.028496387731065664
0000a0 e4 d3 a0 57 19 14 d6 3f 6a 00 9a d5 34 de d9 bf
       0.3449767451996293 -0.4041874013855763
0000b0 00 cc 4a 77 13 ca 65 3f 90 63 cc 71 28 09 b6 bf
       0.0026598339266796778 -0.08607723978310688
0000c0 04 d8 8d be aa 41 d1 bf 80 68 42 e7 19 f5 8c bf
       -0.2696329937820112 -0.01413936841008856
0000d0 6c 44 86 c8 ea 59 de bf c4 56 b7 dc bd c9 d3 bf
       -0.4742381056067362 -0.30918833307564975
0000e0 e0 fc 29 b2 fc 19 9c 3f 90 53 a5 5b 2a 71 c1 bf
       0.027442882894772036 -0.13626603579419028
0000f0 d4 3e 3c f2 86 32 df 3f 4e 11 fb 9e d5 29 d2 3f
       0.48745893150133424 0.283803372625944
000100 80 65 ca 08 ed de b4 3f 5c 08 e4 f1 9c 11 d6 3f
       0.08152657951941045 0.3448250162329083
000110 88 dc a6 8f eb 17 cf bf a2 5a f9 bc 59 b6 d4 bf
       -0.24291748537300273 -0.32362979368682876
000120 50 52 c4 b9 9d d1 cf 3f 18 e2 46 99 c8 44 ca 3f
       0.2485844761910294 0.20522410854552287
000130 fa 11 70 c3 91 6c db bf d8 37 2e d6 0b e2 c0 bf
       -0.42850154958458087 -0.13189838369402085
000140 20 bd 5e e1 c3 17 9b 3f 2c a2 8b 8b 95 97 da 3f
       0.026457844381806983 0.41550196292385766
000150 a0 4d 9b fc 41 f0 c7 3f 40 92 ed d5 20 73 af bf
       0.18701958498296012 -0.06142523394990862
000160 18 45 2e 6c 09 8f c7 3f 28 bf 0d 87 8b 47 dc bf
       0.18405263693106444 -0.4418667620548029
000170 b4 98 12 bf b4 05 cf 3f 0a 72 1e d0 90 e9 d7 3f
       0.24236163453787685 0.3736307175074961
000180 70 8b 6a 99 e1 bb c4 bf 56 77 2d db a4 7a df 3f
       -0.16198368063950452 0.4918605938345214
000190 1c 0d de 0c 0e 8b c6 3f 2e b9 2a 80 2a 5e dc 3f
       0.17611861828127295 0.4432474376325385
0001a0 d2 4e 6e 70 e5 db dc 3f ac e1 3b f7 08 3c d8 bf
       0.4509214017827904 -0.3786642469781565
0001b0 60 db 26 14 e2 c9 94 bf 36 44 61 8d b8 d1 de 3f
       -0.020301372985808697 0.481550348345141
0001c0 b8 9a e9 f0 53 de b2 3f d8 31 fc 5b 05 ba c2 bf
       0.07370495444920777 -0.1463019084116144
0001d0 82 07 75 48 6d 6e dc bf 98 86 d5 d4 b9 08 d1 3f
       -0.44423992229359766 0.2661575869043218
0001e0 88 f1 ee 99 1e 87 c2 bf cc 42 0e d0 06 99 d1 3f
       -0.14474852100637414 0.2749650031847011
0001f0 02 d8 83 45 df 4d dc 3f c0 a3 aa f8 35 37 c9 3f
       0.4422529391152922 0.19699740068361216
000200 e8 c0 79 e4 fe dd db bf 5c b9 34 30 3e 1d cf bf
       -0.4354245406348256 -0.24307992318922345
000210 76 8e 2e 79 62 2f dc 3f a0 df 99 2e 7d 71 d3 bf
       0.440392130223905 -0.3038018183792648
000220 20 4a b3 6a 55 80 92 3f 98 e5 c1 b0 ef eb bf 3f
       0.018067679059479258 0.12469385209433026
000230 f2 e0 58 65 1c 57 d4 bf 2e b5 d4 90 98 28 d8 bf
       -0.3178168287008837 -0.3774777807583004
000240 9c 4f a1 75 27 77 c7 3f 40 44 f8 cd c2 1a a6 bf
       0.18332379573496105 -0.04317291988639527
000250 b8 16 9d 8d 4f e6 d8 3f 3a cf f3 8f 8c 4d d3 bf
       0.38905705289321757 -0.3016082196984261
000260 a0 43 99 d5 de ec c7 3f b0 1b 14 f7 3e fe d8 bf
       0.18691621236442035 -0.39051794174923327
000270 4c 3c c3 0e 78 31 c1 3f 18 8e 58 9d b7 5a ce 3f
       0.13432217331726048 0.2371434706011406
000280 28 24 15 62 f3 77 d6 3f c8 35 b3 ce c1 ee df bf
       0.35107121065499536 -0.49894757447767946
000290 c0 fe 9f 3f 82 8b 91 3f d8 2d 44 ab 30 cd bc bf
       0.01713374627433839 -0.11250595265681029
0002a0 1e 5a 95 78 b7 74 d9 3f 08 c5 58 f3 b2 6e c3 bf
       0.397748821027024 -0.1518157661644539
0002b0 20 25 cb d9 66 d3 dd bf 20 b5 71 89 ca 94 9d 3f
       -0.4660279394998543 0.0288879057301773
0002c0 f4 0d b7 5d 77 1c db bf 80 7c a9 18 0b bc c3 3f
       -0.42361244346486093 0.1541761274738498
0002d0 84 4c e9 81 7f 97 d6 bf 94 0f 19 4b 41 4d d6 3f
       -0.35299670874264444 0.34846527417925555
0002e0 f0 e9 8b 88 a2 e8 c1 bf 42 11 10 49 cc 81 de 3f
       -0.13991195361434405 0.4766722405913876
0002f0 28 29 d6 58 7c 29 c1 3f 2e 1f 2a b2 bf b3 d6 3f
       0.13407854402277875 0.3547209968460149
000300 28 56 28 3f 12 19 b3 bf 60 df 19 50 a3 72 90 3f
       -0.07460130731518488 0.01606230904005146
000310 56 dd 92 aa ae c4 d8 bf ee bd 20 d2 45 a1 d4 bf
       -0.38700453431689164 -0.32234330673506306
000320 c0 28 8c 63 d8 64 bd 3f 00 f4 7f e0 de 10 95 3f
       0.11482002668722924 0.02057216878164425
000330 5e 64 a2 07 c6 cc d0 3f 6a 7e 0a 76 7e fb d3 3f
       0.262498385863699 0.31222497489395684
000340 2c 64 5c c2 ef 27 d6 bf 0c 42 f2 f5 43 39 de bf
       -0.3461875341468523 -0.47224520700641004
000350 6e c0 7c 8a 22 c8 dd 3f 02 9e db 6b 66 f8 d2 3f
       0.4653402664580487 0.29641113789554663
000360 d0 75 9f a7 72 f3 d1 3f d0 32 39 1a 9d e4 d2 bf
       0.2804838787977504 -0.29520347176439277
000370 48 c8 44 2c 3f d0 d1 bf 40 10 e3 37 0f 3a d0 bf
       -0.2783353740989054 -0.25354366738998024
000380 7e 8d 54 66 33 a1 de bf c0 1e ff dd 86 c5 b1 bf
       -0.47858891480628774 -0.06942027015531504
000390 a0 7d c6 27 be ed b0 3f b6 95 1e 60 9f 93 db bf
       0.06612766715124119 -0.4308851660410612
0003a0 18 75 e7 66 af 36 d3 3f a0 3c 5f b3 a3 12 cf bf
       0.3002127175257825 -0.24275633104705197
0003b0 08 d3 86 bd ae 07 dc 3f 24 62 56 ec 12 61 d8 3f
       0.43796890743696837 0.3809249217970623
0003c0 d0 02 41 b0 d5 fa c0 3f 3c 05 da 71 5a dd c4 3f
       0.13265486818456518 0.16300516661798692
0003d0 08 ff bb e2 5f 97 b8 3f 28 a4 ba 0d 24 e3 c7 3f
       0.09605979238039819 0.186619288161894
0003e0 7c cf f4 7f fb 4c d3 bf 38 1b 6a d9 b3 47 bb bf
       -0.3015736341069368 -0.1065628438756051
0003f0 80 1c 4e a4 8e d7 b3 bf 1c 6e d6 7e 69 a9 ce bf
       -0.077507891763263 -0.23954504674189614
000400 1e 76 67 f8 ef f9 d0 3f e8 36 49 6f b2 f3 b3 3f
       0.26525496729104414 0.07793727127974714
000410 3a e9 8e ad 2d fb d7 3f 30 b1 22 87 20 8f d1 bf
       0.3747057146935223 -0.2743607825930381
000420 7c cd bb dd 65 30 cd bf 52 45 bb ea e9 fb d0 bf
       -0.2280394871410002 -0.26537559435845026
000430 a6 2c 45 6d 8b b4 d1 3f 78 2f d3 c8 3f 9a c2 3f
       0.2766445700733108 0.1453323107328932
000440 ac 38 0e c4 d9 09 dc 3f f8 a6 08 13 e5 e3 c6 3f
       0.4381012358288767 0.1788297980249849
000450 90 a1 a4 e3 4f 93 b9 3f 5c dd 3c 4a 50 26 d4 bf
       0.09990405376141198 -0.3148384785631231
000460 58 56 46 f4 81 f0 d8 3f b2 ad e5 b0 85 85 d9 bf
       0.38967942099529784 -0.39877455020060915
000470 10 a5 b7 03 15 25 ba bf de 80 a2 bf c6 6a d6 bf
       -0.10212832775836866 -0.35026711191495774
000480 52 61 a0 89 53 0a d6 bf c0 03 77 fb d0 3f bf 3f
       -0.34438026847921777 0.12206751002578553
000490 48 86 b7 ff a3 54 b1 bf d2 d7 be 01 63 50 d7 bf
       -0.06769776337707711 -0.3642814175649366
0004a0 30 81 0c f7 1e c2 a0 3f 80 20 d9 5e 9a 07 c2 bf
       0.03273102536900507 -0.14085702544457845
0004b0 00 6d 39 0c dc 41 91 3f fe ba 0a 73 17 ce d4 bf
       0.016852796789277313 -0.3250788329559525
0004c0 36 b3 e3 37 16 5b d3 3f e4 42 3b b5 0f 69 d4 bf
       0.30243449647859977 -0.31891243646991385
0004d0 e4 eb 53 00 68 2a da 3f 1c 67 5b fe 9a 48 cf bf
       0.408838272400031 -0.24440324229981847
0004e0 82 ac 52 da 05 81 d4 3f 5e 57 83 25 ec b3 d1 bf
       0.3203749305782325 -0.27660659469017
0004f0 b2 9a 2f cd 82 0c d3 bf f0 09 83 c1 06 0b a6 bf
       -0.29763860738459436 -0.043052874681524744
000500 c6 7d 9e f2 eb 23 da 3f 84 f0 a1 9b dc 20 da 3f
       0.4084424847914899 0.40825572203153393
000510 80 e1 77 13 b4 4b c8 bf 4c e1 97 93 82 63 cc 3f
       -0.1898102850971206 0.22178680617049407
000520 88 b2 35 95 67 44 be 3f ec 85 f2 14 97 cc cd 3f
       0.11823127167526526 0.23280609629459492
000530 a0 8a 5c 39 61 c2 c6 3f 80 04 47 08 eb 46 8d bf
       0.17780700016836182 -0.01429542178164156
000540 f8 3c 54 77 81 84 b7 3f 10 ce 9b d6 0e 77 b3 bf
       0.09186562693888678 -0.07603543033092586
000550 78 10 cc 5e 8c ed b5 bf b4 23 f1 44 be 56 cd bf
       -0.08565594972975699 -0.22920969358736232
000560 30 87 ae 78 27 30 a1 bf 18 6c 85 71 b9 11 bb 3f
       -0.03357051227727792 0.1057392027045555
000570 40 6a 3d aa 69 fc ca bf 00 d0 a9 20 e0 af 93 3f
       -0.21082802593703498 0.01922559928284784
000580 32 52 e2 b0 07 a4 da bf 74 98 38 10 fb fd de 3f
       -0.4162615992911781 0.484251752701659
000590 14 32 c1 41 5d 0f ce bf 00 d4 4c d6 1d e5 b1 bf
       -0.23484388075520768 -0.0699022911256435
0005a0 b2 d4 74 04 ac 9b d6 3f 88 6e e8 58 52 51 d1 bf
       0.3532514613646739 -0.2705884807817047
0005b0 e4 71 d4 bc 6a c6 c1 bf fc 4d ca a0 b4 ed cf 3f
       -0.1388677045841994 0.24944169856154008
0005c0 a8 28 52 c3 25 ad cd bf 70 e7 b7 0e ad 0c a3 3f
       -0.23184654271273542 0.03720608524959246
0005d0 30 49 d0 cb 9c 70 c6 3f c8 2b 85 df 68 ee d1 3f
       0.17531166030728107 0.28017637088913405
0005e0 06 96 75 9a eb c8 d9 3f a0 13 82 01 d1 f2 bc bf
       0.40288820346754084 -0.11308008467501773
0005f0 f4 6f 80 32 5c f0 c2 bf d4 82 e0 1a a2 aa c7 bf
       -0.14796020952132916 -0.1848948127017339
000600 2e 04 9a 31 6b 89 d0 bf 82 2a ec dd a9 74 d7 3f
       -0.25838737338932816 0.3664955775463242
000610 0a 34 a1 9c a2 14 d1 3f 1a 67 76 55 9a b6 d9 bf
       0.2668844728075902 -0.40177019449184714
000620 c2 72 d8 27 f8 17 dd bf 8c 4b 4e a8 d3 50 cc bf
       -0.4545879735103818 -0.22121663778360945
000630 60 fd a3 61 7b f2 d9 3f 1a a4 c0 dd cc 77 d5 3f
       0.40542492423261045 0.33543702750699966
000640 e0 b9 1c ff 9b e0 d0 bf 06 da 1f f9 d6 22 d9 3f
       -0.2637090674715221 0.39275144890362446
000650 a0 aa d2 b1 2c a3 b3 bf d0 48 75 b5 41 ba a2 3f
       -0.07670859662418161 0.03657727565827573
000660 84 77 66 a6 77 b8 d5 3f 10 81 71 2b a3 c0 d6 3f
       0.33938399553323273 0.35550765268818996
000670 26 eb fb 6b 0f ed d0 3f 24 55 f0 4d e2 0c ce 3f
       0.26446900887792635 0.23476818853002002
000680 7e 1a db 74 d2 61 da bf 38 ab 09 2b 6f ad bd 3f
       -0.4122205868883738 0.11592764664389399
000690 52 8a d4 f8 a9 41 d3 3f ea 28 99 f9 b4 e8 d7 bf
       0.3008828096373338 -0.37357830405075154
0006a0 12 ba ff ee 8e 06 d1 3f 00 8a 73 9f 25 2b 55 3f
       0.266025288960834 0.0012920253191671671
0006b0 fc a1 e5 69 62 92 c4 3f 3c 4e eb 3c 32 c1 d7 bf
       0.16071729822876069 -0.37116676282059635
0006c0 78 f1 4c 76 ae 82 d7 bf 90 f2 ed f0 d1 da b8 bf
       -0.36735116532124534 -0.09708892948214953
0006d0 04 9d 64 cd b1 37 c3 3f 96 4a c5 88 39 d4 d8 3f
       0.150137162484704 0.3879531703616207
0006e0 00 c8 08 ce a6 1f 4f bf 06 90 16 9b c6 de df 3f
       -0.000949818084398979 0.4979721560032434
0006f0 30 5e 34 d4 43 86 d3 bf 00 fc 5f cb 4b a2 cb 3f
       -0.305069882613199 0.2158903830568022
000700 40 54 23 be c5 c3 b9 3f ba c6 ea de c7 9f db bf
       0.10064350025216218 -0.4316272427487139
000710 6c 70 46 38 d5 0e cb bf 7c 0c 79 ba a2 61 cf 3f
       -0.21139016387758447 0.2451671038162181
000720 18 86 2f 6e f3 26 c0 3f 0c 3b 3d 9d cf f7 c1 3f
       0.12618868713529774 0.14037509134001203
000730 02 1e 01 0f 7c 2b d3 3f 40 c4 cd b1 24 03 a7 bf
       0.29952908959646163 -0.04494585676628349
000740 64 4d d4 ac 32 0a cd bf 80 1d b7 2b 86 fa d6 3f
       -0.2268737167256446 0.35904077786513966
000750 38 0f 1f 6a 5f 3b d4 3f 28 df ac 0e 90 aa df 3f
       0.31612382281695117 0.49478532250531027
000760 1c fe 7a e1 26 d3 c1 3f 80 21 56 34 aa 11 71 3f
       0.13925634393488984 0.004167237149325209
000770 60 8f f7 8f ed db b0 3f 68 e0 d7 69 9b 75 b3 bf
       0.06585583462543587 -0.07601329168380888
