manually_saved_runs/pearl_ddpg_19/task_params.npy (npy, 3408 bytes, 1 tensors)

array f8 [205, 2]
00000000: 4c47 25ef 0a62 e5bf d24e d768 8648 e1bf
00000010: 064f dea9 4cac e13f 5e6f f028 e025 e83f
00000020: 2674 8a90 f55e e33f 469b 7c57 5b58 ef3f
00000030: 5a32 224c 38d6 e43f 20f3 9521 9711 c7bf
00000040: de31 871f 9458 eabf 2429 bd1e 0b7b ebbf
00000050: 3017 c083 1c03 cbbf 4685 475e 79d2 e53f
00000060: 6871 be3e c15e c43f ac50 f1de 7231 e0bf
00000070: a00f 8d7e c074 b7bf 44c4 efb4 336f d23f
00000080: b285 e850 c319 e23f 7216 3aa8 4a18 ecbf
00000090: ba19 6e59 d8dd ef3f 3e34 c431 27df ed3f
000000a0: 7878 aecf 3157 ca3f 1cbf 1809 42ea e4bf
000000b0: 30fd a1e0 e88a ce3f 1c4f 400f 1362 dfbf
000000c0: 4056 0899 8da5 bdbf 5c35 7e85 d765 e63f
000000d0: 2a77 5732 70dc e43f a4b2 c8a6 68ea dbbf
000000e0: 5a75 84a4 60fb efbf d00f 5627 eb1b b6bf
000000f0: 00ce 3a8c 258b e2bf b02d 2ca0 3078 bebf
00000100: 287c bd7e 7b37 d93f 7a72 c74d 78b8 e03f
00000110: c678 09f7 96d3 e23f 0078 ffeb 662b 4d3f
00000120: 008e 8f88 6b9b cc3f e0a4 10a5 c5d5 c2bf
00000130: 20fe 4a4f fcc9 b23f e00d 4037 641c a03f
00000140: d86a ea03 5dc4 cdbf c081 1daa f62e d13f
00000150: eabf f534 bd0d e7bf b802 2ef8 1f92 ccbf
00000160: 4cab 3881 9b88 d33f 0058 0828 6445 53bf
00000170: 184a 6337 a4c2 d23f 663d 0926 04b9 e23f
00000180: 3c2f 1d9f 1b1d d2bf 645d add4 7e94 ef3f
00000190: 6889 05d2 9212 d9bf 50d7 0cda 4008 c23f
000001a0: c469 0ef0 6b6a d1bf dcae dfd9 2b65 e1bf
000001b0: a087 0142 eef4 c2bf e036 09fd 41ac b13f
000001c0: 18c0 5db3 bbb5 d6bf e05a b104 15f7 cb3f
000001d0: 5a72 ff97 f847 ec3f 647d cff7 b9dc db3f
000001e0: 9660 a4cb f575 ee3f 6032 efe2 bfe8 c1bf
000001f0: 0a31 10d0 76d3 e4bf ec86 5d0a a215 ec3f
00000200: a210 4ac9 3e88 e1bf 705d 2550 c534 c23f
00000210: b2c0 a78c 32d6 e53f b4a7 daea cee8 dc3f
00000220: 14a1 4e82 a176 d73f 2c30 dba8 ee4e dbbf
00000230: 4e82 3786 8fac ecbf 8018 db0b ddd6 e1bf
00000240: c8f5 6199 3ad5 d6bf b8de 7602 44d8 e7bf
00000250: b82e fc6d 08db d6bf 382e 4269 3729 cb3f
00000260: c494 7330 1458 e5bf 28c9 c752 2a07 c7bf
00000270: 0e0f 4215 afc6 e9bf a29d fc4e 6220 ecbf
00000280: 0a62 9fbe 95ba e6bf 4e6f 6b6e e16c e83f
00000290: c4b0 1799 a6a0 e4bf 144f 6399 f154 d73f
000002a0: 7893 4231 605a e0bf 44a6 d5b5 bc9a d13f
000002b0: 404a 9485 c3c9 edbf 880d c9f9 b6a2 c13f
000002c0: b09b e070 b88b e73f 345b 8bc0 b49d ec3f
000002d0: e8b0 33d4 334a d9bf a8e2 ff05 af27 da3f
000002e0: c07e c4af a29c a8bf 40ee 954e ba5f b7bf
000002f0: 6cc9 6cc7 1725 ed3f d21d 648b bdd3 e5bf
00000300: ee48 534c aafe e5bf 543b ef39 bbc3 dbbf
00000310: e862 1c0e df4d e5bf 3872 fa41 6ee4 c8bf
00000320: c2a0 1e64 2294 e7bf 08fb 9678 edea d4bf
00000330: e08c 44d2 aa41 bf3f d2dd 3fa6 633a e7bf
00000340: 7c17 133e fc23 e8bf 68e9 1d37 544a ed3f
00000350: f270 703d ca4d ec3f c460 35fe 1dcc d83f
00000360: c08e f3e5 4850 e23f e09e 9fcb da6d cabf
00000370: 9e6a 23b6 314c e33f f805 627a 7d0e e63f
00000380: 9227 5188 c676 e1bf 4262 f059 2f2a e5bf
00000390: 2036 aa06 c8f4 cc3f caba 3b15 af89 ee3f
000003a0: b452 220a b498 eabf 8886 3f03 a2ce d8bf
000003b0: 3e73 1b5c e1fb e1bf b42e e72b 22d4 ef3f
000003c0: 2050 4987 d10e a23f 382a 8616 03a0 e7bf
000003d0: d8b2 7911 833c ecbf 0070 9bec fbb1 d6bf
000003e0: 004c 76a4 31f7 d43f 54fd d7c5 a113 dfbf
000003f0: 0824 f930 dae3 c7bf 56a3 8cd9 a8c5 eabf
00000400: 983c 59b4 38e4 e7bf d098 b537 f47e c13f
00000410: f001 7c16 6843 bdbf 6828 eb21 2980 ef3f
00000420: 6c62 b605 3fb9 eabf 702d b57a a139 c03f
00000430: e06f 923d 4a6d d1bf 56f9 788a abfa e43f
00000440: 702f 69a1 4c1e c33f 2012 4e4f 9d23 a3bf
00000450: 3423 e8b6 7fe2 e23f 102f c9c2 5f6b d3bf
00000460: 48e9 3883 2c2e dfbf a8f3 dc41 d997 c3bf
00000470: faff 5dbe 55b6 e03f 2a58 7e78 d1e7 e2bf
00000480: 8024 35d8 9ec6 9a3f a8d8 f587 478e d73f
00000490: 786d 8105 04eb c23f 703e 5455 4325 c53f
000004a0: 066b 6be0 f7c8 e4bf b244 2fa9 52e6 e1bf
000004b0: 5824 38c5 b8d6 d8bf c45b cde8 18a0 e7bf
000004c0: 80a3 8d7c 53d5 b1bf 184f 8737 cd9e d23f
000004d0: 347a a296 cfa6 eebf a0e5 82dc 0ca8 e7bf
000004e0: c4f8 dd64 9f9a e33f 6e5a e346 010d eb3f
000004f0: e246 5bcf cbef e83f c855 3b9c e93d c73f
00000500: f631 b408 dcc3 eebf 6c6c bd4d d6a9 ee3f
00000510: 0463 bab2 ae64 d33f 00c9 a9d5 396b 95bf
00000520: e89a 95d9 3a19 dcbf 5c2e 2cac a274 e23f
00000530: 4c58 22c2 da7d d0bf 0467 c13d 66e3 db3f
00000540: b0a3 c374 b50a b7bf d058 cf0b d844 b3bf
00000550: 68a5 f256 3123 c8bf 5813 2804 0c3e ddbf
00000560: c068 3c7f 768e ecbf 000a 4114 ebd5 dabf
00000570: 00b3 6c61 c3bd ddbf 80dd c6f3 4b0d c93f
00000580: 105e 9967 d895 b6bf 20a1 e8c5 0bf0 c4bf
00000590: 74da cb46 97f8 d53f 9ecc 4958 eeec ebbf
000005a0: 5894 c7f3 e7b8 efbf f018 378b 8f17 e53f
000005b0: 5a2c 37ea a0c0 e8bf ccef 0f46 a07e ebbf
000005c0: a082 0445 6723 a83f a00e 0dc2 04e1 e53f
000005d0: 26d6 0ea3 a928 e7bf 50da 59c0 0a3a e53f
000005e0: ccd1 888f d23a e8bf b894 5a87 0ecd e03f
000005f0: c00f 632f fa1f e1bf 7e5b 293f 2bc9 e7bf
00000600: eead 8494 ff36 e33f 6a99 9e44 17db e23f
00000610: d42d 7583 38d3 d4bf b491 5a10 4111 dfbf
00000620: 5c5e 7c58 a88b d9bf b40c 702c 73fa d5bf
00000630: ee8a d82c 7076 e8bf 085d d71b 02b5 cebf
00000640: 680f 4cf2 e72d dc3f f670 850c b7e1 edbf
00000650: a6db 8cb3 ca64 ec3f e072 bab9 a022 b7bf
00000660: c644 24be 18d0 edbf 6077 a33a d913 aabf
00000670: 2430 f379 95fb e33f d224 af39 1b6e e73f
00000680: bcb2 d902 27a0 ee3f 703d e40e 5997 c1bf
00000690: 5a63 114d 9352 e53f 9caa 521c 5c84 e63f
000006a0: 58d8 b100 7ff1 d9bf 02e6 6a8b 6b9c e9bf
000006b0: 78e7 bfe8 6873 c23f 5e8f b45d b380 e43f
000006c0: 2811 d583 ee16 c5bf a823 5f23 205a c0bf
000006d0: 2620 fb2a e3ac e73f 60b6 8874 81e7 e13f
000006e0: fa2b 2220 b270 e6bf 0ccf b8f1 575c d23f
000006f0: da9d 7a77 85eb eebf 90fd 1916 22a2 d33f
00000700: c81c fe9e b550 e9bf 5c7d bbd8 0d39 d33f
00000710: bc07 5556 8939 d7bf 000b 1a53 eef1 a5bf
00000720: 061a df45 aeba ec3f 2a48 4d4a 1576 e8bf
00000730: 9c1f 80e2 e11e d1bf ec67 27da 5706 d13f
00000740: 402d f2a2 4a21 b3bf c072 4e1c e1a1 e1bf
00000750: b0e7 dd14 bd48 efbf a4a6 34c2 e4d7 d53f
00000760: b6cc afd1 bf54 ea3f 2892 f192 43d3 c83f
00000770: 8017 32a7 50e4 9bbf f072 7fd2 a6f5 d4bf
00000780: 008b 5772 6fee e2bf e031 f390 14c8 e8bf
00000790: 7049 ceb9 2f08 cbbf 4204 6194 3c54 e13f
000007a0: 2cba c524 e299 d7bf 701e 086c 5ef2 c6bf
000007b0: a4c5 3b0f 984c e3bf ac6f d718 df90 e4bf
000007c0: 10e0 45c8 8e82 d13f 0cb9 11d5 d7fd ef3f
000007d0: d00d cd11 378f b8bf 5487 96e5 6022 e63f
000007e0: 600e 490c c44c bbbf 82d6 8d24 fb98 e53f
000007f0: c094 8eca b28e d0bf a824 daad e724 c73f
-0.6682181044400095 -0.5401031539608658 0.5522826497785622 0.7546234893411385 0.6053417037070445 0.9795357426381563 0.6511498915657044 -0.18022431507042658
-0.8233128181250853 -0.85876995090192 -0.21103245194552178 0.6819426385301675 0.1591416889540469 -0.5060362200115569 -0.09162524308800224 0.28803723020161365
0.5656448917617836 -0.8779652867967356 0.9958307024651767 0.9334903690338547 0.2057859672613096 -0.6535959413213024 0.23861418693921044 -0.4903609894692964
-0.11580739008089669 0.6999318702016057 0.6519089682803714 -0.43618217742440835 -0.9994357312422537 -0.08636350355487754 -0.5794856776105348 -0.11902145300353228
0.39401137711496625 0.52251830283383 0.5883288216534985 0.0008901836918047135 0.22349304359441646 -0.14714880523505425 0.07339455543387219 0.03146660971108495
-0.23255503359981478 0.2684914265901419 -0.7204271349310123 -0.22320937746191816 0.30521285647653396 -0.0011762121286031935 0.2931299725434271 0.5850849860088772
-0.28302660501934773 0.9868768838741002 -0.39175863752293205 0.14087687155704964 -0.2721204609203165 -0.5436000113818085 -0.1480996916098407 0.06903469493519365
-0.3548421146033447 0.21847784737720755 0.8837855309207712 0.43534707260365324 0.9518994309792272 -0.13991545277385153 -0.6508134902701681 0.8776407434890792
-0.5478815013343772 0.142235435613411 0.6823971507237927 0.45170948920223997 0.36661565518672146 -0.42669264306892063 -0.8960645314619542 -0.5574784499701906
-0.3567644594075685 -0.7451496170169412 -0.357118708998978 0.21219532622886716 -0.6670018144910945 -0.17990616838466988 -0.8055034079738748 -0.8789531271658471
-0.7102764819238143 0.763291087783253 -0.6446106901253406 0.36455955485620106 -0.5110321962462043 0.27506940610200936 -0.9308793648691065 0.1377781600623218
0.7358057217251055 0.8942512283927955 -0.3951539585384709 0.4086720999326112 -0.04807003398513876 -0.09130443972201707 0.9107779402750515 -0.6820972177965194
-0.6873370638589031 -0.4338214936987488 -0.6657557750323493 -0.19447115155789318 -0.7368328052007416 -0.3268388440737202 0.12209575303545561 -0.7258775946674467
-0.7543927395242771 0.9153233601094088 0.8844958496079285 0.3874583227639159 0.5723003855932447 -0.20647749846033658 0.6030510480298579 0.6892688169756971
-0.5457489645425417 -0.6613995319958763 0.22622013402399066 0.954307118865324 -0.8311405370646612 -0.38761186902238665 -0.5619971083611757 0.9946452004891939
0.03526930595822386 -0.7382827224658461 -0.8823867169681661 -0.35461328607721043 0.32758751927138974 -0.485573237616298 -0.18664100066442324 -0.8366283654223519
-0.7466090700562686 0.13668682785209407 -0.11430979298530253 0.9843946135017747 -0.8351130591937141 0.12675875178897966 -0.2722955323495153 0.6555993752042848
0.14936216241255407 -0.03738109200552153 0.5901487896345317 -0.30342859289224666 -0.4871932298152797 -0.15307155338260015 0.522257682619965 -0.5907981255902588
0.02614830202700036 0.36805904652954746 0.1477971102602671 0.16519967714747308 -0.6495322592921589 -0.5593655876529253 -0.3881055761308452 -0.7382931277196509
-0.06966134825564829 0.29094248221120855 -0.9578626577456988 -0.7392639452802321 0.6126248331127262 0.8453375229390312 0.7792719888622879 0.18157692078118104
-0.9614086313245582 0.9582320707662695 0.3030201669112531 -0.020916846910446374 -0.4390399098250968 0.5767377245660543 -0.25768155058301967 0.43575435667808926
-0.09000715351761701 -0.0752692250092395 -0.18857399697780441 -0.45691204458153356 -0.8923904881551366 -0.4193065355104011 -0.46470722688791 0.19571828272976788
-0.08822395829462715 -0.16357562221060906 0.34329778588963866 -0.872672245443386 -0.9913215409584479 0.6591260642096852 -0.7735142302057156 -0.8592072838214277
0.047145106482507915 0.6837180891092949 -0.7237137016988455 0.6633352047782157 -0.757180481281972 0.525031341898873 -0.5351534772421402 -0.7433067544578618
0.6004636669871937 0.5892444935059704 -0.32539189183873174 -0.48542811009454145 -0.39914902344887593 -0.3434112485849241 -0.7644577861686608 -0.2398989330238026
0.44030188237979084 -0.9338031048351059 0.8873036867943156 -0.09037212881453227 -0.9316524232582644 -0.05093268242647642 0.6244609243235613 0.7321907164233841
0.957049851958423 -0.13743127085806917 0.6663300042374474 0.7036572030240964 -0.4053647524627926 -0.8003442500113922 0.1441470276329786 0.6407105283910643
-0.16476231991885837 -0.12775041319971803 0.7398544158431875 0.5595099712424592 -0.7012568118674374 0.28688620191245273 -0.966250165326467 0.3067708221278389
-0.7911022286724796 0.30035730519553794 -0.36288674765466644 -0.042861411709074204 0.8977881779363208 -0.7644144488533631 -0.2675099098128102 0.2660121565255611
-0.07472673872159863 -0.551010661397946 -0.977629223590375 0.34130209889790764 0.8228453727191638 0.1939472644327378 -0.027238140301526936 -0.3274933868067782
-0.5916058762780665 -0.7744238692335408 -0.21118732998418066 0.5415327928568632 -0.3687672957520671 -0.179271509885655 -0.6030998513726229 -0.6426845059572677
0.273593612269452 0.9997367059238811 -0.09593528923601657 0.6916965946331666 -0.10664010333953788 0.6749244417139411 -0.258709619340447 0.18081375111458908
