manually_saved_runs/naive_ddpg_2/critic.pt (torch, 277455 bytes, 5 tensors)

net.0.weight f4 [256, 10]
0	0xbda0090b	-0.07814225
1	0x3e99e9ce	0.3006119
2	0x3d01c6f9	0.031683896
3	0xbc9549dd	-0.018223697
4	0xbf90a4fb	-1.1300348
5	0x3e55f701	0.20895006
6	0xbfa092f2	-1.2544844
7	0x3eb37e04	0.3505708
8	0x3b428f94	0.002968763
9	0xbc83e306	-0.016099464
10	0xbfd35568	-1.6510439
11	0x3d47f60e	0.04881864
12	0x3e6371e5	0.22211416
13	0x3c81d437	0.015848262
14	0x3f0749f6	0.5284723
15	0x3f8a7eba	1.0819924
16	0x3ed67093	0.41882762
17	0x3ef0899d	0.4697999
18	0xbb96b98e	-0.0045997566
19	0xbcca6d92	-0.02471045
20	0x3fb0ccdf	1.3812522
21	0x3eb78b44	0.3584844
22	0x3f957214	1.1675439
23	0xbf330515	-0.6992963
24	0xbf01aa7a	-0.5065075
25	0x3db505ad	0.08838973
26	0xbd926374	-0.071478754
27	0xbdd47a3d	-0.103748776
28	0xbc76721d	-0.015041855
29	0xbac59bea	-0.0015076373
30	0x3e4b84fe	0.19874951
31	0x3ed24ce5	0.4107429
32	0x3f581301	0.84404
33	0xbe94b60d	-0.29045144
34	0xbf962246	-1.172921
35	0x3f2bc86c	0.67102695
36	0x3de79573	0.11307802
37	0xbca6376d	-0.020290101
38	0x3b8a1f10	0.0042151287
39	0xbc980389	-0.018556373
40	0xbe10da10	-0.14145684
41	0xbe85dd04	-0.26145184
42	0xbbcfefdd	-0.0063457326
43	0xbdd0f178	-0.102023065
44	0xbf778249	-0.96683174
45	0x3e9b1331	0.3028808
46	0xbf390679	-0.722755
47	0xbf11d71a	-0.56968844
48	0x3adc72c6	0.0016818873
49	0xbb385e72	-0.0028132466
50	0xbe5a0444	-0.2129069
51	0xbdecb033	-0.11557045
52	0xbe5cab90	-0.21549821
53	0xbe6b2226	-0.22962245
54	0xbee8da2a	-0.45478946
55	0x3f055016	0.52075326
56	0xbf949541	-1.1608049
57	0xbe9db275	-0.30800214
58	0xbc7b893e	-0.015352545
59	0xbab1c56a	-0.0013562862
60	0x3f6379df	0.88857836
61	0xbdfc56c5	-0.123212375
62	0x3e6b3744	0.22970301
63	0x3d2c9d37	0.04214212
64	0x3e5abe50	0.21361661
65	0x3d8266dc	0.06367275
66	0x3e1e69d2	0.15470055
67	0x3cd8318f	0.026390819
68	0xb94ac907	-0.0001933911
69	0x3bfb223a	0.0076639922
70	0xbf07665c	-0.52890563
71	0xbe8898a2	-0.2667895
72	0xbf1a2e35	-0.60226756
73	0x3fe00f2e	1.7504632
74	0xbf36ea7d	-0.7145155
75	0xbc44ce81	-0.012012125
76	0x3e2ede11	0.17076899
77	0x3e9c834f	0.3056893
78	0x3d437a38	0.04772398
79	0xbd7a9379	-0.061175797
80	0x3f19faad	0.60148126
81	0x3c542017	0.012947104
82	0x3f715f19	0.9428573
83	0xbf6cc049	-0.92480904
84	0x3e9bf5c6	0.30460948
85	0xbed2b2bb	-0.41151986
86	0xbb902298	-0.004398655
87	0xbdf298c4	-0.11845544
88	0x3a72861c	0.0009251551
89	0x3b6ccc72	0.00361326
90	0xbeaefc82	-0.34177023
91	0xbe51b715	-0.20479997
92	0xbf24dff0	-0.644042
93	0xbdeb9a17	-0.11504
94	0xbd5be858	-0.053688377
95	0xbe3b56ac	-0.18294781
96	0x3d07797b	0.033074837
97	0xbdd97c57	-0.10619419
98	0x3c0b224f	0.0084920665
99	0x3bfa240f	0.007633693
100	0x3f554193	0.83303183
101	0x3f3047f9	0.6885982
102	0x3eb3a142	0.35083967
103	0x3d0245f5	0.031804997
104	0x3bc06912	0.0058719004
105	0xbec1831c	-0.3779534
106	0xbe4ca416	-0.19984469
107	0x3fc27273	1.5191177
108	0xbb72faa2	-0.0037075658
109	0xbd536f3a	-0.051619746
110	0xbeba4e5c	-0.36387908
111	0x3ead41a3	0.3383914
112	0xbe494610	-0.19655633
113	0xbf705f8e	-0.93895805
114	0x3f4ad7d1	0.7923556
115	0xbec4853c	-0.383829
116	0x3deb71f6	0.11496346
117	0xbdd5e890	-0.104447484
118	0x3caab26f	0.020837037
119	0xbd13bd9f	-0.03606951
120	0xbe302c0d	-0.17204304
121	0x3e7aff46	0.24511442
122	0x3ec41210	0.3829503
123	0x3c6ba54f	0.014382674
124	0x3f82df51	1.0224401
125	0xbea55dec	-0.3229822
126	0x3f0f4097	0.5595793
127	0xbe0c1136	-0.1367844
128	0x3d0036b7	0.03130218
129	0xbdae3195	-0.08505551
130	0xbd574673	-0.05255742
131	0x3c491765	0.012273644
132	0x3e0cf284	0.13764387
133	0xbe08a230	-0.1334312
134	0xbf8435a6	-1.0328872
135	0xbe18e51c	-0.14931148
136	0xbf91ac7b	-1.1380762
137	0xbf5da5e5	-0.8658126
138	0xbce05ffe	-0.027389523
139	0xbc86aa24	-0.016438551
140	0xbf87a825	-1.0598189
141	0xbdbaac2c	-0.091148704
142	0x3e187483	0.14888196
143	0xbaa35655	-0.0012461642
144	0x3e4af8ba	0.19821444
145	0x3ef0a0fd	0.46997824
146	0xbf2072af	-0.62674993
147	0x3f060ff4	0.5236809
148	0xbbab4784	-0.005227031
149	0xbc28f186	-0.01031149
150	0x3efa8436	0.48928994
151	0x3e32f5d9	0.17476596
152	0x3f55bcd5	0.8349126
153	0x3f25d072	0.6477119
154	0xbf4aaebe	-0.79172885
155	0xbe493602	-0.19649509
156	0xbd8d1a3d	-0.0688977
157	0xbd8d8c17	-0.06911486
158	0x3ca1433b	0.019685378
159	0x3c0564f4	0.008141745
160	0xbcb3a7fd	-0.021930689
161	0x3ea0dee5	0.31420055
162	0xbe723f0b	-0.23656861
163	0x3efc2786	0.49248904
164	0xbe0f2ed2	-0.13982704
165	0xbe7da1e2	-0.24768785
166	0x3d1f6e80	0.03892374
167	0x3d24de2c	0.040250942
168	0x3dd8dbdc	0.1058881
169	0x3e19ac7c	0.15007204
170	0xbe86b4ac	-0.26309717
171	0x3d64f1a7	0.05589452
172	0xbe43fa29	-0.19138397
173	0x3e6a71c6	0.22894964
174	0xbebd024e	-0.3691582
175	0x3f90c79d	1.1310917
176	0x3e756212	0.23963192
177	0xc000e445	-2.0139325
178	0x3d45f81e	0.048332326
179	0xbcbe0957	-0.023197813
180	0xbd8516b5	-0.06498472
181	0x3c5e186f	0.01355563
182	0xbe33c519	-0.17555656
183	0xba17c3c4	-0.0005789364
184	0x3f207ae3	0.6268751
185	0x4014e7e3	2.3266532
186	0xbf897bb2	-1.0740874
187	0xbdc0d7ff	-0.09416198
188	0xbad80312	-0.0016480407
189	0x3c062a3f	0.008188783
190	0x3df57e98	0.119870365
191	0x3e53b356	0.2067388
192	0xbe0dd26a	-0.13849798
193	0xbed06ceb	-0.40708098
194	0xbf37b7ac	-0.71764636
195	0x3f1af0bc	0.6052358
196	0xbf16d0e5	-0.589125
197	0x3eba7078	0.36413932
198	0xbc0ff265	-0.008785819
199	0xbc0e545c	-0.008687105
200	0xbcd6869c	-0.026187234
201	0x3df2b5dc	0.11851093
202	0xbec60d35	-0.3868195
203	0x3cc960a5	0.024582217
204	0xc0026de0	-2.0379562
205	0xbfe0cd05	-1.7562567
206	0x3e9aac68	0.3020966
207	0x3fd145e8	1.6349459
208	0x3b2c70c7	0.0026312338
209	0x3cb102cb	0.021607777
210	0xbf18a847	-0.5963177
211	0x3e79e648	0.24404252
212	0x3f81573f	1.010475
213	0xbd14e642	-0.036352403
214	0x3e559748	0.2085849
215	0x3f7bdcfa	0.9838406
216	0xbbf57f50	-0.0074919835
217	0xbf25eb79	-0.6481243
218	0xbb05eef4	-0.0020436617
219	0xbd39af44	-0.045333162
220	0xbe65d9f9	-0.22446431
221	0x3ed70b47	0.4200079
222	0xbed84faf	-0.42248294
223	0x3e75f9f1	0.24021126
224	0x3f9ae700	1.2101746
225	0x3ebd3855	0.3695704
226	0x3d6a26a8	0.05716577
227	0x3da2af9b	0.0794365
228	0x3cceef7a	0.025260676
229	0xbc619eb5	-0.013770749
230	0x3d5830fb	0.052781086
231	0xbd78bca4	-0.060726777
232	0x3d3e9778	0.04653117
233	0xbeb0cddd	-0.3453206
234	0xbea664c8	-0.32498765
235	0x3e9b3992	0.3031736
236	0x3f337990	0.70107365
237	0xbf3803e5	-0.7188094
238	0x3c9732e7	0.01845689
239	0x3b18d785	0.002332182
240	0x3d0fb457	0.035084095
241	0x3f213174	0.62966084
242	0xbf0d03b4	-0.55083776
243	0x3fda0f11	1.7035848
244	0x3e6f97b5	0.23397715
245	0x3de52114	0.1118795
246	0xbd23ecb5	-0.040020663
247	0xbd4ebc2b	-0.05047242
248	0x3d1d8ba7	0.03846326
249	0xbb3f6a3a	-0.0029207603
250	0x3f0d0de9	0.5509935
251	0xbe750d6e	-0.23930904
252	0x3f1af4c9	0.6052976
253	0x3f856d58	1.0423994
254	0xbe9895cf	-0.29801795
255	0xbe4b7944	-0.19870478

net.0.bias f4 [256]
0	0xbed94b0d	-0.42440072
1	0xbd8fdafa	-0.07024188
2	0xbdfa8180	-0.122317314
3	0xbeab9fc9	-0.33520344
4	0x3ef211e6	0.4727928
5	0x3e6497b8	0.22323501
6	0x3e507137	0.20355688
7	0xbd054afc	-0.032542214
8	0x3f5a36df	0.85239977
9	0x3ea41702	0.32048804
10	0xbe67b3e2	-0.22627214
11	0xbf1e37f9	-0.6180416
12	0xbd2132e7	-0.039355185
13	0x3eccabca	0.39974815
14	0x3e0505db	0.12990515
15	0xbda30a74	-0.07960978
16	0x3efa312e	0.48865646
17	0x3e8f12b2	0.2794395
18	0xbdf631d5	-0.120212235
19	0xbe4ada00	-0.19809723
20	0xbe2d21d2	-0.16907433
21	0xbe380b9c	-0.17973179
22	0xbf8cb597	-1.0992917
23	0x3ea295c0	0.31754875
24	0x3e4cca0c	0.1999895
25	0xbdcc6a17	-0.099811725
26	0xbd50178b	-0.050803702
27	0x3f5376e0	0.82603264
28	0x3e020f96	0.12701258
29	0xbf4dc1b3	-0.80373687
30	0xbf83144c	-1.0240569
31	0x3e8040ec	0.2504953
32	0x3dc335f7	0.09531777
33	0xbf69df0a	-0.91355956
34	0x3e0ab336	0.13544926
35	0x3f893fdc	1.0722613
36	0x3f02986b	0.5101382
37	0xbefaa0f6	-0.48950928
38	0x3d9788a9	0.07399113
39	0x3f36d60e	0.7142037
40	0x3ef846ad	0.4849142
41	0x3e097c01	0.1342621
42	0x3e97b6c6	0.29631633
43	0xbe08a565	-0.13344343
44	0xbef1ded9	-0.47240332
45	0x3f1777f9	0.5916744
46	0x3e9b4e1e	0.30333036
47	0x3f675d7d	0.90377027
48	0xbb359b7d	-0.0027711086
49	0x3fdd5658	1.7291975
50	0x3e03ad75	0.12859137
51	0x3e95ac62	0.2923308
52	0x3e44f322	0.19233373
53	0x3e5123d5	0.20423825
54	0x3ef67ae3	0.4814063
55	0xbefe1191	-0.49622777
56	0x3eb81a98	0.3595779
57	0xbeadff71	-0.3398395
58	0xbee084ee	-0.43851417
59	0xbee0bd42	-0.43894392
60	0xbf4095c1	-0.75228506
61	0x3cb09a1e	0.021557864
62	0x3e41a7b0	0.18911624
63	0xbf625d36	-0.8842348
64	0x3cff3275	0.03115199
65	0x3b85cd77	0.004083331
66	0xbf379377	-0.7170939
67	0x3efedbf1	0.49777177
68	0x3ddcae63	0.10775449
69	0xbeb2fd1f	-0.3495874
70	0x3dc7fdcb	0.09765204
71	0xbf1d8070	-0.61524105
72	0x3f156528	0.5835748
73	0x3e92194b	0.28534922
74	0xbf8a20b5	-1.0791231
75	0xbdbad7e7	-0.09123211
76	0xbdcf7735	-0.10130159
77	0x3e4383a3	0.19093184
78	0x3e826b1e	0.2547235
79	0xbd06b749	-0.032889638
80	0x3eaa4aab	0.33260092
81	0x3ed59dc9	0.41721943
82	0x3f0858bc	0.532604
83	0xbf316dc0	-0.6930809
84	0xbf95b2a4	-1.1695142
85	0x3ec3cbc4	0.38241398
86	0x3ed3905b	0.41321072
87	0x3e39082f	0.18069528
88	0x3fb7c651	1.4357396
89	0x3dcce3fd	0.10004423
90	0xbef6f808	-0.48236108
91	0x3f240b10	0.6407938
92	0xbf84c610	-1.0372944
93	0x3dbc043e	0.09180497
94	0x3ea4393f	0.32074925
95	0x3e2bf87e	0.16794011
96	0x3ea7f539	0.32804278
97	0x3efa529b	0.48891148
98	0x3de669d4	0.11250654
99	0xbd3c6883	-0.045998108
100	0x3f0d8e97	0.552957
101	0xbf6a89e6	-0.91616666
102	0xbcfa569c	-0.030558877
103	0xbea0cfa5	-0.3140842
104	0x3d9de03f	0.07708787
105	0xbf3e8d8e	-0.74434745
106	0x3e6f7b88	0.23386967
107	0x3da56e1f	0.080776446
108	0x3f32ea67	0.6988892
109	0x3e8637f8	0.26214576
110	0xbea82870	-0.3284335
111	0x3f17ba50	0.59268665
112	0x3e1e7e6b	0.15477912
113	0x3e870b2c	0.2637571
114	0x3f096260	0.53665733
115	0x3eb6eb2c	0.35726297
116	0x3f325902	0.69667065
117	0x3ce41577	0.027842266
118	0xbe4d7b8d	-0.20066662
119	0x3e9598e1	0.292182
120	0x3e76cbb0	0.24101138
121	0x3edb360a	0.42814666
122	0x3f06d525	0.5266898
123	0xbf049c02	-0.5180055
124	0xbeb79719	-0.35857466
125	0xbe706800	-0.23477173
126	0x3f07f5b9	0.5310932
127	0xbda4958a	-0.08036335
128	0x3ec43de7	0.38328478
129	0xbcbebd3e	-0.023283597
130	0xbf4103ae	-0.7539624
131	0x3f61f508	0.88264513
132	0xbeacdcee	-0.33762306
133	0x3efd87fd	0.49517813
134	0x3f9771ef	1.1831645
135	0x3db4e3bf	0.088325016
136	0xbf861acd	-1.0476929
137	0x3e57563c	0.2102899
138	0xbf3fd7ef	-0.74938864
139	0x3ce973e0	0.028497636
140	0xbd88bce9	-0.06676657
141	0xbf98c7c2	-1.1935961
142	0xbe82a8f6	-0.25519532
143	0x3f1347ce	0.5753144
144	0x3e921dbf	0.2853832
145	0xbefb915e	-0.49134344
146	0x3ea228d3	0.3167177
147	0x3ebb7672	0.36613804
148	0xbf54544b	-0.8294112
149	0xbc42ecb0	-0.011897251
150	0x3eaed169	0.34144142
151	0xbf6fc877	-0.9366526
152	0x3f072add	0.5279978
153	0xbeb66e82	-0.35631186
154	0x3dd1f9c4	0.10252717
155	0x3ee27933	0.44233093
156	0x3e7eacfb	0.24870674
157	0xbfccd211	-1.6001607
158	0xbe9fb6c3	-0.31194124
159	0x3f10731d	0.5642565
160	0x3e5762ab	0.21033733
161	0x3f5f8b28	0.8732171
162	0xbf4ce016	-0.8002943
163	0x3efa6280	0.48903275
164	0x3ec40b2f	0.38289782
165	0x3ddb6925	0.10713414
166	0xbe07a563	-0.13246684
167	0x3f0bc7bf	0.54601663
168	0xbe9edabd	-0.3102626
169	0xbf22372f	-0.63365453
170	0x3f2a09fe	0.66421497
171	0x3ec92661	0.39287093
172	0x3f8f8399	1.1212035
173	0xbf6d938a	-0.9280325
174	0x3cf343f4	0.029695489
175	0xbc066c75	-0.008204569
176	0xbeec76ad	-0.46184292
177	0xbd259710	-0.040427268
178	0x3d9b0238	0.075687826
179	0x3e10ff22	0.14159825
180	0xbecb3e9b	-0.39696202
181	0xbf751677	-0.95737404
182	0x3db45bb9	0.08806557
183	0x3e0168cf	0.12637638
184	0xbeb6d7fa	-0.35711652
185	0x3f1e6c91	0.6188441
186	0xbf88ea38	-1.0696478
187	0x3e6f79f6	0.23386368
188	0xbdfe9955	-0.124315895
189	0xbd993b27	-0.074819855
190	0x3e2cf177	0.16888987
191	0xbd05a521	-0.032628182
192	0x3ea98daa	0.33115894
193	0x3e06276c	0.13100976
194	0x3ef38b08	0.4756701
195	0xbeb42634	-0.35185397
196	0xbee7c624	-0.45268357
197	0x3ee1ba6c	0.4408754
198	0x3d7cbfbf	0.0617063
199	0x3eab4a40	0.33455086
200	0xbf192c92	-0.59833634
201	0x3fc2c945	1.5217673
202	0x3e7f53ae	0.24934265
203	0x3f8593a9	1.0435687
204	0xbe73da94	-0.2381385
205	0x3f0ac86f	0.5421209
206	0x3f2dc3b8	0.6787677
207	0x3ea83ca5	0.32858768
208	0x3eb06278	0.34450126
209	0x3f0a950d	0.54133683
210	0xbebacf03	-0.36486062
211	0x3e8bae2a	0.27281314
212	0x3f9aebc7	1.2103204
213	0xbf51c3d8	-0.8193946
214	0x3eaf23cb	0.34206995
215	0xbe253e50	-0.16137052
216	0xbf426537	-0.7593569
217	0xbe553ee2	-0.20824769
218	0x3e1ce551	0.15321852
219	0x3e043908	0.1291238
220	0xbeca6223	-0.39527997
221	0xbe9681b8	-0.29395843
222	0x3c9287c0	0.017886996
223	0xbf07fffd	-0.5312498
224	0xbd11ee9a	-0.03562794
225	0x3f241093	0.6408779
226	0xbe6ab49f	-0.22920464
227	0xbdbf9a82	-0.09355642
228	0x3c966979	0.01836084
229	0x3f05ce61	0.52268034
230	0x3db23120	0.08700776
231	0xbdf3b80c	-0.119003385
232	0xbed864a9	-0.42264298
233	0xbeca54cb	-0.39517817
234	0x3e52daca	0.20591274
235	0xbe1b48fe	-0.15164563
236	0x3d6293bb	0.055316668
237	0x3f16d1d9	0.5891395
238	0xbf74c85b	-0.9561822
239	0x3ec4f435	0.38467565
240	0x3da4aa95	0.080403484
241	0xbf8ad3a4	-1.0845838
242	0x3ee63150	0.44959497
243	0x3e88ae3b	0.26695427
244	0x3ecc469b	0.39897618
245	0x3fc18266	1.511792
246	0x3e1ec259	0.15503825
247	0xbce23e67	-0.027617646
248	0x3f375a90	0.7162256
249	0x3f59dd99	0.85103756
250	0xbf695e10	-0.91159153
251	0x3f11cd9c	0.5695436
252	0x3eaa3f75	0.3325154
253	0x3e4d6685	0.2005864
254	0xbd5d8e41	-0.054090742
255	0x3e962b91	0.29330114

net.2.weight f4 [256, 256]
0	0xbda9b78a	-0.082869604
1	0x3d312842	0.043251283
2	0x3d887719	0.06663341
3	0x3e94a974	0.29035532
4	0x3e0cdfc7	0.1375724
5	0x3d2c8bd2	0.04212553
6	0xbe363c61	-0.1779647
7	0x3eb71fca	0.3576644
8	0x3ecdb419	0.40176466
9	0xbeff8ca6	-0.49911994
10	0x3e93f4ce	0.2889771
11	0xbe0b3f2b	-0.13598315
12	0x3e9382e7	0.28810808
13	0x3e9e8b0d	0.30965462
14	0x3e51d2e4	0.20490605
15	0x3ee5418a	0.44776565
16	0x3d8e63df	0.06952643
17	0x3e6798a6	0.22616825
18	0x3e0ab843	0.13546853
19	0xbe866c0c	-0.26254308
20	0x3e703def	0.23461126
21	0xbd3dc054	-0.046325997
22	0x3f1dce92	0.61643326
23	0x3eaaebcd	0.33383027
24	0x3ecf5e7d	0.40501776
25	0x3e6d78da	0.23190632
26	0xbc74cdf1	-0.014941678
27	0x3ebac108	0.36475396
28	0x3e258000	0.1616211
29	0x3e711c93	0.23546056
30	0xbe4e5860	-0.201509
31	0x3e5a4faa	0.21319452
32	0x3eb2e0b2	0.34937054
33	0xbe1dd350	-0.1541264
34	0xbe7de1b1	-0.24793126
35	0x3dffbfd8	0.12487763
36	0x3e959a81	0.2921944
37	0x3b12b9ea	0.0022388645
38	0x3e5ab721	0.2135892
39	0xbecac8d6	-0.3960635
40	0x3da1197c	0.07866189
41	0x3edc527f	0.4303169
42	0xbdcb5d24	-0.099298745
43	0x3e508ce5	0.20366247
44	0x3f49d55a	0.78841174
45	0x3cc5b75a	0.02413528
46	0x3e3d0c53	0.18461733
47	0x3ebfaeb4	0.37437975
48	0x3eb1b23b	0.34706292
49	0xbe886121	-0.26636603
50	0x3dfe9f3c	0.12432715
51	0x3edcd687	0.4313242
52	0xbe265a82	-0.16245463
53	0x3e988efa	0.29796582
54	0x3e6162cf	0.22010349
55	0x3d9f787a	0.07786651
56	0xbc8897a4	-0.01667387
57	0x3e688786	0.22707948
58	0x3e675b8d	0.22593518
59	0xbe808dca	-0.25108176
60	0x3eda8eff	0.42687222
61	0xbe1be6a6	-0.15224704
62	0x3ec265f3	0.37968406
63	0x3ed15438	0.40884566
64	0xbd3dc9a9	-0.046334896
65	0xbec7faa6	-0.39058417
66	0xbe30da31	-0.17270733
67	0x3e9a35b4	0.30119097
68	0x3e04b469	0.12959446
69	0xbf0026da	-0.5005928
70	0x3dbeee0e	0.09322749
71	0x3eb6603f	0.35620305
72	0xbdce3084	-0.10067847
73	0x3da1b4c8	0.078958094
74	0xbf1740ff	-0.5908355
75	0x3e923a1c	0.2855996
76	0x3e4422bd	0.19153877
77	0xbcff0a1b	-0.031132748
78	0x3d5b6ec6	0.05357244
79	0xbca9ec8a	-0.020742673
80	0x3e5412a5	0.20710237
81	0x3d761f1c	0.060088262
82	0x3e08d09d	0.1336083
83	0x3f8d93a6	1.1060684
84	0xbd94b120	-0.072603464
85	0xbd17c19c	-0.037049875
86	0xbdda03e9	-0.10645277
87	0x3dfb3383	0.122656845
88	0xbc804e05	-0.015662203
89	0xbe4d77cd	-0.20065232
90	0x3e20ea4e	0.1571438
91	0xbc12772f	-0.008939548
92	0x3e3c8b0c	0.18412417
93	0xbedda58f	-0.43290374
94	0x3e19b8af	0.15011857
95	0xbe1eac9a	-0.1549553
96	0x3da783e4	0.08179453
97	0x3dcda814	0.10041824
98	0x3d8c506d	0.068512775
99	0x3e5d17a0	0.21591043
100	0x3e8353f6	0.25649995
101	0xbeb1756f	-0.34659907
102	0x3e0e2222	0.13880208
103	0xbdc38a08	-0.09547812
104	0x3e84cc87	0.25937292
105	0x3eb8d487	0.36099645
106	0x3e5d3876	0.2160357
107	0xbe983134	-0.2972504
108	0xbd7a01b5	-0.061036784
109	0x3dd741cd	0.105105974
110	0xbe949f37	-0.2902772
111	0x3e97484d	0.2954735
112	0xbd98b001	-0.07455445
113	0x3e2fb1b4	0.17157632
114	0x3e17346a	0.14766088
115	0x3e3e601c	0.1859135
116	0x3e83fa8d	0.25777093
117	0x3e1a02e6	0.15040168
118	0x3e96a47f	0.29422376
119	0x3e0cf846	0.13766584
120	0x3d977526	0.07395391
121	0x3e421ee8	0.18957102
122	0xbebbd6af	-0.36687228
123	0xbd04385e	-0.03228032
124	0x3cb7d81a	0.022441912
125	0x3eed13ae	0.46304077
126	0x3e66a084	0.2252217
127	0x3e1330c6	0.14374074
128	0x3b8ab0fa	0.004232523
129	0x3ec93509	0.39298275
130	0xbd11af19	-0.035567377
131	0x3d46e716	0.048560224
132	0x3ed53bec	0.4164728
133	0x3e98c1fd	0.298355
134	0xbe9a55ca	-0.30143577
135	0xbec83759	-0.39104727
136	0x3ecfcb6a	0.4058488
137	0xbc982bd7	-0.018575592
138	0x3e9e544a	0.30923682
139	0xbe90eb9c	-0.28304756
140	0x3d090a71	0.033457223
141	0x3f20b503	0.627762
142	0x3d07b1b7	0.033128466
143	0xbc036a30	-0.008020923
144	0xbe43abc3	-0.1910849
145	0xbe841eed	-0.25804844
146	0xbd59efe8	-0.053207308
147	0xbc40b846	-0.011762684
148	0xbc3a80e6	-0.011383271
149	0xbc8bf23f	-0.017083285
150	0x3e863d24	0.26218522
151	0xbe28c084	-0.16479689
152	0x3e4d2f0f	0.20037483
153	0x3d2c47a5	0.042060513
154	0x3bb52ade	0.005528792
155	0x3ec9b541	0.39396098
156	0x3ec51e7d	0.38499823
157	0x3dd02ed5	0.101651825
158	0x3e01ca36	0.12674794
159	0x3d2a1017	0.04151925
160	0x3e5025a1	0.20326854
161	0x3e6bf79d	0.23043676
162	0x3ea04571	0.3130298
163	0xbd8d4dd2	-0.06899609
164	0x3eec6432	0.46170193
165	0x3ea19a32	0.31562954
166	0x3d1cff31	0.038329307
167	0x3d8b129d	0.067906596
168	0xbe313047	-0.17303573
169	0xbee44248	-0.4458182
170	0x3e8aa179	0.2707632
171	0x3e541ad2	0.20713356
172	0xbe8aaded	-0.2708582
173	0xbeb03351	-0.3441415
174	0x3e8e6f06	0.2781908
175	0xbe079a43	-0.1324244
176	0x3e931257	0.2872493
177	0xbead75ce	-0.3387894
178	0x3d344cae	0.04401844
179	0x3dfd7a86	0.12376885
180	0xbd42eb12	-0.04758746
181	0xbe1278b0	-0.14303851
182	0xbd1f9bb4	-0.03896685
183	0x3d75d5c9	0.060018335
184	0x3c74a2b2	0.014931368
185	0x3e8bf870	0.2733798
186	0xbe79a72f	-0.24380182
187	0x3e6b2fc5	0.22967441
188	0x3e8cb54e	0.27482074
189	0x3dc1ecc4	0.094689876
190	0x3ea0bc34	0.31393588
191	0x3eff3975	0.49848524
192	0x3e92390a	0.28559142
193	0x3eab6a41	0.33479503
194	0x3d6275f8	0.055288285
195	0x3eae52a0	0.34047413
196	0x3f21225b	0.6294305
197	0xbe1e508e	-0.15460417
198	0x3e898366	0.26858062
199	0x3eee7f76	0.4658162
200	0x3d8985ff	0.06715011
201	0x3db9112b	0.09036478
202	0x3e81da10	0.2536168
203	0x3e0474e0	0.1293521
204	0xbe1a42bc	-0.1506452
205	0x3c7b89fb	0.015352721
206	0xbf1a089f	-0.60169405
207	0xbdf8f042	-0.121552005
208	0x3ee1ce34	0.44102633
209	0x3eecdb58	0.46261096
210	0x3e8f5285	0.27992645
211	0x3e8602e9	0.26174095
212	0x3e965d7e	0.29368204
213	0x3ee72f38	0.45153213
214	0x3e5d5a33	0.2161644
215	0x3dc1623d	0.094425656
216	0xbe217636	-0.1576775
217	0x3d63152f	0.055440124
218	0x3dfb7425	0.12278012
219	0xbd5f18f6	-0.054467164
220	0xbf00591e	-0.5013598
221	0x3dc93d70	0.098261714
222	0x3e54def9	0.20788182
223	0x3e54aca2	0.20768979
224	0x3e9bfe3c	0.30467403
225	0x3d9f9c9e	0.07793544
226	0x3e94400e	0.2895512
227	0x3eaf4efe	0.34239954
228	0x3c7cb2a9	0.015423455
229	0x3ea08b6f	0.3135638
230	0x3eb0e9e5	0.34553447
231	0x3e62c046	0.22143659
232	0x3e2d1c7a	0.16905394
233	0x3e7d3c76	0.24730095
234	0x3df14ad4	0.117818505
235	0xbf49d9b9	-0.78847843
236	0x3d75b10f	0.05998331
237	0xbdd3a611	-0.10334409
238	0x3ec5ad91	0.38608983
239	0x3dc09bb5	0.09404699
240	0x3df74807	0.12074285
241	0x3f00226c	0.50052524
242	0x3dc85608	0.09782034
243	0x3d9df752	0.07713188
244	0x3e0985af	0.13429902
245	0xbea226d4	-0.31670249
246	0x3ec0bf42	0.37645918
247	0xbd6387fa	-0.0555496
248	0xbd79fa12	-0.0610295
249	0xbe43d5f6	-0.19124588
250	0x3f1f2488	0.6216512
251	0x3e253cfd	0.16136546
252	0x3ed5c83c	0.4175433
253	0x3e1054a5	0.1409479
254	0x3e97fcfb	0.29685196
255	0xbd2fe4e7	-0.042942908

net.2.bias f4 [256]
0	0x3e898480	0.26858902
1	0x3e788656	0.24269995
2	0x3e587213	0.21137266
3	0x3e77f50a	0.24214569
4	0xbd1166ef	-0.035498556
5	0xbe6a0bd9	-0.22856082
6	0x3ee03c6a	0.43796092
7	0x3e8d630c	0.2761463
8	0x3dc2baae	0.095082626
9	0x3eccb60f	0.3998265
10	0x3e812d30	0.25229788
11	0x3e8a4c1e	0.27011198
12	0xbbc0b819	-0.005881321
13	0xbe8c7599	-0.2743347
14	0x3ef443bd	0.4770793
15	0x3d800172	0.06250276
16	0x3e651dc0	0.2237463
17	0xbd75ea94	-0.060038164
18	0xbb8fe5c3	-0.0043914034
19	0x3e9f4bde	0.3111257
20	0x3e8094bf	0.25113484
21	0x3f0d7e02	0.552704
22	0xbe39a022	-0.18127492
23	0xbdbc6a89	-0.092000075
24	0x3e81ef5e	0.25377935
25	0xbdc99cbc	-0.09844348
26	0x3e65d7a3	0.2244554
27	0xbd8b87b3	-0.06812992
28	0xbe834edc	-0.25646102
29	0xbe3545f8	-0.17702472
30	0x3e738da8	0.23784506
31	0x3ea0b61a	0.31388932
32	0x3e376d06	0.17912683
33	0x3eddb233	0.43300018
34	0x3e850995	0.25983873
35	0x3e460708	0.1933862
36	0x3e9410a3	0.28918943
37	0xbcb34603	-0.02188397
38	0x3dc74da3	0.09731605
39	0x3e028eb5	0.12749751
40	0x3e894dbf	0.26817128
41	0x3ec1692a	0.37775546
42	0x3e731f4c	0.23742408
43	0x3f34b6fd	0.7059172
44	0x3e8f6fcd	0.28014985
45	0xbd86b9a3	-0.06578376
46	0x3e332f13	0.17498426
47	0x3e0099bf	0.1255865
48	0xbedb746d	-0.42862263
49	0x3e857a26	0.26069754
50	0x3cb3d288	0.021950975
51	0x3ec0ad64	0.37632287
52	0x3e8dd296	0.27699727
53	0x3e2b7f7d	0.16747852
54	0x3ea0c804	0.314026
55	0x3e9c2927	0.30500147
56	0x3cbdb167	0.023155881
57	0x3e86fa10	0.26362658
58	0x3e465e67	0.19371949
59	0x3e7eac26	0.24870357
60	0xb829e49a	-4.050564e-05
61	0xbd32a2ba	-0.04361222
62	0x3eb6ba3f	0.3568897
63	0x3e380861	0.17971946
64	0x3e224d09	0.15849699
65	0x3e22550e	0.15852758
66	0x3ee421f4	0.44557154
67	0x3e446c03	0.19181828
68	0x3d464e1c	0.048414335
69	0x3e9110be	0.28333086
70	0xbd5732c3	-0.052538645
71	0x3e63b451	0.22236754
72	0x3ea89da9	0.32932785
73	0x3e721ef9	0.23644628
74	0x3e3c768c	0.18404597
75	0x3e663250	0.2248013
76	0x3e60b355	0.2194341
77	0x3e8bd73a	0.27312642
78	0x3e402769	0.18765034
79	0x3e42ef3b	0.19036572
80	0x3e70be42	0.23510078
81	0x3e86c5a6	0.2632267
82	0x3e5f9a12	0.21836117
83	0x3e6a1bdb	0.22862189
84	0x3e93ced7	0.28868744
85	0xbdf15722	-0.117841974
86	0x3e87d03f	0.26526067
87	0x3e3755bd	0.179038
88	0x3e9309ff	0.28718564
89	0x3d46f939	0.04857752
90	0xbd6f19f7	-0.05837437
91	0x3e5d3945	0.21603878
92	0x3e6c9236	0.2310265
93	0x3e859f98	0.26098323
94	0x3ee49e94	0.44652236
95	0x3e2d7401	0.16938783
96	0xbe3dd468	-0.18538058
97	0x3e22f915	0.1591533
98	0xbb1309b9	-0.0022436215
99	0x3e5c077f	0.21487235
100	0x3df4d937	0.11955493
101	0x3e6d8fc4	0.23199373
102	0x3bd2a1f1	0.0064279963
103	0x3e7f1d24	0.2491346
104	0x3e4e01ac	0.20117825
105	0x3d267486	0.04063847
106	0xbddbf470	-0.10739982
107	0xbde64a68	-0.112446606
108	0xbe80ba3c	-0.25142086
109	0xbd15fc0c	-0.036617324
110	0x3e571957	0.2100576
111	0x3e8699de	0.26289266
112	0xbd7e6d27	-0.062115815
113	0x3e5706fb	0.20998757
114	0xbd3014c6	-0.04298856
115	0x3f0abb51	0.5419207
116	0xbd815a82	-0.06316091
117	0x3f116449	0.5679365
118	0x3e261d2a	0.16222063
119	0x3d8efa23	0.069813035
120	0x3e949428	0.29019284
121	0x3e330c08	0.17485058
122	0x3f028d8b	0.5099723
123	0xbb63fd67	-0.003478849
124	0x3d66d802	0.056358345
125	0xba4d8069	-0.0007839264
126	0x3e6f6e55	0.23381932
127	0xbcaede12	-0.021346126
128	0x3c7b2acb	0.015330027
129	0x3ed8e956	0.4236552
130	0x3e788492	0.24269322
131	0x3e309cd5	0.17247327
132	0xbca547e8	-0.02017589
133	0x3f0437a5	0.51647407
134	0x3dddf44b	0.10837611
135	0x3e5d33b1	0.2160175
136	0xbd784b31	-0.060618583
137	0x3e94228c	0.28932607
138	0x3e86367a	0.26213437
139	0xbbe19ac6	-0.0068849055
140	0x3e93a3a2	0.2883578
141	0x3e93b5fe	0.28849787
142	0x3e463d81	0.193594
143	0x3e2da525	0.16957529
144	0x3e6871a5	0.22699602
145	0x3e62541a	0.22102395
146	0x3e918aab	0.28426108
147	0x3e86e960	0.26349926
148	0x3e8396c0	0.2570095
149	0x3d40d71a	0.047080137
150	0xbd7ab1e3	-0.061204802
151	0x3d4b864f	0.049688634
152	0x3eb42715	0.35186067
153	0xbd7cc956	-0.061715446
154	0x3e874036	0.26416177
155	0xbd3696fe	-0.04457759
156	0x3e7f80d1	0.24951483
157	0x3e787166	0.24262008
158	0x3e80da17	0.2516639
159	0x3edce14a	0.43140632
160	0x3e511acc	0.20420378
161	0x3e569b4c	0.20957679
162	0x3e66e881	0.2254963
163	0x3e3260a4	0.17419678
164	0x3e36bc72	0.17845324
165	0x3cc44d78	0.023962721
166	0x3e1d06cd	0.15334626
167	0x3e55be53	0.20873384
168	0x3e831ba4	0.25607026
169	0x3d34712a	0.044053234
170	0x3e90cb43	0.28280076
171	0x3e64ddb0	0.22350192
172	0x3e637b06	0.22214898
173	0xbd8eed38	-0.0697884
174	0xbf9b28f8	-1.2121878
175	0x3e6d489b	0.23172228
176	0x3d9e6f01	0.07736016
177	0x3e67ff55	0.22655995
178	0x3ec91d7e	0.39280313
179	0x3ec70247	0.38868925
180	0x3ef12d9e	0.47105116
181	0x3de9308e	0.11386214
182	0x3e6fcf59	0.2341894
183	0x3e4a217c	0.19739336
184	0xbd445e02	-0.047941215
185	0x3e7cb9e7	0.24680291
186	0x3ea46f21	0.32116035
187	0x3e2c3927	0.16818677
188	0x3e9717be	0.295103
189	0xbe41494a	-0.18875614
190	0x3e3a8684	0.18215376
191	0x3ed0942c	0.40738046
192	0x3efa79d7	0.4892108
193	0xbbeeaa84	-0.0072835106
194	0x3e5b4a23	0.21415
195	0x3cc68ecf	0.024238018
196	0x3e6c3427	0.2306677
197	0xbd1276cb	-0.03575782
198	0x3e87c521	0.26517585
199	0xbb662aba	-0.0035120682
200	0x3e5668f8	0.2093848
201	0x3dc4901e	0.09597801
202	0x3e3eb4c8	0.1862365
203	0x3e8cecd2	0.2752443
204	0x3d61cde7	0.055128004
205	0x3e8195ad	0.25309506
206	0x3e644d98	0.22295225
207	0x3e556303	0.20838551
208	0x3e4cd749	0.20004
209	0x3df1456f	0.117808215
210	0x3e7f8182	0.24951747
211	0x3e52b624	0.20577294
212	0x3e8a2ed7	0.2698886
213	0x3f0c2e34	0.54758
214	0xba85633b	-0.0010176668
215	0xbcea157f	-0.028574703
216	0x3ec50c6d	0.38486043
217	0x3e5ea22d	0.21741553
218	0x3d8b7962	0.06810261
219	0x3e0e239c	0.13880771
220	0xbd7eb56f	-0.062184747
221	0x3ecfa54a	0.40555793
222	0x3eea9fbe	0.45825
223	0x3e647e69	0.22313847
224	0xbe17825c	-0.14795822
225	0xbeffde8f	-0.49974486
226	0x3e611f13	0.2198451
227	0x3e06f37c	0.1317882
228	0x3e72bb65	0.23704298
229	0x3e8d2788	0.27569222
230	0x3d030683	0.031988632
231	0x3ed2bb9b	0.41158757
232	0xbf059dfc	-0.5219419
233	0x3e5dfe46	0.21679029
234	0x3e58a446	0.21156415
235	0x3e49d156	0.19708762
236	0x3e70ae2b	0.2350394
237	0x3e8e75fc	0.2782439
238	0x3e5e32cd	0.21699066
239	0x3eb2a55a	0.34891778
240	0x3ea888b6	0.32916802
241	0xbdbb4c63	-0.09145429
242	0x3e450d34	0.19243318
243	0xbba8a901	-0.0051471
244	0x3e2ea838	0.17056358
245	0xbd7ef1bb	-0.06224225
246	0x3c43ecf1	0.011958347
247	0xbec0d4ad	-0.3766226
248	0x3e61a068	0.22033846
249	0x3e4dbc3c	0.20091337
250	0x3e834101	0.25635532
251	0x3e544b25	0.2073179
252	0x3d0c2ed7	0.034224357
253	0xbe1f1b83	-0.15537839
254	0xbf6ffbbd	-0.937435
255	0x3df5ed73	0.120081805

net.4.weight f4 [1, 256]
0	0xbe2c42a4	-0.16822296
1	0x406c119e	3.6885753
2	0xbe0bd8f6	-0.13656983
3	0x404144a2	3.019814
4	0x406c1d22	3.6892781
5	0x407d322f	3.956188
6	0xbff13d48	-1.8846827
7	0xbdc86079	-0.09784026
8	0x4022d169	2.5440314
9	0x40674a46	3.6139083
10	0x408f682a	4.4814653
11	0xbe011487	-0.12605487
12	0xbcb8ffed	-0.022582972
13	0xbf9621bf	-1.1729048
14	0xbfc59633	-1.5436462
15	0x4054fa79	3.3277876
16	0x4090a601	4.520264
17	0x4115882c	9.345745
18	0x3d453fef	0.048156675
19	0xbe49a483	-0.19691662
20	0xbde4e86e	-0.11177145
21	0x4019d4bd	2.4036095
22	0x3fdb2b0f	1.7122515
23	0x3ffc15a6	1.9694107
24	0xbda13aad	-0.0787252
25	0x4004dd36	2.0760016
26	0xbde60f00	-0.1123333
27	0x3ab5ed56	0.0013879936
28	0x40103967	2.2535036
29	0x3ff28643	1.8947223
30	0xbd89126f	-0.06692969
31	0x40505cca	3.2556634
32	0xbe155197	-0.14581905
33	0x4032ae30	2.7918816
34	0xbedb96cc	-0.42888486
35	0xbdc0de3a	-0.09417386
36	0xbe19c954	-0.15018207
37	0xbfb60c74	-1.422255
38	0x3fc5bf5d	1.5449024
39	0xc0b82346	-5.754306
40	0x404e7222	3.225716
41	0x408c9e1d	4.394301
42	0xbda22592	-0.07917322
43	0x405dea21	3.467415
44	0xbde0db5a	-0.10979338
45	0x408c4cee	4.384391
46	0xbe0939d6	-0.13400969
47	0x40a871ec	5.2639065
48	0x4000d6fb	2.0131214
49	0xbdfd5b39	-0.12370915
50	0x3fcb86a8	1.5900469
51	0x4070555b	3.7552097
52	0xbe210a4a	-0.15726581
53	0xbd68f64e	-0.05687552
54	0xbe1a666f	-0.15078138
55	0x408730b9	4.2246976
56	0x40eb24cb	7.3482413
57	0xbdd3bc33	-0.103386305
58	0x3fb486dc	1.4103656
59	0xbd4710ae	-0.04859989
60	0x3cb21b53	0.021741545
61	0x4098b3f9	4.7719693
62	0x4006a788	2.1039753
63	0xbde54fbc	-0.11196849
64	0x3fe44ab8	1.7835302
65	0xbd925005	-0.07144169
66	0x4048ade4	3.1356134
67	0xbe1974b7	-0.1498593
68	0x410f622a	8.961466
69	0xbe07fb21	-0.13279392
70	0xbb41fa93	-0.0029598817
71	0xbdc4fab0	-0.09618127
72	0x3ff22112	1.8916342
73	0xbdf6e2dc	-0.12054989
74	0x40b5d735	5.6825204
75	0x40becf45	5.9628015
76	0xbe057a35	-0.130349
77	0xbf52901d	-0.8225115
78	0x4051280d	3.2680695
79	0x40de383c	6.9443645
80	0xbe2b752b	-0.16743915
81	0xbd94bef7	-0.07262986
82	0x3f88768c	1.0661178
83	0xbe20fcbc	-0.1572141
84	0xbfa1c25d	-1.263744
85	0x3ffe88f2	1.9885542
86	0xbdf10721	-0.11768938
87	0xbdd9db40	-0.10637522
88	0x40033417	2.0500543
89	0x3f41e959	0.75746685
90	0x4012daaf	2.2945974
91	0xbdea07b9	-0.11427254
92	0xbe0a31f4	-0.13495618
93	0xbda42d3b	-0.080164395
94	0x404ab1de	3.1671062
95	0xbdc6dc76	-0.09710018
96	0x3f685caa	0.90766394
97	0xbdb49bed	-0.08818803
98	0x3c90f916	0.017696898
99	0xbe0a3d8e	-0.13500044
100	0x408db162	4.427903
101	0xbe0a0146	-0.13477048
102	0x3d1b405c	0.037903175
103	0xbe12988f	-0.14316009
104	0xbdd20c34	-0.10256234
105	0x393c8be5	0.00017981192
106	0xbf7643c8	-0.96197176
107	0x402071e7	2.506952
108	0x3fff8ef3	1.99655
109	0x3b0bacf4	0.0021312805
110	0xbe33bc23	-0.17552237
111	0xbdd40a84	-0.10353568
112	0x3ae09394	0.0017133825
113	0xbe21ea23	-0.15811972
114	0x3ae80102	0.0017700496
115	0xc0225397	-2.536352
116	0x3bc45f00	0.00599277
117	0x401f39ee	2.4879107
118	0x40ad5651	5.4167867
119	0x40a940d4	5.2891636
120	0xbe2d2817	-0.16909824
121	0xbdedb862	-0.11607434
122	0x3f967d52	1.1756995
123	0x4052253e	3.283523
124	0x40c8dd07	6.276981
125	0xbd3dbe4d	-0.046324063
126	0xbd949403	-0.072547935
127	0xbfede974	-1.8586869
128	0x3c9a99dc	0.018872194
129	0x3fcfbd3e	1.6229627
130	0xbe110e00	-0.14165497
131	0xbd44dcc3	-0.048062097
132	0x415cd97d	13.803098
133	0x4052bb86	3.2926955
134	0x408321c7	4.097873
135	0xbdff8347	-0.12476211
136	0x3d349cd3	0.04409487
137	0xbdfe065d	-0.124035574
138	0xbdd05b54	-0.101736695
139	0x3fee47d3	1.8615669
140	0xbe0857e6	-0.1331478
141	0x40b9cdf4	5.806391
142	0x409b3532	4.8502436
143	0xbd9dbf3d	-0.077024914
144	0xbde53d3a	-0.11193319
145	0xbe0ba152	-0.13635758
146	0xbe6666dc	-0.22500175
147	0x408f113f	4.470855
148	0xbe242e8c	-0.16033381
149	0x40a50d99	5.15791
150	0x4001a5bf	2.0257413
151	0xbfb92043	-1.446297
152	0x3fd64b42	1.6741717
153	0x3eb57cb5	0.35446706
154	0xbe082d0c	-0.13298434
155	0xbb2712e8	-0.0025493447
156	0xbe3226d9	-0.17397632
157	0xbe0bcedf	-0.13653134
158	0xbe234eaf	-0.15947984
159	0x3fcda556	1.6066082
160	0xbd96b398	-0.073584735
161	0xbdf6f561	-0.12058521
162	0x403e01cf	2.9688604
163	0xbdb9ab98	-0.09065932
164	0xbf46aba9	-0.7760568
165	0x3b37da27	0.0028053613
166	0xc008c6cd	-2.1371338
167	0xbe2bdc02	-0.16783145
168	0xbe0014f8	-0.12507999
169	0xbf9c7af9	-1.2225028
170	0xbe261bde	-0.16221568
171	0x40518feb	3.274409
172	0xbe2be2bd	-0.16785713
173	0xb7b012e9	-2.098964e-05
174	0x40532512	3.2991376
175	0xbd872ac5	-0.065999545
176	0xbef87e00	-0.4853363
177	0xbd5a32d2	-0.053271122
178	0x3f5cab91	0.8619929
179	0xc0706981	-3.7564394
180	0x3fac1ffd	1.3447262
181	0x4002570f	2.0365636
182	0x40eed7f5	7.463862
183	0xbe197df7	-0.14989458
184	0x3b00afa5	0.0019635942
185	0xbd8d87ab	-0.06910642
186	0xbf38327f	-0.7195205
187	0xbddf610e	-0.109071836
188	0xbe0b84ad	-0.1362483
189	0x40b265e8	5.5749397
190	0x3ff0cc60	1.881237
191	0x3ffe7b26	1.9881332
192	0x3f3cecf7	0.7379908
193	0x3c88922a	0.016671259
194	0xbde83a17	-0.11339205
195	0x403468b2	2.81889
196	0xbe137c07	-0.14402781
197	0x3d4ec815	0.05048378
198	0x4030cf7f	2.7626646
199	0x4043286f	3.0493429
200	0xbe1bb045	-0.1520396
201	0x400d8c90	2.2117043
202	0xbe0df564	-0.1386314
203	0xbe283837	-0.16427694
204	0x40087b80	2.1325378
205	0xbe18020f	-0.14844535
206	0xbe08a972	-0.13345888
207	0xbd695aee	-0.056971483
208	0xbdd30823	-0.10304286
209	0xc027e6de	-2.623466
210	0xbe231c1a	-0.15928689
211	0xbe02228b	-0.1270849
212	0xbe099763	-0.13436656
213	0x3fb364f3	1.4015182
214	0x3c89444c	0.0167562
215	0x3b5f2ad1	0.003405262
216	0xbf93a47a	-1.1534569
217	0xbd99adcd	-0.07503853
218	0xbf48ebd1	-0.7848483
219	0x404b1b83	3.1735542
220	0xbacd977d	-0.0015685406
221	0xbfbac4ba	-1.4591286
222	0x3fa724ab	1.3058065
223	0xbdc5cdb1	-0.09658373
224	0xbfbb76d3	-1.4645637
225	0x3f9b5bc0	1.2137375
226	0xbdc3e959	-0.09565992
227	0x40981f4d	4.753821
228	0x3f984331	1.1895505
229	0xbe58ce4e	-0.21172449
230	0x40d575f5	6.670649
231	0x401293dc	2.2902746
232	0x4017bac2	2.3707738
233	0xbe123a4a	-0.14280048
234	0xbe1fdf45	-0.15612514
235	0x40b79c6d	5.737845
236	0xbdfc2523	-0.12311771
237	0xbe092d98	-0.13396299
238	0xbe54fcee	-0.2079961
239	0xbfee0424	-1.8595014
240	0x405c120f	3.4386022
241	0x40197ceb	2.3982494
242	0xbd78bf7a	-0.06072948
243	0xbfe4a519	-1.7862884
244	0xbda6e0ad	-0.08148322
245	0x3c6db07b	0.014507408
246	0x3c52d1a5	0.012867366
247	0x40862c18	4.1928825
248	0xbe0ac8ee	-0.13553211
249	0xbe28978a	-0.16464058
250	0xbe4191b8	-0.18903244
251	0xbf03aa38	-0.5143161
252	0x3cd6c402	0.02621651
253	0x40045daf	2.068218
254	0x4017c2d4	2.3712664
255	0x4001afaf	2.0263479
