manually_saved_runs/naive_ddpg_2/target_actor.pt (torch, 276799 bytes, 6 tensors)

net.0.weight f4 [256, 8]
000000 8b 5e 39 3e 2e a7 32 3e 0f fb 39 bf a3 22 25 3f
       0.18102472 0.17446586 -0.7264871 0.64505976
000010 83 fa 94 be a7 c8 d8 bd 80 59 b3 3f 11 85 15 3e
       -0.29097375 -0.105851464 1.4011688 0.14601542
000020 a5 94 6c 3e 90 0c 61 bf 9f 80 eb be bd ad a4 3e
       0.23103578 -0.87909794 -0.45996568 0.32163802
000030 a0 17 53 3f 07 f2 03 3f 9a a8 2f be 6c 8f 90 3d
       0.82457924 0.5154118 -0.1715416 0.070586056
000040 84 15 73 3e 03 ea be 3e 51 b4 9a be a5 98 99 3c
       0.23738676 0.37287912 -0.30215696 0.018749544
000050 33 b2 37 3f 63 bd d9 bf ad 64 6b 3f 98 62 a2 3e
       0.71756285 -1.7010921 0.91950494 0.31715846
000060 f6 6c 5a 3d 50 63 0e bf b1 4c 0e 3f f2 85 d6 be
       0.05332657 -0.5562029 0.5558577 -0.41899067
000070 21 db 60 be 2c d5 d3 3e 50 9a 17 3f e7 cc d9 3c
       -0.21958591 0.41373575 0.5921984 0.026586963
000080 a1 ed 32 3e 88 96 fa be eb cf 80 3f 49 c6 72 3f
       0.1747346 -0.4894297 1.0063452 0.9483381
000090 a3 ca 46 3f 31 10 95 be f0 2c 3a bf 36 10 5a 3f
       0.7765295 -0.29113916 -0.7272482 0.85180986
0000a0 9d 2f 2d 3f 1e 48 da be b3 bc 0f 3f 42 39 4f bd
       0.6765078 -0.42633146 0.5614731 -0.050591715
0000b0 65 33 08 c0 65 6a af be b5 c9 6b bf 67 5b 50 bf
       -2.1281369 -0.3426086 -0.92104656 -0.8138947
0000c0 1c 6b eb be 25 32 9e be 08 2a 46 3f 58 cc c8 be
       -0.45980155 -0.30897632 0.77407885 -0.39218402
0000d0 ab 24 a8 3f 7d 05 d9 3e 8c 5e 71 3f 40 f2 2f bf
       1.313619 0.42387 0.9428489 -0.6872902
0000e0 f6 34 af be f6 f3 05 bf c9 73 47 3e 93 11 a3 3e
       -0.34220093 -0.5232538 0.19477762 0.31849346
0000f0 2b 8f a0 3f 07 f4 af 3f 26 11 1b bf 89 42 04 c0
       1.2543691 1.3746346 -0.6057304 -2.066561
000100 59 70 3e be 94 5c 61 be 67 51 5e 3e d5 9b e3 bc
       -0.18597545 -0.22007972 0.2171074 -0.027784267
000110 36 56 5e bf e4 63 33 3f 11 4f 83 bf b4 0a 9a bf
       -0.868503 0.70074296 -1.0258504 -1.2034516
000120 b7 af ec be 61 a0 c9 be 44 78 d6 be 82 74 90 be
       -0.4622781 -0.39380172 -0.4188863 -0.28213888
000130 34 17 d1 3e 0d 47 ba bd 35 99 cb 3c 72 db 19 3e
       0.40838015 -0.09095583 0.024853328 0.15025118
000140 fa c6 d6 3e 9c a4 0e 3e b9 55 62 be 20 52 95 3e
       0.41948682 0.13929981 -0.22103013 0.2916422
000150 13 bf c3 bf 57 bf 1a c0 bf 4c 09 bf 7c 23 87 3e
       -1.5292686 -2.4179285 -0.5363273 0.2639426
000160 ce ee 47 3f 6c 80 99 3d fe ef 98 3e b8 80 6c 3e
       0.7809876 0.07495198 0.298706 0.23095977
000170 02 d3 8f 3f da 35 50 3f 4e 75 e3 be 85 0b 37 3f
       1.123627 0.8133217 -0.44425434 0.7150195
000180 a8 68 be be 9e bf ad 3e 6c 49 59 3d 1d c8 00 be
       -0.3718922 0.33935255 0.053048536 -0.12576337
000190 68 f4 98 3f 6c 1b 3b 40 a6 80 37 bf 22 28 bb bf
       1.1949587 2.9235487 -0.71680677 -1.4621623
0001a0 21 2a 4a 3f 13 86 bd 3d d3 04 03 3f 88 1b 31 3c
       0.78970534 0.09254088 0.51179236 0.010809787
0001b0 df fb b5 bf e8 e8 f6 3e c0 66 e8 bf 2d 14 43 3f
       -1.421749 0.48224568 -1.8156357 0.7620266
0001c0 13 52 6b 3d 58 87 3b be c5 93 06 3f a5 5a 96 3f
       0.05745132 -0.18313348 0.5256923 1.1746413
0001d0 ce 24 15 bf 27 b8 34 be 19 4a 32 3d 51 7c 5a 3e
       -0.58259284 -0.17648374 0.043527696 0.21336485
0001e0 5c f5 75 3f b5 1d ab be 05 d5 4b 3e 3f 41 64 3f
       0.96077514 -0.33421102 0.19905479 0.8916206
0001f0 4f 14 94 3f b0 65 3f 3f 0c 9e 40 be 01 1e 32 bf
       1.1568698 0.7476454 -0.1881029 -0.6957703
000200 04 98 1b 3f c2 11 8c be 12 6b 1b bc 96 74 27 be
       0.6077883 -0.27357298 -0.009485977 -0.16353068
000210 2c 0e ea bf 38 0f 6a 3e 00 56 ff ba 8f a8 9b bf
       -1.8285575 0.22857368 -0.0019480586 -1.2160815
000220 83 59 02 bf 4e 60 af 3e bc 92 0e 3e 08 38 ee bd
       -0.50917834 0.34253162 0.13923162 -0.11631781
000230 31 13 97 3f 9a 6e 31 3f 52 04 09 bf 8a 35 0e be
       1.1802732 0.6930939 -0.5352222 -0.13887611
000240 0a 37 97 3e 94 a2 a5 3d 18 5a 39 bf 84 5f 6a 3e
       0.2953418 0.0808765 -0.724031 0.22887999
000250 8a 2e d2 bf 39 cf 23 3f 1c 0e 13 3f cf f7 22 3f
       -1.6420453 0.6398807 0.57443404 0.63659376
000260 c6 2b f5 3d 65 59 2e be 36 d1 29 be 6b 99 f6 3e
       0.1197124 -0.17026289 -0.16583714 0.48163924
000270 28 fd 63 be 6c 5c 85 bf 21 8c 29 3f fe d5 ce bf
       -0.2226454 -1.041883 0.66229445 -1.6159055
000280 43 e2 01 3f fe b4 e4 3e 7b 52 ac 3e 4a 0b 01 be
       0.50735873 0.44669336 0.33656678 -0.12601963
000290 1d d4 19 bf eb bc 82 3f 5d 25 a6 bf 3f 70 bf be
       -0.60089284 1.0213903 -1.2980152 -0.37390324
0002a0 95 db 2c 3e 99 e4 a0 3e c2 61 d3 bd 2a 90 02 3f
       0.16880639 0.31424406 -0.1032138 0.51001227
0002b0 d3 8e be 3f 32 02 4e 3f ed a3 65 bf 09 ed f6 be
       1.4887336 0.804721 -0.89703256 -0.48227718
0002c0 33 a2 9a be 17 47 3b be cc cd 25 bf 19 da 13 3f
       -0.30201873 -0.18288837 -0.64767146 0.57754666
0002d0 f0 79 13 bf b5 fa 87 3e ed 64 0d 3f 7c ae 33 bf
       -0.57607937 0.26558462 0.55232126 -0.7018812
0002e0 4d 98 68 bd 55 d2 4d bf e7 38 47 3f 71 99 d3 be
       -0.05678587 -0.80399066 0.778212 -0.41328004
0002f0 57 ae 6b bf 56 1d 83 bc 63 6c 30 bf 61 90 ef be
       -0.92062896 -0.0160052 -0.68915385 -0.4678984
000300 a9 5b 27 bf 56 bf 81 bd b3 4c b7 bd be 26 9b 3d
       -0.6537424 -0.063353226 -0.08950176 0.07575749
000310 bb 95 23 40 df 11 05 40 49 53 fa be 2f 11 05 3f
       2.5560138 2.0792158 -0.48891667 0.51979345
000320 38 b0 7e bf a3 f2 8a be 0c 83 ff be 18 dd 98 3f
       -0.9948764 -0.27138242 -0.49904668 1.1942472
000330 6c 18 00 bf 29 57 90 bc 40 7a 63 bf b9 bd 54 bf
       -0.50037265 -0.017619686 -0.88858414 -0.83101994
000340 9b 49 0d 3d f6 e9 13 be 2a 40 64 be 4e 0a a4 3e
       0.034494024 -0.14444718 -0.22290102 0.32039112
000350 16 c0 49 3e d4 93 40 3f 25 45 75 bf e0 b2 d0 bf
       0.19702181 0.7522557 -0.9580863 -1.6304588
000360 b9 d5 69 3e 9c 43 03 be 32 74 02 bd a5 52 70 3e
       0.22835435 -0.1281876 -0.031849094 0.23469026
000370 6e e4 f6 be 00 f6 08 bf 52 86 3f be 16 c8 71 be
       -0.48221153 -0.53500366 -0.18703583 -0.23611483
000380 41 f3 f6 3d 67 4a 08 bf 7b 01 30 bf 0e bd 3b 3f
       0.12058116 -0.5323853 -0.6875226 0.7333535
000390 d3 a7 db 3e b8 ca 13 be 8a 6c 13 3d 17 be 60 be
       0.42901477 -0.144328 0.035992183 -0.21947514
0003a0 be 96 85 3e 8f ce e4 3e 60 ac 39 3e 33 7a 59 3e
       0.2609157 0.44688842 0.18132162 0.21238022
0003b0 9d 92 7c bf 14 34 c9 bd fb fb 5a 3f 09 ac 45 bd
       -0.98661214 -0.09824386 0.8554074 -0.04825977
0003c0 4f cb 34 3e b5 d3 10 bf ce b8 2f bf 02 1f 54 3f
       0.17655681 -0.5657304 -0.68641365 0.82859814
0003d0 1a 41 6c bf 3e 65 d3 be 03 a8 87 bd e7 9e 3f 3f
       -0.9228684 -0.4128818 -0.066238426 0.7485184
0003e0 af 4e 9f bd c2 65 b7 3e 19 4e 14 3e dd f6 b6 3d
       -0.077786796 0.35819823 0.14482917 0.08933804
0003f0 95 9b 56 3f 35 bd 16 bf a4 b2 ab 3f a0 05 bd bf
       0.8383115 -0.58882457 1.3413892 -1.4767342

net.0.bias f4 [256]
000000 56 b2 0e bf 88 9f c9 3e 3d 92 0b bf d3 f0 a6 3e
       -0.5574087 0.39379525 -0.54520017 0.3260561
000010 be 19 66 bd 23 aa ef 3d d6 c7 0c 3e 91 3d e4 3e
       -0.056176893 0.11702373 0.13748106 0.4457822
000020 cd 23 af 3e d0 c8 b7 3e 48 92 af 3d 0e 7c a5 bd
       0.34207 0.35895395 0.08572823 -0.08080302
000030 ef 9d c7 be cd b5 a8 be de 84 84 3e 0f 37 9a be
       -0.3898768 -0.32951203 0.2588262 -0.3012013
000040 3e af d7 3d 54 b8 01 bf 81 67 ff be 7b 44 34 3e
       0.10531472 -0.5067189 -0.49883655 0.17604248
000050 04 27 5e bf 5f f1 5a be 9d 58 65 bc e8 0b be 3e
       -0.86778283 -0.21381138 -0.013998178 0.3711846
000060 e8 d7 f1 bc b2 b9 2e bf 67 dc 3f 3e df 13 7d 3e
       -0.029521897 -0.682521 0.1873642 0.24714611
000070 a4 df c7 3e 0f b4 3b bf 75 74 a0 3e 56 11 f7 be
       0.39037812 -0.7332162 0.3133885 -0.48255414
000080 51 21 b5 bc 99 fa 39 bf 56 ea c2 be 86 a7 33 bf
       -0.022110613 -0.72648007 -0.3806941 -0.70177495
000090 25 a3 af be 39 16 6c 3d be e8 21 3e 5a de 0d 3e
       -0.34304157 0.05763838 0.1581144 0.13854352
0000a0 39 2c d2 3d fd a7 a2 3d e2 9f 11 bf 45 2a c2 be
       0.10262341 0.079421975 -0.56884587 -0.37922874
0000b0 cd 8d 53 3e df 92 55 be 2a 0a 2b bf 25 ca 0c bf
       0.20659561 -0.20856808 -0.66812384 -0.5499595
0000c0 d9 a1 0a bf 1a d6 03 3d 85 04 e6 be 3e ce ce 3d
       -0.5415321 0.032186605 -0.44925323 0.10097931
0000d0 c5 b4 8d bf 98 2a 11 3e e1 4e 2a be 3d c5 6c be
       -1.1070791 0.14176404 -0.16631652 -0.23122115
0000e0 2e f6 dd be 00 db 41 be 61 aa 8a be 87 77 30 bf
       -0.43351883 -0.18931198 -0.27083114 -0.68932384
0000f0 2f e0 b5 3e 24 64 4b 3e ae 4b 76 3e b0 10 5e 3d
       0.355226 0.1986242 0.24052307 0.054215133
000100 8e 01 f7 be 66 3c 32 bf d1 00 1f 3d 73 82 af 3c
       -0.48243374 -0.6962341 0.038819138 0.021424508
000110 b4 54 29 bd 52 d9 29 be a2 66 1a 3d dc 6b 9e bd
       -0.041340545 -0.16586807 0.037695535 -0.07735416
000120 0d 04 33 3e be 2b 7a 3e e3 85 7d bf 65 1c c2 3e
       0.17482014 0.24430749 -0.9903242 0.37912288
000130 d8 92 2e bf 75 46 8f be 7f a0 69 bd 23 65 1a 3e
       -0.68192816 -0.27983442 -0.057037827 0.15077643
000140 54 6b 0f bf d8 d4 2e 3d 80 4f 9d 3e 6a 22 2c bf
       -0.56023145 0.042683452 0.30724716 -0.6724001
000150 1d 3b f1 be f5 31 c4 3d 57 64 a8 be bd fe 18 3f
       -0.47115412 0.09579841 -0.32889053 0.597637
000160 20 ba c9 3e 02 5b 85 be a8 ac cb be db cc 96 3e
       0.39399815 -0.26045996 -0.39780164 0.29453167
000170 2d 3e 09 bf 93 77 4c be 86 f7 a4 3e ff 56 39 be
       -0.536105 -0.19967489 0.32220095 -0.18099593
000180 25 84 39 bf f0 3f 4f be 5b af 83 3d d1 30 87 bd
       -0.7246726 -0.20239234 0.06429931 -0.06601108
000190 73 68 04 3f c4 56 04 be 66 71 0f bf 74 21 fc be
       0.51721877 -0.12923723 -0.5603241 -0.49244273
0001a0 c1 e6 99 3d ce c4 33 3d e7 f1 44 bf 87 a0 93 be
       0.07514716 0.04388886 -0.76931614 -0.2883341
0001b0 2a bd 71 bf 27 bf 54 bf d9 91 b4 3d bd 04 30 3e
       -0.94429266 -0.83104175 0.08816881 0.17189308
0001c0 06 a7 38 bf 9c 03 56 3d df eb 16 bd dd 5c dc be
       -0.7212986 0.052249536 -0.036846038 -0.430396
0001d0 d3 b1 ed be 1e 58 a6 3e 45 c1 e8 be 12 a3 e2 be
       -0.46424732 0.32489103 -0.45459953 -0.44265038
0001e0 54 a1 bf bd 05 77 ca 3e 27 f1 c4 be 49 9a b8 3e
       -0.09356943 0.3954393 -0.38465235 0.3605521
0001f0 15 f8 2c bf 26 e2 5e bf 31 af b3 bd 99 ef 0f 3e
       -0.67566043 -0.87063825 -0.087736495 0.14056243
000200 8f e9 c4 be b3 ec c4 3e e1 ca 4b be 37 f2 16 bf
       -0.3845944 0.38461837 -0.19901611 -0.5896334
000210 b7 b8 2d bf da 1f 46 3d d1 6c 95 3d 8d 94 3f be
       -0.6785998 0.04837022 0.07296146 -0.18709011
000220 ea 10 35 3f 39 d2 62 be af a5 17 bf 60 fc 43 bf
       0.70728934 -0.22150506 -0.5923719 -0.7655697
000230 a7 10 d7 3e f6 a7 2e bd b4 d6 b5 bd b4 92 26 3d
       0.42004892 -0.04264065 -0.08878842 0.04066725
000240 38 3d 0a 3e d4 50 bd 3e ff b7 bc 3d b2 d2 6b bf
       0.13499916 0.3697573 0.09214782 -0.9211837
000250 09 2a 73 bd cc c7 36 3f 4d 95 92 be f1 96 89 3e
       -0.05936626 0.71398616 -0.28629532 0.26872972
000260 37 6a 52 be f5 70 09 be 4d 38 51 3f 3e 1e fb bb
       -0.2054833 -0.13421996 0.81726533 -0.0076635173
000270 46 8d 9f be ad c4 78 be 0a 4a 5e 3e f6 23 7a bf
       -0.3116247 -0.24293776 0.21707931 -0.9771112
000280 15 ec 2a 3e a0 2e b7 be 2f 98 29 bf 50 9d 38 3d
       0.1669162 -0.3577776 -0.6624784 0.0450719
000290 a7 03 a6 bd e2 c0 8c be ae ec 06 be 8e b0 2a 3f
       -0.081061654 -0.27490908 -0.13176224 0.6667565
0002a0 85 e7 54 3c 16 89 9c bf c2 02 20 bf a3 16 63 3e
       0.012994652 -1.2229335 -0.6250421 0.22176604
0002b0 bf ee 38 be 10 01 ab 3e b0 bb e6 3d 52 eb eb be
       -0.18059824 0.33399248 0.11266267 -0.46077973
0002c0 05 e6 8c bc e1 8a ec 3d 07 9f 32 3e 19 cb 43 bf
       -0.017199526 0.115499265 0.17443477 -0.7648178
0002d0 9e 50 f9 3e 1a 10 b2 3e 26 e7 ec be ef ef 0d 3e
       0.4869432 0.3477791 -0.46270102 0.13861059
0002e0 22 6b f0 3e 04 f4 90 be d4 b6 1b bf 3f 01 92 3c
       0.46956736 -0.2831117 -0.6082585 0.01782286
0002f0 85 93 15 bf 4e 28 3e be 89 71 fa be e0 77 41 bf
       -0.5842822 -0.18570063 -0.48914745 -0.7557354
000300 a3 5b cc 3c b3 af c3 3d 85 c0 7a bf 79 25 13 be
       0.02494604 0.09554996 -0.9795001 -0.14369763
000310 c8 54 75 be e9 6c 8b be 0f c4 21 bf 6e 62 91 3e
       -0.23958123 -0.2723153 -0.63189787 0.28395408
000320 33 c8 40 bf 65 fd 5f be 33 e9 0f bf e8 f5 3e bf
       -0.7530548 -0.21874006 -0.5621521 -0.74593973
000330 36 dd 22 be 1a 5e b7 be da 5a 0a bf ab b7 5e 3d
       -0.15904698 -0.3581398 -0.5404488 0.05437438
000340 2c 83 ad be b6 9d 85 be 60 07 ee bd bf 16 8e 3e
       -0.3388914 -0.26096886 -0.116225004 0.2775173
000350 3a 20 40 be f4 6b 8c bf 8c f7 1a bf 50 a5 db 3e
       -0.18762293 -1.0970445 -0.60533977 0.4289956
000360 6d 98 9a be f6 71 14 be 28 06 12 bf ae 36 dd 3e
       -0.30194417 -0.14496598 -0.57040644 0.4320578
000370 94 94 6c be f3 b2 c4 be 76 de 2b bf 51 8c 74 be
       -0.23103553 -0.38417777 -0.67136323 -0.23881651
000380 44 cd e8 3e 20 94 4f be 62 6d 9c be 9e 7a 0b be
       0.45469105 -0.20271349 -0.30552202 -0.13620993
000390 0e 74 85 be 14 4a be be 05 9d f0 3a 8f 2a e7 3d
       -0.26065105 -0.37165892 0.0018357342 0.11287414
0003a0 df ea 54 bf 78 f0 89 bd 6c 53 e7 be 98 d3 1d be
       -0.83170885 -0.06735319 -0.45180833 -0.15412748
0003b0 cd 48 b6 bd da eb 88 3e bd af 01 3f 51 55 f7 bd
       -0.089006044 0.2674244 0.5065878 -0.1207682
0003c0 7a 86 cf be fc 29 b5 bd 10 2f 28 bf fc 3b 78 3e
       -0.40532285 -0.088458985 -0.6569681 0.24241632
0003d0 54 f4 0c 3e 5b da 4d bf a4 31 09 bf 80 94 88 be
       0.13765079 -0.8041131 -0.5359137 -0.26675797
0003e0 30 39 2c 3e ca 9f 5a 3e f3 62 a1 be f4 48 56 3f
       0.1681869 0.21350017 -0.31520805 0.8370507
0003f0 02 b2 06 3c ce 53 3b be e2 d6 bc be a6 a5 00 3f
       0.008221151 -0.18293688 -0.36882693 0.5025276

net.2.weight f4 [256, 256]
000000 02 66 0b bf 46 e4 eb be 38 2b 22 bf 1f 4a 7a bc
       -0.54452527 -0.46072596 -0.63347197 -0.015276461
000010 fe 0f 5e be e2 1f 08 3f c3 01 60 be 4c 11 fa 3d
       -0.21685788 0.5317365 -0.21875672 0.1221033
000020 f3 7b 90 bb 82 3a 8f 3c 46 59 13 bf 9c 0c d4 be
       -0.004409307 0.017483953 -0.57558095 -0.4141587
000030 35 48 2d 3e ef 5b e8 bf 85 b0 3e be 53 01 e5 be
       0.16922076 -1.8153056 -0.18622024 -0.44727573
000040 9f 42 2e 3f 57 f7 3a bf 53 36 08 3d 55 35 1f 3f
       0.68070406 -0.7303366 0.033254933 0.62190753
000050 60 f7 e7 3e 77 d3 4b be b2 91 8e bf b4 34 13 c0
       0.4530592 -0.19904886 -1.1138213 -2.3000917
000060 b4 93 90 3e 82 99 94 3e aa 33 45 3f 75 99 99 3e
       0.2823769 0.29023367 0.7703196 0.2999989
000070 3c 4d a9 3d b0 2e d1 3e a0 4b 1f be 70 4d 16 3f
       0.082666844 0.40855932 -0.15556192 0.5871191
000080 a6 3b 92 3e a9 10 9b 3e 55 e5 05 bf cd 96 53 3e
       0.28561133 0.30286148 -0.5230306 0.20662995
000090 8f 2a 81 be b9 e5 0f 3f ee 6b 70 bf b2 d7 35 3e
       -0.25227782 0.56209904 -0.9391469 0.17758062
0000a0 80 5f 00 be 3f ab c7 be cd 5a 17 be 02 bb 13 bf
       -0.1253643 -0.38997838 -0.14780731 -0.57707226
0000b0 39 48 e3 bf c4 3b 5b 3e 27 1e 88 be 5d a4 49 be
       -1.7756416 0.21409518 -0.26585504 -0.19691606
0000c0 94 af a3 be fb 62 c9 bd a7 24 98 3d 3b 33 9d 3d
       -0.31969893 -0.09833332 0.07428866 0.07675787
0000d0 23 49 cf be 16 b5 08 3b 59 69 c7 be 7c 11 5b 3e
       -0.40485486 0.0020859889 -0.3894756 0.21393389
0000e0 66 3d 38 3f a3 4b 8a bf 68 3e 83 3f 0d 55 cf be
       0.71968687 -1.0804332 1.025342 -0.40494576
0000f0 e4 34 df be d9 5c c5 be ca 98 14 3f 10 9f 49 bc
       -0.4359504 -0.385474 0.5804564 -0.01230599
000100 60 c2 28 be ac 7d 34 3e a4 f5 35 3e 8b b7 79 be
       -0.16480398 0.17626065 0.17769486 -0.24386422
000110 8d 58 9e 3e 9a 9d e0 3d 51 6d 04 bf 96 ea cd bc
       0.30926934 0.1096756 -0.51729304 -0.025136273
000120 7e fa c9 3e 9f ba 63 3e 64 d3 bc bf de b7 4c bd
       0.39448923 0.22239159 -1.4752011 -0.049980037
000130 35 a8 97 3d e0 80 4f bf 7f f0 9b bf f8 3b 90 3e
       0.0740513 -0.8105602 -1.2182769 0.28170753
000140 bc cb 41 be 07 fc 55 be c2 02 c9 3e 31 ff 4c be
       -0.18925375 -0.20896922 0.39259917 -0.20019223
000150 bc 5a b1 bf db 33 1e be c9 de c0 be e3 1c c5 be
       -1.3855815 -0.15449469 -0.37669972 -0.384986
000160 a5 c2 98 3e 2b ec ba bf 0d 28 9a 3e 0d be b9 be
       0.29836002 -1.4603323 0.3010868 -0.3627781
000170 24 92 ad 3a 74 ec b0 3e 4c f6 ac 3e 52 73 10 3f
       0.0013242406 0.345554 0.3378166 0.56425965
000180 f5 54 14 bf 59 07 0b bd 4a 9f 6d 3d 6c 73 af be
       -0.57942134 -0.033942554 0.058013238 -0.34267747
000190 f3 be 55 be 1d 46 87 bd 3b 3d 76 3e 7a 0e 6c bf
       -0.20873623 -0.0660517 0.24046795 -0.9220959
0001a0 bf 36 1b be b4 93 1c 3d 08 1f a4 be 92 2a be be
       -0.15157603 0.0382268 -0.32054925 -0.37141854
0001b0 f8 9c e2 3e 66 b1 cc bd 4f 15 e9 be 5b 7d 25 3e
       0.44260383 -0.099947736 -0.4552407 0.161611
0001c0 39 17 16 bd dc d9 60 3f 8d 06 0f 3e 2e ee b0 bc
       -0.03664324 0.8783243 0.13967343 -0.021597948
0001d0 d4 95 7b be 93 67 b7 be fa 9b d9 be 70 d3 0c bf
       -0.24568874 -0.35821208 -0.42501813 -0.5501013
0001e0 bb dd df bd f0 96 98 bb 36 60 15 3f 21 a4 46 be
       -0.109309636 -0.004656665 0.5834993 -0.19398548
0001f0 7e 22 6e bf 6d 55 ad bf 9f 76 7d 3e 48 13 85 3d
       -0.9302138 -1.3541695 0.24752282 0.06497818
000200 56 bd 1a 3f e1 29 0b 3e b4 5f 01 3f 52 85 27 c0
       0.60445154 0.13590194 0.50536656 -2.6175122
000210 0a f9 6b 3d 59 9f d6 3d 9d a5 b1 bd 99 2a 38 3f
       0.05761055 0.10479612 -0.08674166 0.7194
000220 08 37 03 bf 7f 2b 50 3f 1e 37 d6 3e 5a be 0f bf
       -0.51255846 0.8131637 0.41838926 -0.5614983
000230 a2 c9 81 3f dc 51 00 bf 4e 88 b8 bd 55 bc aa bf
       1.0139658 -0.5012491 -0.09010373 -1.3338724
000240 bf d7 17 c0 24 21 8b 3f 02 8f a3 3e 3a 85 fd 3e
       -2.372543 1.0869489 0.31945044 0.49515706
000250 09 2e 25 be 2a 8b 8f bf 19 2e d8 3e 94 27 57 3e
       -0.16130842 -1.1214345 0.4222267 0.21011192
000260 5e 10 05 c0 4a 5f 27 3e d5 87 74 be 58 91 a5 3e
       -2.079124 0.16344944 -0.23879941 0.3233745
000270 78 64 8d bd 70 73 71 3e 90 b2 8b 3e b1 8a e4 bd
       -0.069039285 0.23579192 0.2728467 -0.11159266
000280 57 e8 84 3d 32 5e 84 3e 71 3e 30 3e e3 66 46 3d
       0.06489628 0.25853115 0.1721132 0.048437964
000290 81 50 97 3e 4e 36 31 3d 66 e1 fc be 34 4b 24 bf
       0.29553607 0.04326468 -0.49390715 -0.6417725
0002a0 47 92 1d bf 9d f5 a7 bf 9f b8 42 bf dc 49 d5 3e
       -0.61551327 -1.312183 -0.7606296 0.41657913
0002b0 8f 00 45 3e 8e e3 e5 3d 77 dd c6 3e 32 37 a7 3c
       0.19238494 0.11225043 0.3884084 0.020412061
0002c0 41 d3 01 3f 12 95 95 3f 29 f2 87 3e ba 9c 81 bf
       0.5071297 1.1686118 0.2655194 -1.0125954
0002d0 1f fa 5f be 45 c2 e3 3e 0e e0 63 bf 7a 67 99 be
       -0.21872757 0.44484153 -0.89013755 -0.2996176
0002e0 d9 d4 43 3e 41 48 d0 bd 60 25 cc 3e 76 fb d5 3e
       0.19124164 -0.10170031 0.39872265 0.41793412
0002f0 69 db b1 bc 69 9c b6 3e 4e d6 a5 3e 2c f1 8e bf
       -0.021711068 0.35666206 0.32390064 -1.116735
000300 04 fb 0a 3e 35 4e 39 bd 87 15 d5 3e 46 71 82 3c
       0.13572317 -0.0452406 0.41617987 0.015923154
000310 a5 94 92 be 20 a6 e0 bb 87 a1 a3 3e d0 ef 80 be
       -0.28629032 -0.006855741 0.31959173 -0.25182962
000320 a6 b7 ca be 33 e0 43 3a 19 dc 98 be 7c 7b c1 3d
       -0.39593238 0.0007472068 -0.2985542 0.09447381
000330 74 5c fe 3e c7 22 8a bf 8c d7 9a 3e cf bb 5b be
       0.4967991 -1.0791863 0.30242574 -0.21458362
000340 ff 66 8b 3e c5 12 27 3f 01 25 83 3d 7b ad 31 be
       0.27227017 0.65263015 0.06403542 -0.17351334
000350 93 a2 fa 3e 1e c1 90 bf 8d f8 c6 bf b2 ef 2b bf
       0.4895216 -1.1308935 -1.5544602 -0.6716262
000360 3b 35 ae bf 8e 83 2b bf 4c 81 97 3e e0 f4 dd 3c
       -1.3609995 -0.6699761 0.29590833 0.027094305
000370 0e 65 62 bf 46 1d 0a bf cf c5 75 3e af 43 3c be
       -0.8843545 -0.5395092 0.24001239 -0.18385194
000380 3d 72 d0 be 3e 59 22 3e 13 04 8d bf 32 94 a4 be
       -0.40712157 0.15854356 -1.1016868 -0.32144314
000390 1d 5f d0 be 6c 1c 33 be dc 85 11 bf d6 49 28 3e
       -0.40697566 -0.17491311 -0.5684488 0.16434416
0003a0 1a 51 95 be d9 14 ad be 35 84 a9 be d3 12 94 3e
       -0.29163438 -0.33804968 -0.33108678 0.28920612
0003b0 de 46 b3 bf f6 d9 96 bd a2 a6 a0 be ee ff c6 3e
       -1.4006002 -0.073657915 -0.3137713 0.38867134
0003c0 80 cb b7 3d 81 02 25 3f 86 b9 5c 3f 4b 9a b9 be
       0.089743614 0.64456946 0.86220586 -0.3625053
0003d0 13 cb 95 bd 40 99 d3 bd 56 6c fc 3e ab 8a aa 3c
       -0.07314124 -0.103319645 0.49301404 0.020818075
0003e0 e9 c3 12 be 63 9b c8 3e 00 da 69 3e ac a8 08 3d
       -0.14332546 0.3918105 0.22837067 0.033363983
0003f0 3e fb ce be ae 41 15 bf af 2e 9f bc fb a5 84 3e
       -0.40426058 -0.58303344 -0.01943144 0.25907883

net.2.bias f4 [256]
000000 6a 9c 3f 3e 6c b6 06 3e 79 cf 93 bd 29 8a 9a be
       0.18712011 0.13155526 -0.07217307 -0.30183533
000010 2f 16 a7 3d bc 5e 13 3d c9 23 77 be 71 e5 8c 3d
       0.08158528 0.035979018 -0.24134745 0.068797
000020 c0 68 35 be 28 2b 54 bd 9c c9 eb be c1 d3 3e 3e
       -0.1771574 -0.05179897 -0.46052253 0.18635465
000030 a4 32 63 be 23 08 47 3b 99 da c7 bc 31 34 32 bf
       -0.22187287 0.003036984 -0.024396228 -0.6961089
000040 9e ee fe bd b1 1b 61 3b 1c ea 99 3e 35 41 aa be
       -0.12447856 0.003434878 0.30061424 -0.33252874
000050 17 98 6b 3e d2 cb 58 3c bd ff c9 be 5e ea 03 3e
       0.23007236 0.013232188 -0.39452925 0.12882373
000060 d8 af d1 bf 93 f1 27 be 00 28 74 3e ce a5 16 bf
       -1.6381788 -0.16400747 0.23843384 -0.5884675
000070 cc 71 63 be 0f 7d e1 3d 0c d2 ce 3d 0d 66 03 bd
       -0.22211379 0.11010181 0.10098657 -0.032079745
000080 7b 11 65 be ef 52 58 be 2a 8f 88 3d 0f d9 ec 3d
       -0.2236995 -0.21125387 0.066679314 0.11564838
000090 6f ce ab be 88 99 10 bf 91 db 2f be 90 9b 0c bf
       -0.33555934 -0.5648427 -0.17173602 -0.5492487
0000a0 f6 b6 11 3e 3a cf b4 3e ae a0 ee bc 15 69 c9 be
       0.1422995 0.3531435 -0.029129352 -0.39337984
0000b0 2d 93 1e bf f8 d2 ad be 1a 16 c0 be 62 45 6e 3d
       -0.6194332 -0.3395002 -0.37516862 0.058171637
0000c0 e6 69 97 3e d4 f3 96 bd 8d be 59 3e 1f 72 e0 3d
       0.29572982 -0.07370725 0.21264096 0.10959267
0000d0 d0 3d 26 be ff ff 1a 3e 74 4c c0 bd 11 9e 01 be
       -0.16234517 0.15136717 -0.09389582 -0.12657954
0000e0 bc 51 65 bc 98 95 47 be 0a 2f 6e be 61 cf f1 bd
       -0.013996538 -0.19490659 -0.23260131 -0.118071325
0000f0 7b a0 19 3d 77 3c bc 3e ae 18 36 bf a5 0a 11 bf
       0.03750656 0.3676488 -0.7113141 -0.5665687
000100 b5 c7 07 bd 3f 9c 8c be 5c 75 0d bd 74 0f 97 3b
       -0.03314944 -0.27462956 -0.03453575 0.0046099965
000110 9e a0 fb 3e ab 45 ad 3d b2 dd 9c 3e a3 22 33 3e
       0.4914598 0.08460554 0.3063789 0.17493682
000120 c9 6b b3 be fa 20 d7 bd ae 94 3a be f9 9e a3 3e
       -0.3504317 -0.10504337 -0.1822078 0.31957224
000130 db ea df bd 60 d1 2d 3e 1b b1 23 3e 5f 23 97 3e
       -0.10933467 0.16974401 0.15985529 0.29519174
000140 2e 2d e9 3d 6c f1 3d bd 5b 2d 52 be 9d 9b da bd
       0.113855705 -0.046372816 -0.20525114 -0.10674212
000150 bd f1 64 3c ea 7d 7f 3e a4 86 ee 3e 0b cd dd be
       0.0139736505 0.24950376 0.46587098 -0.43320498
000160 60 10 ae bc f8 b5 77 be a3 e7 6b bd c6 bd 5a bc
       -0.021248043 -0.2419051 -0.057593953 -0.01335091
000170 38 3f 09 be 59 b3 88 bd 74 c1 1b 3d 92 13 94 3e
       -0.13403022 -0.06674833 0.03802629 0.2892118
000180 66 fe 03 bf 30 4d 1d be f3 90 b6 3d d6 92 cb 3d
       -0.51560056 -0.15361476 0.089143656 0.09940116
000190 48 30 94 3e 17 56 1c be 99 a3 59 bd b0 d9 c0 bd
       0.28943086 -0.15267216 -0.053134535 -0.094165206
0001a0 e9 f5 6a bf 54 17 b3 3d 51 4d d4 3e ab c3 61 ba
       -0.9178148 0.08744684 0.41465238 -0.00086122256
0001b0 f3 3f 0d be 99 7f ef be 77 ab 73 3d af 87 24 bd
       -0.13793926 -0.46777037 0.059489693 -0.04016846
0001c0 de 13 36 bd 16 f1 c9 3b dc f7 a4 3c f2 19 c7 3d
       -0.04445254 0.006162773 0.02013772 0.097217456
0001d0 9c f8 83 be d2 81 84 3e 44 f6 0d bd 0c e9 e1 3e
       -0.2577561 0.25880295 -0.034658685 0.44123113
0001e0 4f a6 ee bd ac 89 10 3d 78 6e 74 3c 31 de 4f 3a
       -0.116528146 0.035287544 0.014918916 0.00079295324
0001f0 0d 8f c4 3d c3 9d c6 3d 1b 9c ab 3e 6b 8c 95 3d
       0.09597597 0.096980594 0.33517537 0.07302173
000200 26 25 fa be 34 ce 82 3d 95 1c c3 3d ec 50 0e bf
       -0.48856467 0.063869864 0.09526936 -0.55592227
000210 23 7e b6 3c f8 45 b1 bd 8e b3 9b 3e ad 07 63 be
       0.022276944 -0.086559236 0.30410427 -0.22170897
000220 76 be 19 bf b9 53 c8 3e bc 63 a0 be 17 44 bf bd
       -0.60056245 0.39126375 -0.3132609 -0.09339159
000230 d1 51 74 bd e4 51 1c 3e ca 44 19 be 26 77 0d be
       -0.05964834 0.15265614 -0.14967647 -0.13814983
000240 db aa cb 3b 96 2a 91 3c 81 7f 7a 3d 68 86 83 bd
       0.006215436 0.017720502 0.061156753 -0.0642212
000250 e2 3d 86 3e 76 5f 43 bd ac 1c cb be da c9 07 be
       0.26219088 -0.04769846 -0.39670312 -0.13260594
000260 c0 4e 61 be d7 29 fa 3c 5d 1e 3e bf 75 14 8a bd
       -0.22002697 0.030537529 -0.7426508 -0.06742183
000270 e1 df 28 3d b0 b3 14 3e cf 5f fe be 45 b8 34 bc
       0.041229133 0.1452167 -0.4968247 -0.011030261
000280 e0 e6 6e 3d f1 81 6e 3e 74 4e 41 bf 2e 9d 16 be
       0.05832565 0.23291756 -0.75510335 -0.14708397
000290 29 67 8d be 12 d0 4d be d8 ee dc bd 72 f4 e6 3d
       -0.27617767 -0.20098904 -0.10787743 0.11277093
0002a0 d4 67 9f 3d b6 61 12 3e 9a 16 80 be 4d 01 a2 be
       0.077834755 0.14295086 -0.25017244 -0.31641617
0002b0 86 21 7b 3e 27 5f 14 be fa 9a 2c 3d 6c 70 f8 3c
       0.24524507 -0.14489423 0.042139985 0.030327044
0002c0 29 17 3e bc 3c bf 95 bd ef 26 08 be 9b f3 0d bf
       -0.0116022015 -0.07311866 -0.13296102 -0.5544984
0002d0 f1 98 83 3d 3f 0a 2d be 85 53 4d be b9 b4 32 bd
       0.06425656 -0.1689844 -0.20051391 -0.04362938
0002e0 b2 8f 1b bf db 05 33 3e cd d5 6f 3e 47 12 97 be
       -0.60766137 0.17482702 0.23421402 -0.29506132
0002f0 a5 00 de be 5d 74 b2 3b 5b 57 99 bc ec 7f 25 bf
       -0.43359867 0.0054460005 -0.018718412 -0.6464832
000300 1d 87 f2 3b 7d 71 3f be 5b e1 1e 3e 3f f3 c3 3e
       0.0074013607 -0.18695636 0.15515654 0.3827152
000310 b5 2a f7 bd 52 92 a0 bd 1c c1 e5 3d 0f 61 a3 bd
       -0.120686926 -0.078404084 0.11218473 -0.07977497
000320 3a 66 ba 3d c8 61 80 3e 73 66 6c 3e d2 af f0 bd
       0.091015294 0.250746 0.23085956 -0.11752285
000330 75 69 89 be 70 1f b0 3e cf 3c 11 bf bb 7a 56 bf
       -0.2683827 0.34398985 -0.5673341 -0.8378102
000340 5b 3e 8b bd a8 e0 d9 be 9d 78 32 be 27 db a9 be
       -0.06799003 -0.42554212 -0.17428823 -0.33175012
000350 e0 e0 2c bd a7 8c 1f be 40 82 2d 3d e2 ff 5f bd
       -0.042206645 -0.15580998 0.042360544 -0.05468739
000360 7b 32 0f 3f ef 9d 7d 3e 3e 9e f6 3e b6 09 a3 3e
       0.559364 0.24767278 0.48167604 0.31843346
000370 7d a1 ce 3d 3f 2e 01 be 4f 0b 19 bc f6 26 ae 3c
       0.10089395 -0.12615298 -0.009341075 0.021258812
000380 fa 4a 2b 3e 30 2f c3 bd 47 a0 1b be a8 0f c0 be
       0.1672782 -0.09530485 -0.1519786 -0.37511945
000390 34 6c b6 3e 85 cc 6c 3d 42 70 94 3e 7c ce ba bc
       0.35629427 0.057812233 0.28991896 -0.022803538
0003a0 59 71 6e be d5 d5 1d be 32 bf 9e bb 11 86 76 3e
       -0.23285426 -0.15413602 -0.0048445696 0.2407458
0003b0 dd 29 05 bd 57 48 87 bd 37 60 cd be 9c 3c b7 3e
       -0.032510627 -0.066055946 -0.4011247 0.3578843
0003c0 ba ce e8 3d 42 c0 97 be b2 0c 26 3e 2b 87 df 3d
       0.11367555 -0.2963887 0.1621578 0.10914453
0003d0 de ef fd 3c 44 bd 8a be ac e3 52 be 6f c7 ca 3e
       0.030998167 -0.27097523 -0.20594662 0.3960528
0003e0 63 ca de bd 91 d7 ec bd 12 56 69 bd b5 cf 34 bd
       -0.10878446 -0.115645535 -0.05696685 -0.044143397
0003f0 9c 5e bf bd 02 db b9 3e 0f 8a 4a 3d 61 7d 3d be
       -0.09344217 0.36299902 0.04944807 -0.1850486

net.4.weight f4 [2, 256]
000000 4b 6c 64 c0 c3 d9 13 3f ff 7b 1f 40 10 47 da 3f
       -3.5691097 0.57754153 2.4919431 1.7052937
000010 95 d4 44 be eb 92 42 bf 23 41 bc be 90 44 98 bf
       -0.19221719 -0.7600543 -0.36768445 -1.1895924
000020 3b 58 0e 3e e6 22 49 3b 14 de 3c c0 e8 b9 50 bf
       0.13900845 0.0030690967 -2.9510546 -0.8153367
000030 4e 8b 2a c0 2e 7c 58 3e 29 2e 17 c0 25 55 cf bf
       -2.6647525 0.21141121 -2.3621924 -1.6197859
000040 e9 86 22 c0 7c 74 3e bc 79 6b fc 3f 16 a9 cc bf
       -2.5394843 -0.011624452 1.9720298 -1.5989101
000050 4e df 2f be 3e e9 37 3e 10 f9 22 40 b4 d7 67 c0
       -0.17175028 0.17960069 2.5464516 -3.6225405
000060 1f 24 73 c0 24 fe 21 40 cc 32 d0 3e 6b 23 19 40
       -3.7990797 2.5311365 0.40663755 2.3927867
000070 33 5e bf bf d6 47 99 bf 3d 54 a7 bd 67 d4 c4 be
       -1.4950622 -1.1975048 -0.08170364 -0.384433
000080 c2 29 29 c0 bc cc 43 40 48 44 d0 bf a7 1e 0b 40
       -2.6431737 3.059371 -1.6270838 2.1737459
000090 3b a0 d3 3f c2 d7 97 bf 6c 9d 80 bf 17 72 97 40
       1.6533273 -1.1862719 -1.0048041 4.732677
0000a0 0a bb 28 3f 43 f7 b9 bf 2f 99 c1 bc b2 e0 74 bf
       0.659104 -1.4528583 -0.023632614 -0.9565536
0000b0 27 5f a2 3f 21 04 94 3f 62 76 bf bf fa 9e 0f 40
       1.2685288 1.156376 -1.4958003 2.2440782
0000c0 1f 42 9c 40 ba 92 28 c0 ee 14 78 3d 7f 04 cc bf
       4.8830714 -2.6339555 0.060566835 -1.5938872
0000d0 74 57 cf be 04 d1 01 40 e4 27 65 bf 49 19 83 3f
       -0.4049641 2.0283823 -0.89513993 1.0242091
0000e0 51 f5 f3 3d 3e 09 2f 3c 0b df 8f bf 7d 9b 73 3f
       0.11912025 0.010683356 -1.1239942 0.9515913
0000f0 40 38 7b 40 5b 88 86 bf ae f2 03 c0 d9 c5 75 3f
       3.9253082 -1.0510362 -2.061687 0.96005017
000100 90 f1 52 3f d8 ef 8f bf 0d 8f 99 bc 06 74 fe 3f
       0.82399845 -1.124507 -0.01874497 1.9879158
000110 03 cf ad bf 18 ec 05 40 2f 27 2c 40 24 ba 95 3e
       -1.35788 2.092535 2.6898916 0.29243577
000120 1e db 90 be 16 5e 1a 40 bc ad 9a 3f a2 30 41 40
       -0.28292173 2.4119925 1.208427 3.0185933
000130 b2 22 05 40 4c 0d c6 bf ee ba e4 be 8e 9e 10 c0
       2.0802426 -1.5472808 -0.44673866 -2.2596774
000140 c4 a4 1b c0 66 0d 4f c0 17 46 49 40 57 01 e8 3f
       -2.4319315 -3.2351928 3.144903 1.8125409
000150 09 8b 29 3f 8e 11 09 c0 07 e4 87 bf e6 a4 8a 3f
       0.66227776 -2.1416965 -1.0616463 1.0831573
000160 b3 a7 02 40 3a c5 7f 3d e3 12 47 c0 c6 84 55 bc
       2.0414855 0.06244395 -3.1105278 -0.013032144
000170 fd ec 6d bc 36 d5 96 be 0a a0 1b bf 37 ec 48 c0
       -0.014521834 -0.29459542 -0.60791075 -3.1394174
000180 49 d3 3f 3f f2 44 44 3f 21 f8 d0 bf 5a c1 4e c0
       0.7493177 0.766677 -1.6325723 -3.2305512
000190 75 75 47 bf 3c cf 20 40 f8 27 a5 bf 28 04 38 c0
       -0.779136 2.5126486 -1.2902822 -2.8752537
0001a0 d5 c4 06 40 9d 6a 5e 40 56 6f 16 bf fb f6 16 bd
       2.1057637 3.4752572 -0.58763635 -0.036856633
0001b0 9f 98 51 c0 37 4b 7a 3f 0d 8d 96 3f f2 aa 15 3d
       -3.2749403 0.9777102 1.1761795 0.03653998
0001c0 af a2 4f c0 b4 6e 02 bf 4a 62 36 bf 75 67 a8 bf
       -3.2443044 -0.5095017 -0.7124373 -1.3156573
0001d0 ac 90 e8 bf b1 f9 2d c0 b2 f7 9f 3c 31 36 c3 3e
       -1.816915 -2.718365 0.01952729 0.38127282
0001e0 a7 ee 51 bf ed 09 e9 bc 65 c2 94 c0 66 17 06 3f
       -0.8200478 -0.028447116 -4.64873 0.52379453
0001f0 60 79 ab 3e 3e 44 5b be 0d ec 09 40 c4 91 42 c0
       0.3349104 -0.21412751 2.1550324 -3.0401468
000200 1f 48 ee bf 45 e3 49 40 fb 4b d5 bd 08 c7 75 40
       -1.861576 3.1544964 -0.10414883 3.840273
000210 d8 8c 48 3f 6e 6d 02 40 7a 06 35 40 66 73 bc 3f
       0.7833991 2.037929 2.8285203 1.4722717
000220 e9 66 22 bf 1e 46 21 c0 d1 8e 28 40 4e cd e9 3e
       -0.6343828 -2.5199046 2.6337168 0.45664448
000230 73 7d 9f 3f 07 9d 71 bd 60 50 42 3f 65 b4 99 3f
       1.2460159 -0.058987644 0.7590389 1.2008177
000240 f2 68 a5 3f ae dd 40 3d 5d de d6 3e 51 a1 c7 3d
       1.2922652 0.04708641 0.41966525 0.097475655
000250 0d 2d 01 3f f3 76 f7 3f 3e 65 12 40 ef a0 e1 3e
       0.5045937 1.9333175 2.2874293 0.44068095
000260 20 8e 04 40 87 31 42 bd 09 e1 57 bf 38 b9 de 3e
       2.0711746 -0.047410514 -0.8432775 0.43500686
000270 2c 43 aa bf fe ad 90 3e 59 f3 9f 3f 21 bc df 3d
       -1.3301749 0.28257746 1.2496139 0.109245546
000280 2d 67 6e bf 6a 9a 34 bf 09 2a 14 40 25 3e 46 40
       -0.93126184 -0.7054812 2.3150656 3.097543
000290 0b 61 cd bf bf bb 8c c0 dc 0c 93 3e d0 a9 ab be
       -1.604524 -4.397918 0.28720748 -0.33527994
0002a0 b7 7d e0 bf dc 73 be bf d9 44 79 bf 74 5c 1e bf
       -1.7538365 -1.4879107 -0.9737068 -0.6185982
0002b0 eb c5 ed bd 0c 4a bc 3f ff e0 88 3f 59 78 79 c0
       -0.116100155 1.4710097 1.0693663 -3.8979704
0002c0 9f d3 6e 3f 36 a3 f3 bf 06 12 b5 bf 82 de 9a 3f
       0.9329166 -1.9034183 -1.4146125 1.2099154
0002d0 de 89 0b 3e 30 5c 8c 40 ba 2d 4a 3f 42 cd 1a c0
       0.13626811 4.3862534 0.78976023 -2.418778
0002e0 5e e1 9c 3f 22 7f 5c bf a3 69 8d 40 3b 0b df 3f
       1.2256277 -0.8613149 4.419145 1.7425302
0002f0 94 f9 1a 40 30 91 2e 40 c3 12 1f bf ba dc cb 3f
       2.421483 2.7276115 -0.62138003 1.5926735
000300 c9 78 b9 3d bf 6c 91 bf 85 43 67 3f e1 80 84 bf
       0.09056241 -1.1361312 0.903374 -1.0351831
000310 5f 66 fc 3e 8a f2 a3 bf 80 e7 ae be 2a 88 ca be
       0.49296853 -1.2808392 -0.34160995 -0.3955701
000320 d2 62 20 3f 50 61 f8 bf 82 15 91 3e 42 7a 4a 3f
       0.6265079 -1.9404697 0.28336722 0.790928
000330 92 77 8e be b9 fa 10 3e a8 1d 51 3f 55 24 79 3f
       -0.278256 0.14158143 0.81685877 0.97321063
000340 9a 77 07 40 69 c4 3a 3f ca a1 83 40 fe 76 26 40
       2.116675 0.7295595 4.1134996 2.6010127
000350 1d 79 d5 bf 4b ac 66 c0 29 43 b0 be f3 3a d4 40
       -1.6677586 -3.604266 -0.3442624 6.632196
000360 70 01 87 c0 e3 94 d9 be 53 63 fa bf 4f fb f8 bc
       -4.2189255 -0.42496404 -1.9561561 -0.03039327
000370 4e 63 a2 3d af c0 ef 3f c3 fd 04 40 a8 36 54 40
       0.07929097 1.8730677 2.0779884 3.315836
000380 e7 7a 86 bf 1f c3 34 3f 99 98 20 3e da 43 f7 bf
       -1.0506257 0.7061023 0.15683211 -1.9317582
000390 fb 87 98 3e 81 eb 93 be f4 7f 01 bf e8 f0 08 c0
       0.29791245 -0.28890613 -0.50585866 -2.1397038
0003a0 2f e5 39 c0 91 c1 78 3d 82 99 14 3c f4 fb 0b bf
       -2.9046133 0.060731474 0.009069802 -0.54681325
0003b0 c2 3d 2d bf d7 67 fe bf c4 3b 63 3f 5f 4f 20 be
       -0.6767236 -1.987544 0.8876307 -0.15655278
0003c0 72 68 3d be e5 b6 6c c0 1d 20 05 3e 3e a9 b1 3e
       -0.18496874 -3.698663 0.13000531 0.34699434
0003d0 db 53 b6 40 fa cc eb 3f d4 42 3a 3f 05 8e d9 3c
       5.6977363 1.8421929 0.7275822 0.026556978
0003e0 7e 2d 9f bf b6 7f a4 3f 5a 6b 97 3e 72 fa 0b 3c
       -1.2435758 1.2851474 0.2957409 0.0085435975
0003f0 53 4c c9 3c 7d c9 0e bf b5 28 3d 40 62 94 dd 3e
       0.024572527 -0.55776197 2.9556096 0.4327727

net.4.bias f4 [2]
000000 c9 74 88 be 80 4b 3e bd
       -0.266516 -0.04645872
