manually_saved_runs/naive_ddpg_2/target_critic.pt (torch, 277831 bytes, 5 tensors)

net.0.weight f4 [256, 10]
00000000: 87c8 a0bd 085f 9a3e e468 f83c d92d a1bc
00000010: e1a8 90bf 6f9b 563e 6baa a0bf 9b96 b33e
00000020: 2185 863b 18df 7dbc 4651 d3bf 7dc0 473d
00000030: 4694 633e 09e4 6f3c db16 073f c281 8a3f
00000040: 3c13 d63e 0777 f03e f2fe 83bb 909f cabc
00000050: 4cad b03f 2d36 b83e 1f72 953f fd16 33bf
00000060: 865f 01bf 0477 b73d ae97 94bd 9524 d4bd
00000070: 2a14 5cbc 5e5b b3ba bb86 4d3e 0a6f d33e
00000080: 2f54 583f b2c2 94be 7a41 96bf 1a90 2b3f
00000090: 6501 ea3d 1325 9bbc 9b3a d73b 293f 9bbc
000000a0: 0f75 13be 9ae6 85be 0182 d8bb 00e5 d4bd
000000b0: d3b8 76bf 20cf 9b3e 08b5 38bf 024e 11bf
000000c0: d544 ba3a 1b69 92bb c80d 5bbe 0f37 edbd
000000d0: e613 5dbe 5b97 6abe ba18 e9be be9d 053f
000000e0: 9a95 94bf fa5c 9bbe 3edc 58bc 3971 653a
000000f0: 919f 633f c6f2 fbbd 17c9 6b3e 3b70 2c3d
00000100: aa00 5a3e 910f 773d 34ce 1c3e c734 ce3c
00000110: ad5e bdb9 e0fd b13b d712 07bf 160a 88be
00000120: e0f0 19bf 7d5c e03f d935 37bf a917 47bc
00000130: 1742 2d3e 4594 9b3e 4f12 453d 4c53 7dbd
00000140: cee7 193f 199b 563c 9527 713f 57a3 6cbf
00000150: 5968 9b3e b202 d3be bbc5 91bb 191a f5bd
00000160: e743 cc39 bd36 913b 8743 afbe 4b8b 51be
00000170: caa4 24bf d7e6 e8bd b569 5fbd c316 3cbe
00000180: f63a 0d3d b92a d8bd 6783 113c 9b2c f53b
00000190: 8be5 543f b278 303f c3ac b33e 8a49 fc3c
000001a0: f6af fb3b a837 c0be bdc4 4dbe debd c23f
000001b0: 810e 4abb 7365 50bd 2d9a b9be bbc5 ad3e
000001c0: d7fd 49be 09da 6fbf d6ee 4a3f 2ef4 c4be
000001d0: 25e5 e63d 0acd dabd d88c aa3c f28c 0bbd
000001e0: fbee 2ebe 76b3 7a3e 5b3d c53e 3d7c 803c
000001f0: ddbf 823f 3479 a5be 1b08 0f3f bd3e 0cbe
00000200: 1b1d fb3c f7fa adbd 0199 5cbd 006b 493c
00000210: 20b5 0c3e 6f65 08be b20a 84bf 5203 18be
00000220: 30dd 91bf 4855 5dbf 9f13 e3bc 4d8c 8abc
00000230: 2696 87bf dc9f bbbd e9f7 173e 53ee f6ba
00000240: 9bb7 493e 48f0 f03e db7a 20bf 2151 063f
00000250: 5645 a4bb 6a06 2abc dccf f93e 1cce 333e
00000260: f625 563f 85d3 253f e2df 4abf adfe 47be
00000270: f647 8dbd 6406 8abd e2a8 a23c 729e 093c
00000280: 2262 b6bc 19a9 a03e 49c9 71be e247 fc3e
00000290: 2fd7 10be 2e16 80be de61 223d dd78 233d
000002a0: 6a10 d83d 668c 183e b325 87be b4aa 633d
000002b0: f45c 44be 7694 6b3e a813 bdbe dbcd 903f
000002c0: efbc 753e f7bc 00c0 21f5 453d 71c7 bdbc
000002d0: 2eec 86bd 6097 623c 6719 32be c2ab ffb9
000002e0: b0f6 1f3f 4fd8 1440 e9ab 89bf cb57 c8bd
000002f0: 045c 0fbb 477d 213c 9047 f43d 2a6b 533e
00000300: 8866 0ebe d0d8 cfbe 878c 37bf 6d37 1b3f
00000310: 3bec 16bf e0a7 ba3e 9033 0cbc 64e8 07bc
00000320: e1d0 debc 66d9 f23d a5a8 c6be 7a15 ce3c
00000330: e05b 02c0 c6b0 e0bf 115f 9a3e 9c3f d13f
00000340: 8d50 0f3b dac7 b33c 7ed4 18bf d3a3 793e
00000350: 634e 813f 0e5a 13bd a7eb 533e ee81 7b3f
00000360: f4d2 17bc aa48 26bf 1384 37ba 4dc3 39bd
00000370: 8547 67be 750b d73e f7e8 d8be 2eee 753e
00000380: ccff 9a3f 8b28 be3e b52f 643d 67f5 a63d
00000390: 5fa6 ec3c 39b0 44bc 2c53 5b3d 6a52 7bbd
000003a0: fa49 463d d25e afbe 0616 a7be b964 9b3e
000003b0: cdb5 333f 8c9d 37bf 908b b03c 905a 7d3b
000003c0: 74db 0d3d 873e 213f 8018 0dbf 4fdd d93f
000003d0: d0a7 6f3e cd48 e73d da6a 12bd bed3 47bd
000003e0: 8c16 283d 045d 58ba 8b0f 0d3f 489b 73be
000003f0: db92 1b3f be58 853f 72e2 98be f255 4abe
-0.078507476 0.30150628 0.030323453 -0.019675182 -1.1301538 0.2095773 -1.2552007 0.3507584
0.0041052257 -0.015495084 -1.6509178 0.048767556 0.2222453 0.01464177 0.5276925 1.0820849
0.4181155 0.4696581 -0.0040281946 -0.024734288 1.3802886 0.35978833 1.1675452 -0.6995695
-0.5053638 0.08958247 -0.07255493 -0.1035854 -0.013432542 -0.0013683846 0.20070927 0.41295654
0.84503454 -0.2905479 -1.1738732 0.67016757 0.11426047 -0.018938577 0.0065682656 -0.018951016
-0.14400123 -0.26152498 -0.0066072945 -0.10395241 -0.9637577 0.3043146 -0.7215123 -0.56759655
0.0014211187 -0.004468096 -0.21391976 -0.11582767 -0.21589622 -0.229093 -0.45526677 0.5219382
-1.1608155 -0.30344373 -0.013236104 0.0008752528 0.88915354 -0.12302165 0.23025928 0.04209922
0.21289316 0.06031758 0.15313035 0.02517165 -0.00036119428 0.0054318756 -0.5276312 -0.26570195
-0.6013317 1.7528225 -0.7156654 -0.012151637 0.16919743 0.30386558 0.048113164 -0.061847016
0.6011933 0.013098502 0.9420102 -0.92436737 0.30353048 -0.41212994 -0.00444862 -0.11967868
0.00038960503 0.004431574 -0.34231207 -0.20463292 -0.6431395 -0.11372154 -0.05454417 -0.18368058
0.034480058 -0.10555024 0.008881426 0.007482124 0.83162755 0.68934166 0.35092744 0.030796785
0.0076808883 -0.37542462 -0.20094581 1.5214193 -0.00308314 -0.050878 -0.3625044 0.3393992
-0.19725738 -0.9369207 0.79270685 -0.38467544 0.112741746 -0.10683639 0.020819113 -0.034069963
-0.17083351 0.24482521 0.38523373 0.015684241 1.0214802 -0.32319033 0.5587174 -0.13695808
0.030653527 -0.08495133 -0.053856853 0.012293577 0.13740969 -0.13319944 -1.0315764 -0.14845017
-1.1395626 -0.86458254 -0.027719317 -0.016912604 -1.0592697 -0.0916135 0.14840664 -0.0018839337
0.19698946 0.4705832 -0.6268746 0.5246754 -0.0050131483 -0.010377506 0.48791397 0.17559093
0.83651674 0.6477588 -0.7924787 -0.19530745 -0.06898491 -0.067395 0.01985592 0.008399593
-0.02226359 0.3137901 -0.2361194 0.49273592 -0.14144586 -0.25016922 0.039644115 0.039910186
0.10550006 0.14897308 -0.2639595 0.055582717 -0.19176084 0.23005852 -0.3692906 1.1312822
0.23997854 -2.0115335 0.048329476 -0.02316639 -0.065880165 0.013830036 -0.17392503 -0.0004876536
0.6248579 2.3257024 -1.0755588 -0.0978237 -0.0021874914 0.009856529 0.11927712 0.20646349
-0.139063 -0.40595102 -0.716988 0.6063145 -0.5895421 0.36456203 -0.008557215 -0.008295152
-0.02719921 0.11857872 -0.3880054 0.025156725 -2.0368576 -1.7553947 0.30150655 1.6347537
0.002186808 0.021945883 -0.5969924 0.243789 1.0102047 -0.035974555 0.20695363 0.9824513
-0.009266604 -0.64954627 -0.00070005766 -0.04535227 -0.22585876 0.4200093 -0.42365238 0.2401664
1.2109313 0.37140307 0.05570956 0.081522755 0.028887926 -0.012004905 0.053546116 -0.061357893
0.048410393 -0.3425203 -0.3263399 0.30350283 0.7019928 -0.7172477 0.021550924 0.0038658716
0.034633115 0.62986034 -0.5511551 1.7020663 0.23403859 0.112931825 -0.035746433 -0.048785917
0.041037127 -0.00082536065 0.5510184 -0.23789704 0.6077096 1.0417707 -0.29860264 -0.19759348

net.0.bias f4 [256]
00000000: 3bc9 d8be d365 90bd bea6 f8bd 9a5c aabe
00000010: bb4d f23e 535b 653e 9604 503e e81e 06bd
00000020: d33f 5a3f 643a a43e 76e9 66be 0443 1ebf
00000030: a45b 26bd 58d9 cc3e 55f5 043e 2aca a0bd
00000040: 3a13 fa3e 03d0 8e3e e64b f7bd 0d03 4bbe
00000050: 7d10 2dbe 6ec6 38be 9a98 8cbf 3501 a23e
00000060: e36b 4e3e b5e9 cbbd 3448 54bd a2ac 533f
00000070: e475 023e c25d 4dbf 2b36 83bf 1c4c 803e
00000080: c26c c13d f1fd 69bf b160 0a3e 555c 893f
00000090: bed5 023f 0c72 fabe a9d5 993d ca8f 363f
000000a0: 8210 f83e d150 093e 1a57 973e 614f 09be
000000b0: 8df7 f0be 2884 173f 1650 9b3e 254a 673f
000000c0: feb7 48bb aa27 dd3f 8393 043e e105 963e
000000d0: 2640 443e f5c8 513e 9198 f63e c1d5 fdbe
000000e0: 4b0a b83e a142 adbe a9bb dfbe a330 e1be
000000f0: 871e 41bf 0712 ac3c 45e6 413e bb92 62bf
00000100: 9a27 023d b044 973b 0e1d 37bf 9f75 ff3e
00000110: 898c de3d 011c b3be 79f5 c63d f136 1dbf
00000120: a57d 153f c52d 923e eb26 8abf 5fcb bdbd
00000130: 3ec6 cebd 6a5f 433e 927f 823e ea11 08bd
00000140: 5407 aa3e 9fc7 d53e f18a 083f 66ce 30bf
00000150: 3aa3 95bf 4a4d c43e 9ffe d23e 0710 383e
00000160: 9fd8 b73f 694a cc3d b3b6 f6be 492f 243f
00000170: 529a 84bf 37c3 bc3d 81ed a33e 7f82 2c3e
00000180: d307 a83e 62d4 fa3e c157 e43d c063 35bd
00000190: 7b91 0d3f 8e34 6abf bdd6 f8bc 2555 a0be
000001a0: 1f92 a03d e4c3 3ebf fee8 6e3e c431 a43d
000001b0: 5ef2 323f ec35 863e 917e a8be 35fb 173f
000001c0: 0bfb 1d3e c2fc 863e da7f 093f 7dcb b63e
000001d0: 1870 323f f934 e53c 2a5f 4cbe f7dc 953e
000001e0: 8557 783e c7cb da3e c3ab 063f 3bbe 04bf
000001f0: 94a2 b7be 70b6 6ebe beea 073f dd9b a6bd
00000200: 8d79 c43e 2036 c3bc 1b40 41bf 9afe 613f
00000210: 8fc5 acbe 24a3 fd3e 0e6c 973f b369 b63d
00000220: 5fcd 85bf 88d2 563e 119e 3fbf 1396 e83c
00000230: 5286 86bd 0ece 98bf 5aac 82be fa22 133f
00000240: d3f1 913e 7f20 fbbe 1473 a23e a55f bb3e
00000250: 2055 54bf 1771 38bc 5558 af3e 5353 6fbf
00000260: b004 073f c5a0 b6be 3e1a d03d 2185 e23e
00000270: 6b6d 7e3e 1492 ccbf 4971 9fbe bba2 103f
00000280: 48c5 583e d09d 5f3f 0a0e 4dbf 5919 fa3e
00000290: f29b c43e 6ca2 dc3d 9fa3 09be 8c2f 0c3f
000002a0: 6592 9ebe e381 22bf 57df 293f ae8f c93e
000002b0: 287c 8f3f d14b 6dbf e90f 013d a1dd 06bc
000002c0: 6217 ecbe baa7 26bd ba49 9b3d 06ab 103e
000002d0: d06e cbbe 0f34 75bf 3422 b33d 627d 013e
000002e0: 8d40 b7be 5f5c 1e3f 69d9 88bf 5a6a 6e3e
000002f0: 0d09 fbbd 7a73 9abd 64ea 2d3e f1cc febc
00000300: 09f9 a93e 712a 063e c3d0 f33e 2f70 b4be
00000310: acb0 e7be 8fa4 e13e 57c0 803d c718 ab3e
00000320: 8d8b 18bf 3dcc c23f 9764 7f3e 8192 853f
00000330: a45c 74be 02bb 0a3f 6893 2d3f 0936 a83e
00000340: 7dd9 b13e a179 0a3f 611e bbbe e097 8b3e
00000350: 0402 9b3f 7c2a 52bf 476a af3e b89b 24be
00000360: 97a1 42bf a9d0 53be 5648 1c3e 75e9 033e
00000370: 67a0 cabe 860a 97be f5f3 943c 2528 07bf
00000380: 65a3 11bd 5d26 243f 1bfe 6abe 7da3 bdbd
00000390: d63d 983c a7d6 053f 0104 b13d 0f0e f6bd
000003a0: 8ddb d7be 66de c9be dd1b 533e e919 1bbe
000003b0: f7f2 653d 56dc 163f db5e 75bf 5f0e c53e
000003c0: c944 a33d 92d1 8abf 7930 e63e 8d71 883e
000003d0: 3682 cc3e f175 c13f 66fb 1f3e 3e6a eebc
000003e0: 405f 373f 03fe 593f 766d 69bf 3fb0 113f
000003f0: 6e51 ab3e 9afc 4c3e fa06 60bd 35b3 953e
-0.42341027 -0.070506714 -0.121411785 -0.33273774 0.4732493 0.22398119 0.2031425 -0.03274432
0.8525364 0.320758 -0.22549996 -0.6182101 -0.04061474 0.4000957 0.12984212 -0.0785106
0.48842794 0.27893075 -0.12075023 -0.19825383 -0.16900821 -0.18044445 -1.098407 0.31641546
0.20158343 -0.099566855 -0.05182667 0.8268529 0.12740284 -0.8022119 -1.0250906 0.25058067
0.09444572 -0.9140311 0.13513447 1.0731302 0.51107395 -0.48915136 0.075114556 0.71313155
0.48450094 0.13409735 0.2955864 -0.13409187 -0.47063866 0.5918603 0.30334538 0.9034751
-0.0030627246 1.727773 0.12946896 0.2930136 0.19165096 0.20486815 0.48163274 -0.49577144
0.35945353 -0.33839896 -0.4369786 -0.4398242 -0.75437206 0.02100469 0.18935497 -0.8850514
0.03177605 0.0046163425 -0.7152871 0.49894425 0.10866649 -0.34982303 0.09714789 -0.6141196
0.58394843 0.28550544 -1.0793127 -0.092673056 -0.100964054 0.19079366 0.25487953 -0.03322021
0.33208716 0.4175386 0.5333701 -0.6906494 -1.1690438 0.38340217 0.41209885 0.17974864
1.4362983 0.0997513 -0.48186263 0.6413465 -1.0359595 0.09216922 0.3201714 0.16846655
0.3281847 0.4899016 0.1114955 -0.044284582 0.5530011 -0.9148644 -0.030375833 -0.3131496
0.078403704 -0.74517655 0.23331067 0.080173045 0.6990107 0.26213014 -0.32909063 0.59367687
0.15427797 0.26364714 0.5371071 0.35702124 0.6970229 0.02797936 -0.19958177 0.29270145
0.24252136 0.42733595 0.5260584 -0.5185277 -0.35866225 -0.23311782 0.53092563 -0.08135197
0.38373986 -0.02382952 -0.7548844 0.88279116 -0.33744475 0.4953853 1.1829851 0.08906879
-1.0453299 0.20978749 -0.74850565 0.028391873 -0.06568588 -1.1937883 -0.2552212 0.57475245
0.2850481 -0.4904823 0.31728423 0.36596408 -0.8294239 -0.0112574315 0.3424708 -0.9348652
0.5274153 -0.35669532 0.10161255 0.44242194 0.24846427 -1.598208 -0.31141117 0.56498307
0.21169007 0.8735018 -0.80099547 0.48847464 0.38400227 0.10773167 -0.13441323 0.5476005
-0.30971065 -0.6347944 0.66356415 0.3936743 1.1209764 -0.9269381 0.031509314 -0.008231551
-0.4611159 -0.0406873 0.075824216 0.1412774 -0.3973298 -0.9578256 0.08746758 0.12645486
-0.35791436 0.618597 -1.0691348 0.23282757 -0.12257586 -0.07541557 0.16983944 -0.031103583
0.3319781 0.13102128 0.4762021 -0.3524184 -0.45251977 0.4407086 0.06286686 0.3341734
-0.5958794 1.5218579 0.24940716 1.0435334 -0.23863465 0.541916 0.6780305 0.32853726
0.34736243 0.5409184 -0.36546615 0.2726431 1.210999 -0.82096076 0.3426077 -0.16075027
-0.76027817 -0.20685066 0.15261969 0.12882026 -0.39575502 -0.29500216 0.018182734 -0.5279563
-0.035556216 0.6412104 -0.22948496 -0.092596985 0.018584173 0.5228066 0.08643342 -0.120144
-0.4215969 -0.3942749 0.20616098 -0.15146603 0.056139912 0.58929956 -0.9584786 0.38487527
0.07972104 -1.0845206 0.44958857 0.26649132 0.39943093 1.5114118 0.15623245 -0.029103395
0.71629715 0.85153216 -0.9118265 0.56909555 0.33460563 0.20018235 -0.054694153 0.29238287

net.2.weight f4 [256, 256]
00000000: f7c6 a8bd 382b 313d 8957 883d 61cd 943e
00000010: fe90 0c3e 3b3a 2f3d 8fb1 35be 1702 b73e
00000020: 46a9 cd3e 7381 ffbe f200 943e b593 0abe
00000030: 6b34 933e 1b9f 9e3e 6783 523e 8381 e53e
00000040: f899 8e3d 13ab 663e a153 0b3e c75f 85be
00000050: b500 703e 95d0 3ebd a5d0 1d3f c887 aa3e
00000060: 1c77 cf3e 4263 6e3e 6331 71bc a698 ba3e
00000070: b426 253e 1de8 703e 8013 4ebe b26f 593e
00000080: 4803 b33e ad8f 1dbe d49e 7dbe 00f7 ff3d
00000090: 9b73 953e a5ef 013b 2070 5a3e 00f5 cabe
000000a0: ee34 a13d 7f5d dc3e e830 cbbd 6ba1 503e
000000b0: 6d6f 493f 24a7 c73c 4459 3d3e 14c9 bf3e
000000c0: 52b5 b13e fa5b 88be f138 ff3d fec4 dc3e
000000d0: 5600 27be 238c 983e 0b3e 613e 5368 a23d
000000e0: 3a78 8bbc a99a 683e 29fc 663e 1544 80be
000000f0: 8ba1 da3e 82e3 1bbe e380 c23e cf6b d13e
00000100: 42ab 3ebd d405 c8be 8ad8 31be ff3f 9a3e
00000110: e30a 043e 363c 00bf 0051 bf3d eaf2 b53e
00000120: b0d4 cebd 2153 a23d c54f 17bf ea51 923e
00000130: 64bb 443e 194c 04bd 1d6e 593d 9e91 abbc
00000140: edf3 523e 746c 763d 5d1e 093e 9689 8d3f
00000150: 0e11 96bd 14fd 1abd 568f dbbd 7754 fa3d
00000160: 0862 81bc 3a08 4ebe faaf 203e 1875 0cbc
00000170: d3bd 3c3e 3206 debe fbc2 183e d979 1ebe
00000180: a469 a63d 0b81 cd3d df29 8b3d 136d 5c3e
00000190: 9d81 833e f35a b1be db8e 0d3e 127e c4bd
000001a0: 8fdd 843e 81d2 b83e 6671 5d3e c5ac 98be
000001b0: 74b2 78bd 819c d63d 0f45 94be b04b 973e
000001c0: af31 99bd c6c2 2f3e 616e 173e a5e3 3c3e
000001d0: 4d12 843e e06f 193e f258 963e 54c1 0c3e
000001e0: 6aec 973d 120b 423e 34f0 bbbe 580a 02bd
000001f0: 3296 b13c 5944 ed3e 9793 663e b66b 133e
00000200: d2c0 8b3b a10a c93e e0b5 0fbd 69f4 463d
00000210: ce25 d53e 7a13 993e 983c 9abe 6159 c8be
00000220: 37af d03e ac6b 95bc 7d9f 9e3e 5cf1 90be
00000230: 5279 073d 6aa7 203f a8e7 083d 78f2 04bc
00000240: 3c2a 44be c604 84be b249 59bd a23c 47bc
00000250: 1af2 2bbc b135 8fbc 54e0 853e 9508 29be
00000260: 2918 4d3e 8dbc 2a3d d378 b63b 2ac2 c93e
00000270: e126 c53e 6cee d03d 7042 013e 11da 293d
00000280: 88bd 503e bef0 6b3e e06d a03e 6f09 8ebd
00000290: d56d ec3e c46a a13e e178 1e3d bbe2 8c3d
000002a0: 0536 31be 5995 e3be d8b8 8a3e b9e6 543e
000002b0: d29b 8abe 35dc b0be 9e91 8d3e 0a04 08be
000002c0: ced0 923e 2694 adbe 5f97 323d f727 fd3d
000002d0: 7c94 43bd b583 11be 3750 1fbd 61ff 763d
000002e0: 3516 7d3c 3f14 8c3e 407b 79be 8504 6b3e
000002f0: 3d8e 8c3e 9bed c13d 15ef a03e a632 ff3e
00000300: 3b0a 923e 8f88 ab3e 7f58 603d 0d33 ae3e
00000310: 2672 213f 504c 1ebe c96e 893e e983 ee3e
00000320: 65dd 883d f2a9 b93d 6720 823e 4eb8 043e
00000330: 76dd 19be f089 7a3c 7c26 1abf bae0 f7bd
00000340: d760 e23e 49c6 ec3e 7f64 8f3e 84ee 853e
00000350: 7463 963e a674 e73e 0055 5d3e f65e c03d
00000360: aa31 21be 5723 623d d173 fa3d b303 5dbd
00000370: 514f 00bf eecd c93d 81d2 543e ba92 543e
00000380: 86e4 9b3e 7df5 9f3d 7117 943e 9421 af3e
00000390: c2c7 743c 2f91 a03e f99a b03e 7d4b 623e
000003a0: 196c 2c3e 6e23 7d3e 727a f13d 572f 4abf
000003b0: 710d 763d 78f4 d2bd c272 c43e d677 bf3d
000003c0: 2f97 f83d 2823 003f a3fe c73d 4c21 9e3d
000003d0: c361 093e 8320 a2be 40f8 c03e ece0 65bd
000003e0: 5cf0 79bd 21e0 43be 216e 1f3f c7d1 253e
000003f0: 41be d53e 175f 103e 898e 973e 08ef 32bd
-0.082410745 0.043254107 0.06657321 0.29062942 0.13727185 0.042780142 -0.17743514 0.35743782
0.40168208 -0.4990345 0.2890697 -0.13532908 0.2875093 0.30980763 0.20557939 0.44825372
0.06962961 0.22526197 0.1360612 -0.26049635 0.2343777 -0.046585638 0.6164649 0.33306718
0.4052056 0.23280051 -0.014721247 0.36444587 0.16128045 0.23526044 -0.20124626 0.21234015
0.3496344 -0.15386839 -0.2476762 0.124982834 0.29189762 0.0019826677 0.21331835 -0.39640045
0.07871424 0.43040082 -0.099214375 0.20374076 0.7868565 0.024371691 0.18491083 0.37458098
0.3470865 -0.26632673 0.124620326 0.43119043 -0.16308722 0.29794416 0.21996324 0.079300545
-0.017025102 0.22715248 0.22557129 -0.25051942 0.42701373 -0.15223506 0.37988958 0.40902564
-0.046550043 -0.39066947 -0.1736776 0.3012695 0.12894778 -0.50091875 0.093416214 0.3553689
-0.10099161 0.07926012 -0.59106094 0.2857812 0.19212109 -0.032299135 0.053083528 -0.02094346
0.20600863 0.060162023 0.13390489 1.1057613 -0.07327472 -0.03783901 -0.107206985 0.12223142
-0.015793815 -0.20120326 0.1569213 -0.008572839 0.18431787 -0.43364102 0.14918129 -0.15476169
0.08125618 0.100343786 0.06795096 0.21525984 0.25684825 -0.346397 0.13824026 -0.095943585
0.25950286 0.36098102 0.2162529 -0.29819313 -0.06071706 0.104790695 -0.28958938 0.29549932
-0.074801795 0.17164144 0.147882 0.18446214 0.25795212 0.14984083 0.29364735 0.13745624
0.07418139 0.18949535 -0.36706698 -0.031748146 0.021678064 0.46341208 0.22517239 0.14396557
0.0042649293 0.39265922 -0.03508556 0.04857293 0.41630405 0.29897672 -0.30124354 -0.3913069
0.40758678 -0.018239819 0.30981055 -0.28309143 0.033074684 0.62755454 0.03342405 -0.00811445
-0.19156736 -0.25784892 -0.053048797 -0.012160452 -0.010494733 -0.017481657 0.2614771 -0.1650718
0.20028748 0.041683722 0.0055686026 0.39405948 0.38506225 0.10201725 0.12623 0.04146773
0.203848 0.23041055 0.31333828 -0.06935393 0.46177545 0.31526768 0.038689498 0.06879183
-0.17305763 -0.4444988 0.2709415 0.20791139 -0.27072006 -0.34543005 0.2765016 -0.13282791
0.2867493 -0.3390209 0.04360139 0.12361138 -0.047749028 -0.14210398 -0.03889486 0.060302142
0.015447189 0.27359197 -0.24363422 0.22950943 0.2745227 0.09469148 0.31432405 0.4984333
0.2852343 0.33502623 0.054771896 0.34023324 0.630648 -0.15458798 0.26842335 0.46585014
0.06682853 0.090656176 0.25415346 0.12960932 -0.15025887 0.015291676 -0.6021497 -0.1210341
0.44214508 0.4624503 0.2800636 0.26158535 0.29372752 0.45206183 0.21614456 0.09393112
-0.15741602 0.055209484 0.122291215 -0.053958606 -0.5012103 0.09853731 0.20783426 0.20759097
0.30447787 0.07810495 0.28924134 0.34205306 0.014940204 0.31360766 0.34493235 0.22099109
0.16838111 0.24720547 0.11790933 -0.78978485 0.060071412 -0.10300535 0.38368803 0.09349029
0.12138211 0.50053644 0.09765365 0.077211946 0.134162 -0.3166543 0.376894 -0.056122705
-0.06102024 -0.19128467 0.6227742 0.16193305 0.41746715 0.14098774 0.29600933 -0.04368499

net.2.bias f4 [256]
00000000: d88d 893e 9c9b 783e b685 583e 628c 783e
00000010: f62b 0ebd 4c62 6abe e9a5 e03e 826e 8d3e
00000020: 5f0d c53d d5d6 cc3e e3bb 813e 5e56 8a3e
00000030: 9fb6 c0bb a7e4 8cbe ed57 f43e aeb3 7a3d
00000040: 9c66 653e aba8 75bd 76e2 8fbb 2355 9f3e
00000050: 089f 803e 7087 0d3f 5135 3abe b3d0 babd
00000060: 9ffb 813e 1a8e cabd e0ec 653e 4285 8bbd
00000070: 54b6 83be 6cef 35be d3a7 733e edbd a03e
00000080: 1480 373e a952 de3e a8a5 843e 2d1d 463e
00000090: 6a1a 943e b9d9 b1bc 3381 c43d 8449 033e
000000a0: 9519 893e 5b59 c13e 6037 733e 88c6 343f
000000b0: 9b7a 8f3e 3971 86bd 9f42 333e ecd3 ff3d
000000c0: 45d0 dbbe 5d84 853e 8585 b83c 561d c13e
000000d0: 5fdc 8d3e ea9b 2b3e a2d1 a03e ee3e 9c3e
000000e0: 9023 c03c ff04 873e f0bf 463e 0dcb 7e3e
000000f0: cce2 29b8 1ba1 32bd 67ce b63e 4c1d 383e
00000100: 33e6 233e 776e 223e 9879 e43e dc7e 443e
00000110: 785d 463d 911a 913e 9a30 57bd 93ca 633e
00000120: 6578 a83e 7233 723e f551 3d3e cdb2 653e
00000130: 45c7 603e bdfa 8b3e b052 413e ec06 433e
00000140: c3d0 703e 95d2 863e d7ab 5f3e f92e 6a3e
00000150: 19d9 933e 199c f1bd 74da 873e 2d6b 373e
00000160: d0a2 923e 9bff 453d 94c9 6cbd 2e4e 5d3e
00000170: f1a5 6c3e 9bab 853e 9996 e43e 5d8a 2d3e
00000180: 1c0f 3ebe e40f 233e 2907 13bb 141b 5c3e
00000190: b583 f23d 6da3 6d3e 85a4 d23b 9930 7f3e
000001a0: 7a17 4e3e c877 263d 5b3f dbbd 89c3 e6bd
000001b0: ff61 80be 13f9 15bd bc2b 573e d2a4 863e
000001c0: b36b 7ebd b719 573e c114 30bd e6ae 0a3f
000001d0: c257 81bd e149 113f 7be3 253e 9a42 923d
000001e0: 579d 943e bc20 333e edd4 023f 6d6b 7abb
000001f0: 58f1 5f3d 1a80 4dba a887 6f3e b37c a4bc
00000200: a72b 7b3c 6ed2 d83e 0398 783e cabb 303e
00000210: 8a40 9ebc 9217 043f 5cec de3d ec47 5d3e
00000220: 5e49 78bd f32c 943e 9241 863e 5a28 debb
00000230: 90ad 933e 6af8 933e ff6c 463e 6fbd 2d3e
00000240: 8386 683e a967 623e 5a93 913e 54a2 863e
00000250: 08a0 833e 9b93 413d b0e8 79bd e600 4c3d
00000260: 4d30 b43e 7115 7dbd 0b4a 873e d794 36bd
00000270: 4f93 7f3e 3a85 783e bce3 803e 538f dc3e
00000280: c533 513e b5af 563e 88d0 663e 8377 323e
00000290: e403 373e 8150 c43c f193 1d3e b8d0 553e
000002a0: 2b26 833e 9c31 333d 94d4 903e 5afa 643e
000002b0: 438d 633e 5dec 8ebd 2c30 9bbf fa62 6d3e
000002c0: 17b4 9f3d cf1c 683e 074b c93e 4858 c73e
000002d0: b137 f13e 1b76 eb3d babc 6f3e 4534 4a3e
000002e0: 3a5c 44bd a8d3 7c3e 6f94 a43e 574e 2c3e
000002f0: 8e21 973e 412e 41be 3c52 3a3e 6de1 d03e
00000300: b672 fa3e 7ea8 eebb f95e 5b3e b1da c53c
00000310: 6247 6c3e a076 12bd 8f7f 873e e071 76bb
00000320: 1a7c 563e 5ca5 c83d 1ec8 3e3e 51f6 8c3e
00000330: 938b 643d 969f 813e 7961 643e a77f 553e
00000340: b6ec 4c3e 5e69 f43d 3394 7f3e 28ca 523e
00000350: 9638 8a3e 721b 0c3f ed62 85ba 9a14 eabc
00000360: 96fb c43e 25bb 5e3e 6973 8c3d cc9e 0e3e
00000370: ebb5 7ebd a229 d03e 0694 ea3e fc94 643e
00000380: 104d 18be e65e 00bf ba35 613e 6c18 073e
00000390: b786 713e 9530 8d3e 2006 023d 28d7 d23e
000003a0: dfae 05bf ac11 5e3e f5b6 583e 0956 493e
000003b0: a8c2 703e 3f80 8e3e 7e44 5e3e 3901 b33e
000003c0: f027 a93e ebd0 b7bd 3d28 453e e158 96bb
000003d0: c9bf 2e3e 84f0 7ebd d9ee 433c 3a09 c0be
000003e0: fbb3 613e 4cce 4d3e fc49 833e 3fb8 543e
000003f0: 2231 0c3d 3c5d 1dbe 1e0c 70bf ea87 f53d
0.2686603 0.2427811 0.21144757 0.24272302 -0.034709893 -0.2288906 0.4387658 0.27623373
0.09621691 0.40007654 0.2533866 0.27019018 -0.005881145 -0.27518198 0.47723332 0.061206512
0.22402424 -0.059975307 -0.00439101 0.31119642 0.2512133 0.55284786 -0.18184401 -0.091218375
0.25387284 -0.09890385 0.22453642 -0.06812526 -0.25725043 -0.17767113 0.23794489 0.31394902
0.17919952 0.4342244 0.25907636 0.19347067 0.28926402 -0.021710264 0.09594955 0.12821013
0.2677733 0.37763485 0.23751593 0.70615435 0.28023228 -0.06564564 0.17505883 0.12491593
-0.42932335 0.26077548 0.022524605 0.37717694 0.27707192 0.16758695 0.31409937 0.30516762
0.023454458 0.26371 0.19409156 0.24882145 -4.050396e-05 -0.043610673 0.35704347 0.17979926
0.16005783 0.15862451 0.4462402 0.19189018 0.048428982 0.2834058 -0.052536584 0.22245245
0.32904354 0.23652437 0.18488295 0.22431488 0.21951015 0.27339736 0.18879199 0.19045609
0.23517136 0.26332536 0.21842895 0.22869481 0.2887657 -0.117973514 0.26533854 0.17911978
0.2863984 0.048339467 -0.057809427 0.21611854 0.23110177 0.26107487 0.44646147 0.16947313
-0.18560451 0.1592403 -0.0022434688 0.21494704 0.118415274 0.23206873 0.0064283037 0.24920882
0.20126143 0.040641576 -0.107054435 -0.11267764 -0.25074765 -0.03661449 0.21012777 0.26297623
-0.06211443 0.21005903 -0.042988542 0.54173124 -0.063155666 0.56753355 0.16200058 0.071416095
0.2902629 0.17492956 0.5110615 -0.0038211003 0.054673523 -0.0007839218 0.23391593 -0.020078992
0.015330232 0.42348045 0.24276738 0.17259136 -0.019317884 0.51598465 0.10884926 0.21609467
-0.060616843 0.28940544 0.262219 -0.0067797126 0.28843355 0.28900462 0.19377516 0.16966794
0.22707562 0.22109856 0.28432733 0.26295722 0.25708032 0.04725991 -0.061012924 0.049805544
0.351931 -0.061788026 0.26423678 -0.04457554 0.24958538 0.24269572 0.25173748 0.43078098
0.20429905 0.20965464 0.22540486 0.17428403 0.17872578 0.023964169 0.15388466 0.20880401
0.25615057 0.043748483 0.28287184 0.22361127 0.22221856 -0.069786765 -1.2124076 0.23182288
0.07798021 0.2266724 0.39315054 0.3893454 0.47112802 0.11497136 0.23411837 0.19746502
-0.047939517 0.24690115 0.32144496 0.1682676 0.29517788 -0.188653 0.18195432 0.40796986
0.48915642 -0.0072832694 0.21422948 0.024152132 0.23074105 -0.03575766 0.26464507 -0.0037604496
0.20945778 0.09797165 0.18631026 0.27531675 0.05579717 0.25317067 0.22302808 0.20849477
0.20012173 0.1193416 0.24958877 0.20584929 0.26996297 0.5472938 -0.0010176577 -0.028574277
0.38473195 0.21751077 0.0685795 0.13927764 -0.06218521 0.40656763 0.45816058 0.22322458
-0.14873147 -0.50144804 0.21993151 0.1319291 0.23586546 0.27576128 0.031744123 0.41179776
-0.5221996 0.21686429 0.21163543 0.19661726 0.23511755 0.2783222 0.21705815 0.3496187
0.33038282 -0.08975395 0.19253631 -0.004588232 0.17065348 -0.062241092 0.011958801 -0.3750704
0.22041313 0.20098227 0.25642383 0.2077341 0.034226544 -0.15367597 -0.9376849 0.11988814

net.4.weight f4 [1, 256]
00000000: c940 2cbe 1425 6c40 e9e8 0bbe 5a33 4140
00000010: b921 6c40 372b 7d40 9937 f1bf cd8c c8bd
00000020: f6ca 2240 1865 6740 7663 8f40 fa27 01be
00000030: f001 b9bc 1e1e 96bf c790 c5bf 72f4 5440
00000040: daa9 9040 1a84 1541 b242 453d 06ab 49be
00000050: 12f7 e4bd 82da 1940 4123 db3f d736 fc3f
00000060: 2d6b a1bd 5ddf 0440 c027 e6bd c5f0 b53a
00000070: f030 1040 b674 f23f 7144 89bd e65a 5040
00000080: c75e 15be 2b93 3240 4945 dbbe 7eeb c0bd
00000090: 29d6 19be 55ee b5bf ecb3 c53f d729 b8c0
000000a0: 0862 4e40 8f95 8c40 c452 a2bd 16e2 5d40
000000b0: bfea e0bd a348 8c40 d946 09be f56d a840
000000c0: b1bb 0040 a274 fdbd 4264 cb3f ca6f 7040
000000d0: c40d 21be 5577 69bd 6272 1abe 7029 8740
000000e0: 2920 eb40 73d8 d3bd 1c84 b43f 1a6d 47bd
000000f0: 6318 b23c 34b8 9840 0aba 0640 db71 e5bd
00000100: fc3f e43f 4c71 92bd f2c3 4840 a776 19be
00000110: ab5d 0f41 3306 08be d8fa 41bb b91d c5bd
00000120: 8afc f13f 89f8 f6bd 88ce b540 8fd1 be40
00000130: 0b80 05be 367b 52bf b54a 5140 7438 de40
00000140: a774 2bbe 4501 95bd 2480 883f 0111 21be
00000150: 38cc a1bf d090 fe3f bf1e f1bd d4f8 d9bd
00000160: 5c2b 0340 cde4 413f 98db 1240 a42c eabd
00000170: d23a 0abe 7644 a4bd 909c 4a40 50f9 c6bd
00000180: 8461 683f becc b4bd b6fb 903c 9f48 0abe
00000190: 02a7 8d40 3e09 0abe 8f44 1b3d ffa6 12be
000001a0: d62e d2bd 1b90 3c39 0338 76bf 6351 2040
000001b0: 5a94 ff3f 39b0 0b3b 68c6 33be 6a1b d4bd
000001c0: fa92 e03a eff5 21be 3f05 e83a 4547 22c0
000001d0: 2160 c43b 582e 1f40 dd4d ad40 6443 a940
000001e0: bb36 2dbe 16d9 edbd e481 963f a406 5240
000001f0: e3c4 c840 ccc0 3dbd 23b5 94bd 3ce1 edbf
00000200: 969c 9a3c b2ab cf3f 8018 11be 4949 45bd
00000210: 28cd 5c41 41b8 5240 951f 8340 fd9f ffbd
00000220: d4a0 343d 3212 febd 0b81 d0bd 6f4c ee3f
00000230: 1266 08be 00d0 b940 993c 9b40 96ec 9dbd
00000240: 815e e5bd 59ab 0bbe 1f72 66be 4209 8f40
00000250: c431 24be 380b a540 baa9 0140 1128 b9bf
00000260: e05b d63f 3fb5 b53e 1731 08be 2110 27bb
00000270: 4e2d 32be ded8 0bbe 9e56 23be 3f94 cd3f
00000280: 47c6 96bd 4818 f7bd 150c 3e40 5ecb b9bd
00000290: b69a 46bf 10d9 373b 8db6 08c0 f2e6 2bbe
000002a0: 9d1e 00be e164 9cbf d02a 26be 5693 5140
000002b0: 75ea 2bbe c014 b0b7 4e1a 5340 6553 87bd
000002c0: 168e f8be 0983 5abd 173c 5c3f 8f4c 70c0
000002d0: 6ae0 ab3f a653 0240 d7ca ee40 498e 19be
000002e0: c9af 003b 4ba1 8dbd 7436 38bf 1071 dfbd
000002f0: 368f 0bbe 8266 b240 feaa f03f 5082 fe3f
00000300: 44bc 3c3f 5793 883c 6b67 e8bd 9470 3440
00000310: a086 13be 22cc 4e3d ecbf 3040 752e 4340
00000320: f9bd 1bbe 2e89 0d40 c8fb 0dbe ee3f 28be
00000330: 277d 0840 f606 18be 66af 08be fceb 69bd
00000340: a722 d3bd 37ed 27c0 4124 23be 2334 02be
00000350: c3b0 09be d55b b33f 0747 893c 982b 5f3b
00000360: 17a1 93bf 41cb 99bd 41e3 48bf 2633 4b40
00000370: 8a97 cdba 66b3 babf 0e10 a73f 4bd6 c5bd
00000380: ba88 bbbf 2741 9b3f e215 c4bd 6613 9840
00000390: f337 983f 3bde 58be dd6c d540 4099 1240
000003a0: a2b7 1740 5c47 12be 5ae2 1fbe 939a b740
000003b0: 8e49 fcbd 133d 09be 0d03 55be c506 eebf
000003c0: 411c 5c40 0099 1940 bae2 78bd 3ead e4bf
000003d0: 4100 a7bd 64b2 6d3c 65d3 523c 5933 8640
000003e0: 50d4 0abe ca9d 28be ba94 41be 50c4 03bf
000003f0: 21c7 d63c cc78 0440 20c7 1740 10b6 0140
-0.16821589 3.689763 -0.13663067 3.0187593 3.6895583 3.9557626 -1.8845092 -0.097924806
2.5436378 3.6155453 4.480891 -0.12612906 -0.022583932 -1.1727941 -1.5434808 3.3274198
4.520734 9.344751 0.04815931 -0.19694147 -0.111799374 2.4039617 1.7120134 1.9704236
-0.0788177 2.076133 -0.112380505 0.0013880959 2.252987 1.8941867 -0.06702507 3.255548
-0.14586936 2.7902324 -0.42826298 -0.094199166 -0.15023102 -1.4213358 1.5445533 -5.7551074
3.2247334 4.3932567 -0.079259425 3.4669242 -0.10982274 4.383867 -0.13405932 5.2634225
2.0114558 -0.123757616 1.5889971 3.756823 -0.15727907 -0.05699857 -0.15082696 4.2238083
7.347676 -0.10344019 1.4102817 -0.04868803 0.021740144 4.7724857 2.105105 -0.11203357
1.7832026 -0.07150516 3.1369596 -0.14986669 8.960368 -0.13283615 -0.0029598977 -0.0962481
1.8905194 -0.12059123 5.6814613 5.963081 -0.13037126 -0.82219255 3.2701848 6.9443913
-0.16743718 -0.07275633 1.0664105 -0.15729143 -1.2640448 1.9887943 -0.117734425 -0.10643163
2.0495214 0.7573975 2.294653 -0.11434296 -0.13499 -0.080208704 3.1658058 -0.09715521
0.907738 -0.08828114 0.01769815 -0.13504265 4.4266367 -0.13480088 0.03790718 -0.14321516
-0.102628395 0.0001798276 -0.9617922 2.5049675 1.9967148 0.0021314754 -0.17556155 -0.10356791
0.0017133646 -0.15816472 0.0017701759 -2.5356 0.005992905 2.4872036 5.415755 5.2894764
-0.1691541 -0.116136715 1.175839 3.2816553 6.274034 -0.046326444 -0.072611116 -1.8584361
0.018873494 1.6224272 -0.14169502 -0.048165593 13.800087 3.292496 4.097605 -0.12481687
0.04409869 -0.12405814 -0.10180863 1.8617076 -0.13320187 5.8066406 4.851147 -0.07711141
-0.11199666 -0.13639583 -0.22504471 4.46988 -0.16034609 5.1576195 2.0259843 -1.4465352
1.6746788 0.35489842 -0.13299976 -0.0025491791 -0.17400095 -0.13656947 -0.1595101 1.6060866
-0.07362037 -0.12065178 2.9694874 -0.09071992 -0.7757982 0.0028052963 -2.136142 -0.16787317
-0.12511678 -1.2218286 -0.16227269 3.2746177 -0.16788657 -2.0990497e-05 3.2984805 -0.06607703
-0.48545903 -0.05334762 0.8602919 -3.7546728 1.3427861 2.0363555 7.4622607 -0.14995684
0.0019636026 -0.0691553 -0.7195809 -0.10910237 -0.1362885 5.575013 1.8802183 1.9883518
0.7372477 0.01667182 -0.113478504 2.8193712 -0.14406824 0.050487645 2.761714 3.0497105
-0.15209188 2.2114978 -0.13865578 -0.16430637 2.1326387 -0.14846405 -0.13348159 -0.057109818
-0.10309344 -2.6238534 -0.15931799 -0.12715201 -0.13446335 1.40124 0.016757501 0.0034053084
-1.1533536 -0.07509471 -0.7847176 3.1749969 -0.0015685421 -1.4585998 1.3051775 -0.09660014
-1.4651101 1.2129258 -0.09574486 4.752368 1.1892074 -0.21178524 6.669539 2.2906036
2.370583 -0.14285034 -0.1561369 5.737619 -0.12318717 -0.13402204 -0.20801945 -1.8595816
3.4392245 2.3999634 -0.0607631 -1.7865369 -0.08154345 0.014507864 0.012867783 4.193768
-0.13557553 -0.16466442 -0.18904391 -0.51471424 0.026217999 2.0698729 2.3715286 2.0267372
