manually_saved_runs/naive_ddpg_2/task_params.npy (npy, 2048 bytes, 1 tensors)

array f8 [120, 2]
0.12003902808738731 -0.4193814490748764 -0.5109418750058168 0.8919119055352458 0.3585994079034913 -0.568068196991274 0.7925751046470104 0.33350328902274584
-0.31691695332928904 -0.05432223321129559 0.36781269803972605 0.5272291093296007 0.07226704641288051 0.5652701863314125 -0.9532508258787344 -0.12567814314395065
-0.6427948557373402 -0.9518514366579447 -0.11689722149918835 -0.9150573294386748 0.22688771283893705 0.24191679873180627 0.17907637549276956 -0.7697506317897449
-0.7311491788456048 -0.09362259602207046 0.4143842465970311 -0.8491594175256685 0.15425142705681805 -0.9026610632501402 0.9619473492962141 0.3557120634716251
-0.07672581636855935 -0.7485478112148309 -0.17478709321984032 0.05407107860573657 -0.9687006713098205 0.28436055361986945 0.6959820944072901 0.6268485407379523
-0.8861492985270443 0.35339006741356926 0.14021554142329729 -0.06498796470483437 0.48879423978106784 -0.4507960887336553 -0.12122494580149668 0.6410451885481543
0.7870166978777755 -0.503410710880728 0.11402079278702071 0.36919029657670577 -0.3068030399839452 -0.7085065794471612 -0.043174964188032794 -0.921035109214037
0.5549095416993381 -0.5148931514480188 0.8360188820184724 0.5840497191742033 0.7696274077953067 -0.1532304590389304 -0.9734391973537828 0.7358191457195862
-0.5653277223388504 0.25445896297249204 -0.05136358404435826 -0.4930888572163401 -0.5539435201414198 -0.8171803282931829 -0.10638516846221191 -0.8830013436366964
0.5614463193315402 -0.0020853578357333813 -0.8728675422689651 0.9404220626277204 -0.9591802695935174 -0.7388784366420365 0.24947038372873398 -0.23964006613651612
-0.5644420551135816 0.3851432285087224 -0.3451097570137944 -0.5115467510324576 -0.026498345129919665 -0.7969876793038579 -0.4427895347704005 -0.8439399830971197
-0.6582594470219911 -0.04262147850010467 0.7613231871179411 0.9377612399087127 0.8382954452045737 -0.3131084560429427 -0.860898200024032 0.27531599610898794
0.21422475300699895 0.1665273157719127 -0.32148836405528414 -0.32816628274844084 0.14043391700740648 -0.1731632637671039 -0.13363287681497815 -0.46133099797034083
-0.5100530580799281 -0.868995350410066 0.04477025878135743 0.9618321022521765 -0.3671186029666009 -0.1600007585448644 -0.55934083098173 0.05393208978382735
-0.8169605999907181 -0.8005498474174197 -0.6142358962530299 0.8563017977762641 -0.755292019757223 0.8102605742524207 -0.06220767633968549 -0.4079568899524608
0.21292371187293702 0.8924486347424414 -0.32421576268979635 -0.8031483954109175 -0.8410878193411981 -0.13064398093433538 -0.10504013650314925 -0.4326456873843971
0.3460911630986667 0.5985782764353327 -0.8605579226037248 0.7636594149256113 -0.1056292555331988 -0.7556635433582839 0.6137571531763231 -0.7393623549872121
-0.17431341625536145 -0.032407499080244095 0.7224368605493992 -0.6499252538573046 0.15574904332688377 0.06813748739184944 0.3544998897939695 0.8890543026771061
-0.38907753676345136 0.4818166175046965 -0.3933402814050002 -0.4605123704800915 -0.9543390049306626 -0.13406351909912928 -0.6171312646225822 0.5265276399661769
0.11874689347535572 0.4360347801186033 0.5476418726772867 -0.3625480460129653 -0.8801732169157441 -0.25767293866639496 0.3636804033739991 0.21473122160577773
-0.21624714801075307 0.03257775768516735 -0.34431491176024953 -0.9261561763637056 -0.6863266737871245 0.13736966530870287 0.027822045486000535 0.5513876438239291
-0.5887029605568084 -0.7613601429739807 -0.5964884969188111 -0.5137429458415912 0.2306583274501668 -0.7164621636801447 0.9269914270416255 -0.037989466221235224
-0.13313196612327882 -0.272080105617005 0.8140189215832752 0.2666489579607785 0.09093041961095438 -0.5549521865884919 -0.29216363034892234 0.4391566842144221
0.07727590418080443 -0.3500705302302862 -0.4961643098537063 -0.156357294035101 -0.7296550884400512 0.487100052448433 0.09469528993034726 -0.7805839932624141
0.5914025919852988 0.6724384919862627 -0.3588052582816237 -0.2826627861658828 -0.8709074489053099 -0.7668065183444037 0.5123798947144069 0.45130015919436706
-0.9691968236768687 0.08212813564813937 0.8562308488701538 0.8410397776011729 -0.4621985490275835 -0.8457221979284051 -0.5697748072770494 0.441857629760922
-0.2953428890248262 0.4124214854031776 -0.30647573832153374 0.3990262047020321 -0.23184203316311836 0.9234695884656574 -0.35962318111983715 -0.12014370171490363
0.4217157353882701 -0.6389458092525793 0.09905780780309148 -0.0661335996321799 -0.601623345488592 0.9307365816550335 -0.3116983419170436 -0.7175102341763309
-0.5480913182178799 -0.04783357642817698 0.9983989722069091 -0.21004249817987164 0.8190670850648423 -0.32825972483617516 0.554455880707114 0.7849087883613102
-0.42327492479442985 -0.7242747606405082 -0.7069595722476818 0.051781170385275965 -0.7194223663870647 0.18758064172892164 0.922549315468302 -0.7971779355185575
00000000: 2003 e1b3 e0ba be3f 00d8 144a 25d7 dabf
00000010: 26d2 69c6 a259 e0bf 44fb 25d6 8a8a ec3f
00000020: 90de 53ee 4af3 d63f e634 ff5a 9d2d e2bf
00000030: 60a5 4277 c65c e93f 2483 dd2d 1e58 d53f
00000040: 6c39 860b 5e48 d4bf 8028 2dae 1fd0 abbf
00000050: dc95 4845 3e8a d73f 283c c294 0fdf e03f
00000060: 70fd ebd8 1780 b23f d04f 7680 b116 e23f
00000070: cc17 41e0 0781 eebf 0009 50ad 3816 c0bf
00000080: aab9 6d84 c691 e4bf 6e16 e324 9175 eebf
00000090: 7010 55ef f9ec bdbf 42ef fc4e 2648 edbf
000000a0: e8f4 4015 a80a cd3f d0fb 7331 21f7 ce3f
000000b0: 0024 1d84 f9eb c63f e697 b313 cca1 e8bf
000000c0: bc73 74f6 9265 e7bf 70d7 1484 a6f7 b7bf
000000d0: 8428 c780 4585 da3f f89e eb5e 502c ebbf
000000e0: a801 49c1 82be c33f a605 4174 99e2 ecbf
000000f0: a46f b6ce 45c8 ee3f c4cf d987 fcc3 d63f
00000100: 50d6 0f98 4da4 b3bf 621f 158a 1af4 e7bf
00000110: e830 9268 6c5f c6bf 80cb 8a54 34af ab3f
00000120: 1272 dc8c 98ff eebf 8077 849b f632 d23f
00000130: b296 c23d 7c45 e63f 7a79 c0ab 240f e43f
00000140: fe80 11c6 555b ecbf e470 915f f19d d63f
00000150: 50e9 6636 95f2 c13f 3076 0a1f 0da3 b0bf
00000160: b84d 95a2 6748 df3f 1ca6 91d6 d7d9 dcbf
00000170: d042 ad19 9908 bfbf ba51 0233 7183 e43f
00000180: 884f 59a4 3d2f e93f f60a 76c7 f01b e0bf
00000190: 3091 1578 7730 bd3f 1c0a 7356 d0a0 d73f
000001a0: dcd7 c237 a9a2 d3bf 883e 77fd 15ac e6bf
000001b0: e01b 6366 071b a6bf b258 119f 1e79 edbf
000001c0: c0c8 baa7 d1c1 e13f 6cea cc33 017a e0bf
000001d0: 4673 a3ab aac0 ea3f 02eb 6209 89b0 e23f
000001e0: 50c1 52a8 c9a0 e83f 0861 2941 0e9d c3bf
000001f0: 76ed a8f5 6926 efbf 6a5c d497 d48b e73f
00000200: 04f6 de29 2a17 e2bf f804 093f 0e49 d03f
00000210: 200b 5ae3 534c aabf 5409 f190 c48e dfbf
00000220: 1ed5 dac2 e7b9 e1bf 3c85 1e5c 5726 eabf
00000230: 501c 53f3 0e3c bbbf 22cc a708 8c41 ecbf
00000240: 1aa2 7f45 5ef7 e13f 00ce 8ef6 4f15 61bf
00000250: 901f 79e9 87ee ebbf 9688 6d02 f017 ee3f
00000260: 82ec 1bd2 9ab1 eebf e41b 2364 e4a4 e7bf
00000270: e8bd b741 a5ee cf3f f80d 6f93 86ac cebf
00000280: 4665 e6c8 e80f e2bf e021 aec8 2fa6 d83f
00000290: 7ce7 f93b 4716 d6bf 18e7 c14a 975e e0bf
000002a0: 40ac ecd6 6122 9bbf a699 3d4e ec80 e9bf
000002b0: 2c65 b6ea a956 dcbf a60b 666c 8e01 ebbf
000002c0: 88c2 a71d 7610 e5bf 60bd 8780 7bd2 a5bf
000002d0: 1c75 cb71 c25c e83f 9aa8 1bdc 2302 ee3f
000002e0: cc42 31f8 50d3 ea3f 308d b30c f809 d4bf
000002f0: 423b c961 7a8c ebbf 1ca4 d6fb c69e d13f
00000300: 8851 147a b76b cb3f 98c5 905f c450 c53f
00000310: 005e 6aee 4393 d4bf fc7b 0327 ad00 d5bf
00000320: f8e2 6514 bdf9 c13f 60c9 5fbd 362a c6bf
00000330: f89c cbd1 e11a c1bf 5879 3a73 7286 ddbf
00000340: d4b2 75ca 5a52 e0bf b664 4c56 cfce ebbf
00000350: 4049 999a 20ec a63f 1650 ed1d 54c7 ee3f
00000360: 24aa 5f06 df7e d7bf 8087 a4a4 e77a c4bf
00000370: ae49 0cbe 1ee6 e1bf a027 a7a3 fc9c ab3f
00000380: de94 628e 8a24 eabf 2e38 afb6 1a9e e9bf
00000390: d0f3 cd09 d2a7 e3bf da8f 1e07 d366 eb3f
000003a0: 962f 792b 5a2b e8bf dcdf 7495 a7ed e93f
000003b0: 00d2 e03e afd9 afbf 2484 2137 f71b dabf
000003c0: b0c2 848d 1541 cb3f 2e84 7270 f08e ec3f
000003d0: 806c 6678 f3bf d4bf 18fe 8343 64b3 e9bf
000003e0: 064d a400 31ea eabf b81f c424 f1b8 c0bf
000003f0: 1064 0c0f e9e3 babf 3c92 8489 77b0 dbbf
00000400: 4460 bc8c 5b26 d63f 7c58 2ca1 8d27 e33f
00000410: beb1 bcc4 b089 ebbf 746a 8cde e56f e83f
00000420: 1013 04d6 840a bbbf 181b b04f 652e e8bf
00000430: 0282 920a e6a3 e33f 2a09 d23d dba8 e7bf
00000440: 6010 09eb e64f c6bf a0bc 6339 b797 a0bf
00000450: b281 2fe8 331e e73f 002c c50b 30cc e4bf
00000460: c872 bcab 95ef c33f 70c7 fa57 7571 b13f
00000470: ec71 464e 20b0 d63f 5eb8 4b02 2273 ec3f
00000480: f876 0078 a5e6 d8bf 6087 b65d 15d6 de3f
00000490: d45e 35b7 7c2c d9bf 3063 a7e0 0879 ddbf
000004a0: 1c2e eff3 f189 eebf 0008 0f4f fe28 c1bf
000004b0: 6094 dc10 8abf e3bf 8a08 437e 50d9 e03f
000004c0: 806e fa47 3266 be3f f8c9 216c fee7 db3f
000004d0: 6a36 a23f 4886 e13f 50ae 36b8 fc33 d7bf
000004e0: c8fb ae05 612a ecbf 74ba 28a3 b67d d0bf
000004f0: 98fe ab2b 8a46 d73f 800c 1d0b 507c cb3f
00000500: 409c 478e fcad cbbf c06b ab27 08ae a03f
00000510: f443 6269 4109 d6bf 880e 0f47 12a3 edbf
00000520: 9c38 495b 63f6 e5bf e04e fb45 5495 c13f
00000530: 407b e1dd 617d 9c3f 7e8d 34b3 f7a4 e13f
00000540: bccb 5497 a7d6 e2bf dea2 51f2 0f5d e8bf
00000550: 929b 560b 6f16 e3bf 3617 de0b 9570 e0bf
00000560: 4869 794a 3686 cd3f de7b 3a0f 42ed e6bf
00000570: ea1d daec e9a9 ed3f e080 06f6 5a73 a3bf
00000580: e09c 46e0 770a c1bf d41a e1ac c269 d1bf
00000590: b6cf d068 710c ea3f b40e 7dca c610 d13f
000005a0: 90cb 704a 3747 b73f 6cb8 8716 2bc2 e1bf
000005b0: e878 5b15 cfb2 d2bf d853 21a3 241b dc3f
000005c0: d0b2 3989 5ac8 b33f 347a a839 8e67 d6bf
000005d0: ace6 10f3 27c1 dfbf a097 2f0c 8403 c4bf
000005e0: 62b8 c6a0 5559 e7bf 8056 c9b2 a52c df3f
000005f0: 5009 5655 f33d b83f 1cfb 5a48 8bfa e8bf
00000600: 7216 eb20 c5ec e23f bee1 74ba 9d84 e53f
00000610: 3cf4 7c54 aaf6 d6bf c03c 98a7 2517 d2bf
00000620: de83 5c4c 79de ebbf 48c3 d4d2 ad89 e8bf
00000630: 42a4 5d85 6a65 e03f 74d7 1a10 1ae2 dc3f
00000640: 0c89 a20e a903 efbf a0b1 b078 5906 b53f
00000650: f827 b73c 3e66 eb3f 2ed4 6d40 cce9 ea3f
00000660: 8441 1539 a994 ddbf d451 b3ff 2710 ebbf
00000670: 40de 6a60 983b e2bf 4ceb 5339 6547 dc3f
00000680: 34f0 5ddc e5e6 d2bf 645c fe15 1d65 da3f
00000690: b4f0 466a 4c9d d3bf 7c4d dc34 a589 d93f
000006a0: f009 23ef ffac cdbf 40f0 2918 108d ed3f
000006b0: 8cc3 72f2 1004 d7bf 8096 afd5 bcc1 bebf
000006c0: a0e0 ecfe 63fd da3f a0fe 547b 3e72 e4bf
000006d0: d07f ed3c da5b b93f b043 96af 21ee b0bf
000006e0: 8c46 2c9a 7f40 e3bf 44c6 6c15 98c8 ed3f
000006f0: 7c12 309a ddf2 d3bf 02a5 ca05 d8f5 e6bf
00000700: 50f4 decd f689 e1bf 00c9 d17c a47d a8bf
00000710: 54a3 bf66 e2f2 ef3f b0f1 392e ace2 cabf
00000720: 6cac f22c cc35 ea3f 30fb b013 3502 d5bf
00000730: 26c8 5642 1abe e13f a05a 0b09 f91d e93f
00000740: 345f cdb5 ef16 dbbf 609d 4843 422d e7bf
00000750: f2bb 4cae 699f e6bf 20ec b4c2 0f83 aa3f
00000760: 8296 f40d 8205 e7bf 1051 cb78 a402 c83f
00000770: fe45 5c24 8685 ed3f daa3 444d 7b82 e9bf
