manually_saved_runs/no_offset_ddpg_2/actor.pt (torch, 276359 bytes, 6 tensors)

net.0.weight f4 [256, 8]
000000 89 2a 0a bf f6 50 ff bd ca 87 0a 3f 93 f5 15 3f
       -0.53971153 -0.12466614 0.5411345 0.5857784
000010 fc 10 5e 3f d6 ff e7 3e 73 03 e4 bd 7f 7f 9d be
       0.86744666 0.45312375 -0.111334704 -0.30761334
000020 ef dd 46 3f 72 c0 03 be c7 e1 aa 3f e5 7c 07 bf
       0.77682394 -0.12866381 1.3350152 -0.5292495
000030 aa d8 83 3f bc 52 2d 3d ab da 0a bd 69 4e 5e 3e
       1.0300496 0.04231523 -0.033899944 0.21709599
000040 64 13 40 bf 0e 41 2b 3c a5 4a af 3f 2e f7 a2 3f
       -0.7502959 0.010452522 1.3694655 1.2731683
000050 e4 d8 b3 3e 03 6e b6 3e 72 ca 00 3d 11 3f 91 3d
       0.35126412 0.35630807 0.031443067 0.07092107
000060 e0 89 d2 be f6 4c b9 3d ee 27 c8 3e cc 49 5d 3e
       -0.41120815 0.09047882 0.39092964 0.21610183
000070 0f c1 75 bf 66 ce b4 be cf df bd bd 78 06 b9 3e
       -0.9599771 -0.3531372 -0.09271204 0.36137748
000080 0d f0 ad 3e c4 45 fc 3e 4b f0 1a bf 13 c3 10 3f
       0.33972207 0.49271977 -0.6052291 0.5654766
000090 3c 75 02 3f 2f f4 5d be c5 71 59 bf dc 2a 8c bf
       0.50960135 -0.2167518 -0.84939224 -1.095058
0000a0 a2 d5 81 be 72 05 44 3e 30 88 e8 be aa ee 91 be
       -0.253583 0.19142702 -0.45416403 -0.285024
0000b0 09 5f 2a bf b7 b6 90 bf 10 9d 8f bf ab bd a5 bf
       -0.6655126 -1.130576 -1.1219807 -1.2948507
0000c0 01 c1 e4 3e 99 f8 c3 3e bf 0e 9f be cd cb 00 bf
       0.446785 0.38275602 -0.31065938 -0.50310975
0000d0 c6 4f 6f bf 01 2e 6c be 36 c8 46 be 3a 8d c7 be
       -0.934811 -0.23064424 -0.19412312 -0.38974935
0000e0 19 ba ef be f7 8f bf bf d9 5b 94 3d 2b 26 51 3f
       -0.4682167 -1.496581 0.07244081 0.81698865
0000f0 6b 9d a5 3e 4d b3 31 3f 02 55 c6 be 90 0d 26 be
       0.32346663 0.69414216 -0.3873673 -0.16216111
000100 b7 95 d1 bd 7e 2f 8f bf f1 5c cb 3c 0d 52 e5 bf
       -0.10233634 -1.1186368 0.024824591 -1.7915665
000110 33 cd aa be bf b0 92 bd ee 34 34 3d d6 2f 45 3e
       -0.3335968 -0.07162618 0.04399579 0.19256529
000120 09 19 81 3d 3a 51 93 bd 8d e9 88 3e 39 20 6c be
       0.06303603 -0.07193227 0.26740685 -0.23059167
000130 2b f3 33 c0 19 fb 01 bd b6 20 0e be 8b a3 c8 3e
       -2.8117168 -0.031733606 -0.13879666 0.39187273
000140 0f d5 0c 3e 57 d6 27 bf 40 d2 4b bd 20 ad 17 40
       0.1375315 -0.6556143 -0.049761057 2.3699417
000150 6a 0c 6e be 61 14 c5 bf 74 24 9c 3d 2c 1e e3 ba
       -0.23246923 -1.5396844 0.076241404 -0.0017327718
000160 d0 d6 0e 3d e7 3d 91 be 64 81 35 3f 65 cc b2 be
       0.03487283 -0.2836754 0.7090056 -0.34921566
000170 a2 b5 22 bf 1a 79 85 3e 98 a6 49 3e a4 f4 a2 be
       -0.635584 0.26068956 0.19692457 -0.3182727
000180 2a f7 8f be ac 81 91 c0 3a a5 30 be 81 95 72 bf
       -0.2811826 -4.547079 -0.17250529 -0.94759375
000190 c8 64 e6 ba 3b 70 3f 3e 8f d9 6d be 27 cf 0f 3e
       -0.0017577643 0.18695156 -0.23227523 0.14043866
0001a0 07 24 c8 3d a4 cc 39 bd 41 30 8f 3f 65 3d 86 bd
       0.09772497 -0.045361176 1.1186601 -0.06554679
0001b0 85 4d c3 3d be f3 8e 3f 93 e4 c1 3e ae be 22 bf
       0.0953627 1.1168134 0.378697 -0.63572204
0001c0 53 27 5a bf 8c ca 23 be b5 10 50 bf e9 21 11 bf
       -0.85216254 -0.15995234 -0.8127549 -0.5669237
0001d0 5b 17 00 bf e8 a9 3e bf 7d 61 02 be d3 f2 36 3e
       -0.5003564 -0.74478006 -0.12732501 0.17866068
0001e0 48 99 d2 bd 22 90 df bd bd 6d 5e be cd 82 98 3e
       -0.10283142 -0.10916163 -0.2172155 0.29787293
0001f0 0e 14 94 be a8 5a 10 bf 2d cb 6e bf 91 c8 c6 be
       -0.2892155 -0.5638833 -0.9327877 -0.38824895
000200 bd d2 ac bf 9e bc 06 3f 20 1a 25 be 43 31 f6 be
       -1.3501812 0.52631557 -0.16123247 -0.4808446
000210 42 5e c6 bd 2e 15 2c bf 5a 4d 66 be d5 da c5 be
       -0.09685947 -0.6721982 -0.22490445 -0.38643518
000220 1b b3 62 3e 16 a0 b1 be 35 f8 61 3c 29 9d af 3f
       0.22138636 -0.34692448 0.013792087 1.3719836
000230 aa 6c b3 bf f1 3c 8a 3d 95 27 e8 be 58 0b 11 bf
       -1.4017537 0.06749905 -0.453427 -0.56657934
000240 d5 ba 0c 3f fa 8b 17 bf bc 2c 0e c0 4c 24 60 be
       0.54972583 -0.5919796 -2.2214804 -0.21888846
000250 dc d8 a1 bd 93 34 a0 bf a2 fc b0 3d b6 19 59 be
       -0.07902691 -1.2516044 0.08641936 -0.21201214
000260 68 9f 23 be 0a ae 02 bf af c5 6d be df cf d7 3f
       -0.15978777 -0.5104681 -0.23219942 1.6860312
000270 31 a2 7a 3f 29 72 e9 3e 0f ed 1e be fd 18 a4 3d
       0.97903734 0.4559491 -0.15520118 0.08012579
000280 a6 d9 0b 3d b8 bc e4 be 01 52 9d 3f 72 f4 96 3e
       0.034143113 -0.4467523 1.2290651 0.29483372
000290 59 09 50 3f 1d 4d 7a 3e e9 23 7d ba 9d 0d 7e bd
       0.81264263 0.24443479 -0.0009656535 -0.0620247
0002a0 f0 3e ed 3e 96 a4 82 3d 21 8a b0 bf a6 43 92 be
       0.4633708 0.063790485 -1.3792154 -0.28567237
0002b0 0d bf a4 be 14 f6 56 be ab 26 07 3e 6e 9c 26 be
       -0.3217701 -0.20992309 0.13198344 -0.1627061
0002c0 32 24 0d bf c5 3b 6c bf 2f 70 1b 3c 97 a7 32 bf
       -0.55133355 -0.922787 0.009487196 -0.6978697
0002d0 74 11 69 3f 6c 7f 94 be 78 31 66 bf e1 dd 63 bb
       0.91042256 -0.29003465 -0.89919233 -0.0034769701
0002e0 d0 00 cf be 5f a8 08 c0 1c 0e c8 be dd ce d3 be
       -0.40430307 -2.1352766 -0.39073265 -0.41368762
0002f0 2f 16 5c 3e 72 39 22 3f 5f 67 21 3f 8f 8d b4 be
       0.21492837 0.63368905 0.63048357 -0.3526425
000300 93 c4 b8 3c e9 85 05 bf 41 11 c6 3e ce 1d 2f 3e
       0.022554671 -0.52157456 0.3868504 0.17101213
000310 85 ed af bd a2 8a 89 be b1 3c 5e be af 30 6a bf
       -0.08590225 -0.2686358 -0.2170284 -0.91480535
000320 6b 97 2b 3e 8c 72 0f bf 72 0f 55 3f 05 62 f9 3c
       0.1675698 -0.5603416 0.8322669 0.030442247
000330 5f 86 ec 3e 2e 81 af 3e ea cf aa be e5 df d0 bd
       0.46196267 0.34278244 -0.3336175 -0.101989545
000340 0b 7b 8a 3f fc dd 8b bb 76 9d fd 3e e3 c7 0c bf
       1.08188 -0.004268406 0.49534196 -0.549925
000350 d1 7c b7 bd 27 13 54 bf 87 60 d7 3e 78 f8 6a 3c
       -0.08959354 -0.82841724 0.42065832 0.014341466
000360 76 df f6 3e cf 6f 8d bf c4 72 c6 bf df 28 a4 3e
       0.48217362 -1.1049746 -1.5503774 0.32062432
000370 d0 42 0b be 61 fa 15 bf ab 52 02 3e f3 c9 ea bd
       -0.13599706 -0.5858517 0.12726848 -0.114643
000380 09 79 e1 3c c1 de 17 3f 17 00 55 bf 73 ef 9b 3d
       0.027523534 0.5932427 -0.8320326 0.07614031
000390 59 9f d3 3d 1e 27 bd be 7c b2 aa 3e 18 f8 0d 3c
       0.103331275 -0.36943907 0.33339298 0.008665107
0003a0 e1 3a da bd 67 59 25 be b1 db d5 be b9 62 7e be
       -0.106557615 -0.16147386 -0.41769174 -0.24842347
0003b0 8d 78 45 bf 2b 34 23 bf c8 b5 ca 3d c9 76 c9 bc
       -0.7713707 -0.63751477 0.09897953 -0.024592774
0003c0 a9 60 7b be cd 6a 17 c0 47 46 cd 3e a9 96 c6 be
       -0.24548592 -2.3658936 0.4009268 -0.3878682
0003d0 03 93 8c bd 25 ac db be 4f dc a1 be 92 5b b4 3d
       -0.06863978 -0.42904773 -0.31613395 0.08806528
0003e0 e7 af d6 3e a7 9b ae bb 79 7b 36 3e 7f 8c bb 3e
       0.41931078 -0.005328614 0.17820539 0.36630628
0003f0 6e b3 08 3f 7a fa 25 3e c1 60 d9 bd 84 02 96 3c
       0.5339879 0.1620883 -0.106141575 0.018311746

net.0.bias f4 [256]
000000 1c 49 07 3f d1 ac 4a be 58 7d d9 3d b9 90 14 3d
       0.5284593 -0.19792487 0.106196105 0.03627083
000010 be ed b1 3d 29 f7 82 3d e7 76 1c bf f0 93 97 3e
       0.08687924 0.06394798 -0.6111893 0.29605055
000020 04 35 1f bd a1 2d 45 bd cc 67 f0 bd a3 53 a0 bd
       -0.03886892 -0.04813922 -0.11738548 -0.078284524
000030 40 82 0d 3e 57 ce 89 3e 5a aa 34 be 52 97 00 3f
       0.13819218 0.26915237 -0.17643109 0.50230896
000040 1b 3d ee bd 08 59 02 be 96 6f 5f 3e bb ad d6 3d
       -0.11632749 -0.12729275 0.2181991 0.10482355
000050 a6 f6 7b 3e f0 ec 27 3e 0f 1c 55 3e 21 07 ce bd
       0.24605808 0.16398978 0.20811485 -0.100599535
000060 47 c7 0c 3f 93 ca b1 3e 7c 55 02 bf 79 7e a8 3d
       0.54991573 0.34724864 -0.5091169 0.08227248
000070 62 46 65 be f9 96 17 be df 03 d7 3e 1e 91 02 3e
       -0.2239013 -0.14803685 0.4199514 0.1275067
000080 97 7c d4 3b 4c 43 3f 3e 30 8d 2c be 4b d9 39 be
       0.006484579 0.18678015 -0.16850734 -0.18149297
000090 73 fc 35 be 86 60 43 3e 43 09 a8 be 52 ce 2a be
       -0.17772083 0.1907979 -0.32819566 -0.16680267
0000a0 e9 bd e2 bd a0 05 cc be bc fe 0d 3e ef 29 50 3e
       -0.11071379 -0.39848042 0.13866705 0.20328496
0000b0 58 a7 06 bf a7 b2 30 be f0 2a 8d 3e 6f f6 06 bf
       -0.52599096 -0.1725565 0.2757182 -0.5271978
0000c0 05 13 53 bd bf d9 1a 3d 28 2f e1 3e 11 da 61 3e
       -0.05153181 0.037805315 0.4398129 0.22055842
0000d0 a6 a1 84 3e eb 63 32 3e d8 00 26 bd 46 cf 80 3d
       0.25904578 0.17420928 -0.04052815 0.06289534
0000e0 01 bc 66 bc 7c 8e bb 3e f7 13 52 bd 8c c7 75 bd
       -0.01408291 0.36632144 -0.05128857 -0.060004756
0000f0 0a 19 5e 3e b6 7e da 3d bd 67 1f 3e 5a e6 48 3d
       0.21689239 0.106686994 0.15566917 0.049047805
000100 f1 31 7d 3e c3 cf fb 3d b8 f0 a6 be e5 c7 01 3e
       0.24726082 0.12295487 -0.3260553 0.1267391
000110 19 6e 96 bd 3b 12 6c be 25 b4 65 bf b6 1e 90 bc
       -0.07345218 -0.2305383 -0.89728004 -0.01759277
000120 af 89 03 be f4 60 de be 19 f2 c4 be 72 a8 71 3e
       -0.12845491 -0.43433344 -0.38465956 0.23599413
000130 3d da ac bd 70 49 59 3c 98 dd e5 3d 45 9f 7e bd
       -0.08440063 0.013262138 0.11223906 -0.06216361
000140 9d e4 3f 3e fc 99 71 3c 83 e0 65 bd 25 05 0d bf
       0.18739553 0.014746185 -0.056122314 -0.55085975
000150 c9 14 08 bd f4 8d 04 be 6b f7 d7 bd b0 be 7a bd
       -0.033222947 -0.12944776 -0.10545238 -0.06121701
000160 83 d7 e5 bd e5 32 79 3d fc 07 a5 3e 0d a8 1f 3d
       -0.11222746 0.060839552 0.32232654 0.038978625
000170 70 30 82 3d c7 58 57 bb 9d aa 05 be 5d b9 33 3e
       0.06356895 -0.0032859312 -0.13053365 0.17551179
000180 d6 13 af 3e 88 3b 0e bf a0 ba fe bc ac bc 2b bd
       0.3419482 -0.5555959 -0.03109485 -0.04192798
000190 36 05 c5 bd 01 4a 2b be 52 55 59 3e fa 0a 91 be
       -0.096201345 -0.16727449 0.21223953 -0.28328687
0001a0 80 d3 b0 3d 23 0b 44 3e 14 e3 e6 ba e7 f9 00 bf
       0.086340904 0.19144873 -0.0017615282 -0.5038132
0001b0 4d 9b 24 3d 02 24 b9 bd ed 85 30 3d 8e 8a 8b bd
       0.04018717 -0.09040071 0.04309647 -0.068135366
0001c0 41 a4 cc 3d b7 60 2b bd 01 31 84 3e d3 9f 10 be
       0.099922664 -0.04184028 0.25818637 -0.14123468
0001d0 3e 48 71 be 9e c1 7c 3e fb 9d ae bd 4d e6 2d bd
       -0.23562714 0.24683234 -0.08526226 -0.04245596
0001e0 5d e2 f2 3e ba e7 46 3e f0 c7 36 3e b5 ed 96 bc
       0.47438326 0.19424334 0.17849708 -0.018423894
0001f0 a3 cc bc 3e 50 74 9a 3e 5d 87 1c 3f ae 2a 91 bb
       0.36874875 0.30166864 0.6114405 -0.0044301366
000200 ba 97 55 3e eb 4b 0f 3e 7d d2 8f 3e 26 e5 9c 3d
       0.2085866 0.13993804 0.28090277 0.07660894
000210 1e 54 e9 be d5 09 3e 3e 0f a6 0f 3e c2 a4 36 be
       -0.4557199 0.18558438 0.1402819 -0.17836288
000220 b3 55 1f 3e 0c e8 b2 bd 22 73 3e 3e f5 e1 27 be
       0.15560035 -0.08735666 0.18598607 -0.1639479
000230 5a 2e 14 bf ee 94 51 3e 1f 12 0b bd ec a5 37 3e
       -0.57883227 0.20466968 -0.03395283 0.17934388
000240 ba 08 ec be f8 c0 28 bf 92 f0 c6 bc 1a 15 28 3e
       -0.46100408 -0.65919447 -0.024284635 0.164143
000250 15 e0 0d be 37 f9 dc be 5e 53 8b 3e 38 47 17 be
       -0.13855012 -0.43158886 0.27212042 -0.14773262
000260 68 c3 81 be da af c9 be 40 d3 1c 3e 32 c4 d9 3d
       -0.25344396 -0.39391977 0.1531496 0.106331244
000270 d3 85 8f 3c 60 64 ba 3e 83 91 ae bd d8 84 2a bf
       0.017519867 0.36404705 -0.08523848 -0.66608953
000280 c7 79 cf bc 06 c6 ba 3d 72 42 db be bd 76 c6 be
       -0.025326623 0.09119801 -0.4282413 -0.38762465
000290 45 78 58 3d 6a 76 a6 be 45 44 ae 3d 41 77 9b 3e
       0.052849073 -0.32512218 0.08509115 0.3036442
0002a0 25 a6 b8 3d ee 9a e1 3c 94 87 ad bd 9e a5 37 be
       0.090160646 0.027539697 -0.08473125 -0.17934272
0002b0 60 4b 82 be ee 53 66 3e 89 23 11 be b5 d9 03 3f
       -0.25448132 0.22492954 -0.14173712 0.5150407
0002c0 28 9b 5a be 58 e4 1a bf f8 83 b7 3e 7f b3 7c 3d
       -0.2134825 -0.60504675 0.35842872 0.06169462
0002d0 c9 5f cd be 82 d5 a1 3e 96 7c 9f 3d 26 84 09 be
       -0.4011214 0.31608206 0.07787435 -0.13429317
0002e0 b9 d2 d9 be fa 2e 8b 3d 59 cc 58 3e 96 f2 62 be
       -0.4254358 0.067960694 0.21171702 -0.22162852
0002f0 13 90 01 3e aa a3 7c 3d 66 7f 65 be 58 88 96 bd
       0.12652616 0.06167952 -0.2241188 -0.07350224
000300 5b 4c cb be db fc c9 bd 5b 8f 6c 3d 1b db 41 bb
       -0.39706692 -0.098626815 0.057753902 -0.002958006
000310 fd 18 b9 bd 00 05 2a 3e cf 71 46 bc 90 0c 8c bc
       -0.09037969 0.1660347 -0.012112095 -0.017095834
000320 98 98 ae bd ff 6e 39 3e d7 70 bf 3c f5 a9 67 bd
       -0.08525199 0.18108748 0.023369236 -0.056558568
000330 8d b5 aa be 3b 4e 17 3f 14 01 95 3e dc 64 1d be
       -0.33341637 0.59103745 0.29102385 -0.15370506
000340 db c9 82 bd 9e c5 64 be 10 9b ee 3d bb 36 19 3e
       -0.06386157 -0.2234101 0.116506696 0.14962284
000350 ff b6 e6 bd 7b 98 78 3e 32 a3 18 3e 39 3e c1 bd
       -0.112653725 0.24276917 0.14906004 -0.09435696
000360 1d ea 0d be 1f 39 5e bd a5 7e a1 be c7 b3 92 be
       -0.13858838 -0.054253694 -0.31541935 -0.28652784
000370 58 62 33 bf b7 0e 74 3d 88 28 1d be f5 f3 20 be
       -0.70071936 0.059584346 -0.15347493 -0.15718062
000380 88 d7 69 be 73 bc 13 be 02 c0 50 3d 68 c3 ab be
       -0.22836125 -0.14427356 0.050964363 -0.3354752
000390 58 19 d3 be df 72 37 3d 5e 3f c8 3e 3c ef 6a be
       -0.41230273 0.044787284 0.39110845 -0.22942823
0003a0 00 22 a1 bd 4b 5c c2 3e c5 1e 8c 3d d6 dc c5 be
       -0.07867813 0.3796104 0.06841806 -0.38645047
0003b0 99 3f 22 3e 43 21 fe bd 46 20 10 3e f3 1c 65 bd
       0.15844573 -0.12408688 0.14074811 -0.05593581
0003c0 00 49 57 3e ab a6 41 3d 72 51 10 3e a3 2c a5 3d
       0.21023941 0.047278088 0.14093569 0.080651544
0003d0 1a 89 63 bd f6 b9 e2 3c 03 2d fa 3d 44 49 ce 3e
       -0.055550672 0.027676564 0.122156166 0.40290272
0003e0 cc 6e 5a 3d c1 65 87 3e 1b 1f 9f 3e 9c a0 00 3e
       0.05332832 0.2644482 0.3107842 0.12561268
0003f0 4b 09 41 bd 45 11 a7 bd 4f 00 36 3e 63 50 d4 3d
       -0.047128003 -0.08157591 0.17773555 0.10366895

net.2.weight f4 [256, 256]
000000 93 ef 64 bc 8c 94 5c 3e 3e 46 60 bf 81 d4 27 be
       -0.013973135 0.21541041 -0.8760718 -0.16389658
000010 da 9d 53 bf 01 d9 a5 3d 3e 2a 8a bc 82 75 fa 3e
       -0.8266274 0.08098031 -0.016865846 0.48917776
000020 87 6b 33 3f f8 08 5b be 8d 14 44 3e 2e 15 18 3f
       0.7008595 -0.2139014 0.19148465 0.5940732
000030 11 cc 7b 3f 21 87 f3 3c cd 0e 25 be 6f a1 12 3e
       0.98358256 0.02972752 -0.16118927 0.14319395
000040 15 74 af be ed 49 03 3b b2 30 3e 3e 49 01 38 bf
       -0.3426825 0.0020033077 0.18573263 -0.7187696
000050 2b 2d 91 3d e8 d8 f3 bd 16 ea c6 3e b8 31 bc 3e
       0.07088693 -0.11906606 0.38850468 0.36756682
000060 ce 0a 86 bf f5 63 cf 3e 9f 31 a2 bd 8b 5a f7 3c
       -1.0472047 0.4050595 -0.07919621 0.030194541
000070 21 e0 80 bf 3c ca eb 3e 93 1d 24 3f dc 46 ae 3d
       -1.0068399 0.4605273 0.64107627 0.08509609
000080 ca 51 84 3e 38 ac 22 be af a7 91 bf 7d cc 6b be
       0.2584365 -0.15886009 -1.1379298 -0.23027225
000090 0e 70 7c 3d 03 cc 07 be 33 21 93 bd 48 37 54 3d
       0.0616303 -0.13261418 -0.071840666 0.051810533
0000a0 6b 1a 1e be 27 bc 46 bf d1 68 8d bf ed f3 a1 be
       -0.15439765 -0.7763085 -1.1047612 -0.31631413
0000b0 13 ff 54 3e a0 0b 1f be 65 7c 9d be 21 07 0c 3f
       0.20800428 -0.15531778 -0.30758968 0.5469838
0000c0 ed ec 25 3e 35 d7 3d bf 2a 00 00 3f ad 88 57 3e
       0.16203661 -0.74156505 0.5000025 0.21048231
0000d0 43 54 47 be 98 f2 57 bf 45 7c 7b 3e 84 80 94 3d
       -0.19465737 -0.84354544 0.24559124 0.07251075
0000e0 8d cc 44 3e f0 7e 8b bf e3 8b 05 3f 76 01 b9 be
       0.19218655 -1.0898113 0.52166575 -0.36133927
0000f0 63 59 20 3f 2a 9e a8 3e dd 54 84 ba c4 af f7 3e
       0.62636393 0.3293317 -0.0010096092 0.48376286
000100 60 a8 26 3e 69 88 d5 be 6e fd 8c bd 0c aa 2a bf
       0.16275167 -0.41705635 -0.068842754 -0.6666572
000110 03 a3 34 bf fe 40 5f be d7 d4 8c bf d6 2d 55 3d
       -0.70561236 -0.21802136 -1.1002454 0.052045666
000120 65 4b 15 bf 28 68 cc bd 6b 8b e7 bd 1d ae a1 3d
       -0.5831817 -0.09980804 -0.11305889 0.078945376
000130 0a 8d 44 3e 77 85 9e 3e 55 be fb be 54 09 5d bd
       0.19194427 0.309612 -0.4916865 -0.053963974
000140 db 6e 81 3d 74 c6 3e 3e 0b 0e a7 bd d1 9f 41 3f
       0.06319972 0.18630391 -0.08156975 0.75634485
000150 ae 43 59 bf f5 41 bb 3e 4b 8d d8 3e 5e 25 8c be
       -0.84868896 0.3657376 0.42295298 -0.2737226
000160 21 25 ed 3e df 23 19 3e bb 39 44 bf d0 20 54 be
       0.4631739 0.1495509 -0.7665059 -0.20715642
000170 60 85 a5 bf 53 6c bc be f1 76 96 be 98 ff c8 be
       -1.2931328 -0.36801395 -0.2938762 -0.39257503
000180 65 cd be be 9b 54 3c 3e 8f df a5 3e f3 78 67 3f
       -0.3726608 0.1839165 0.32397124 0.9041893
000190 eb 50 d0 3e 61 f5 b4 3e 20 bd 1e 3e 04 f5 bc 3d
       0.40686736 0.3534346 0.15501833 0.092264205
0001a0 27 22 33 bd de eb 8e be f1 35 43 be 52 cd 00 3f
       -0.043733742 -0.27914327 -0.19063546 0.50313294
0001b0 cc 50 01 bf 69 4b a6 be e9 67 90 bc 4e ca 47 bd
       -0.5051391 -0.32479408 -0.017627673 -0.048776917
0001c0 d1 3e 52 3f a7 46 3b 3d 7b 88 56 be 42 34 69 bf
       0.821271 0.045721676 -0.209505 -0.91095364
0001d0 56 e9 ec bb 29 47 b0 3e 6b e2 bb be 53 e2 43 bf
       -0.0072299642 0.3442929 -0.3669618 -0.7651722
0001e0 62 57 3f 3e 60 ca 4c 3e 2a 66 cc 3e ca 65 be bd
       0.18685678 0.19999075 0.39921695 -0.092967585
0001f0 79 17 73 be 4d 28 2e 3d 20 93 27 be e2 84 39 be
       -0.23739423 0.042518903 -0.16364717 -0.18117097
000200 fd a0 bf be 49 19 d1 3d 38 49 2d be b4 45 d9 38
       -0.37427512 0.10209901 -0.16922462 0.000103603496
000210 ed f7 84 3e 47 b4 78 3d fc 21 e0 3e f5 37 f2 3d
       0.25970402 0.0607188 0.43775928 0.11827079
000220 98 fb 05 3e 05 98 87 be 46 ab 0c 3f 3c f3 ad be
       0.13084257 -0.2648317 0.5494884 -0.33974636
000230 20 58 2e bf d1 60 17 be ae d1 a2 3e ea 33 8e be
       -0.6810322 -0.14783026 0.31800598 -0.27773982
000240 8a 3c 16 be 2b 56 5e bf 51 d2 d8 be 81 bd 0f 3e
       -0.14671531 -0.8685023 -0.4234796 0.14037134
000250 c4 21 38 bf 5a 62 4f bf c0 ca 17 bf 0e 32 1d bf
       -0.7192652 -0.8100945 -0.59293747 -0.614045
000260 38 f0 b1 bc 2b c0 ef 3d 55 c5 cc be 52 e5 b0 be
       -0.02172099 0.11706575 -0.39994302 -0.34549958
000270 12 f7 9c 3b d2 12 40 bd 07 4e 85 bd bd 1f d9 3d
       0.0047901953 -0.04689295 -0.06509023 0.10601757
000280 3a f5 32 3e 7e 21 2d be 49 fd bf 3d dd 22 93 be
       0.17476359 -0.16907308 0.09374482 -0.28737536
000290 db 22 e0 be b2 8c 02 be 05 cf 79 3e 6a ad d8 3d
       -0.43776593 -0.12748984 0.24395378 0.10579951
0002a0 7b 91 09 bf 20 d0 7f bd 6b 37 0c 3f ae f2 77 bd
       -0.5373761 -0.062454343 0.5477206 -0.06053417
0002b0 10 d2 e7 be 26 c1 9d 3e 1a 7d b1 3e cb ff 11 3e
       -0.45277452 0.30811423 0.34665757 0.14257734
0002c0 bc 61 13 be be dd 8e 3e 44 30 a7 be 0e 71 8c be
       -0.14392751 0.2790355 -0.3265401 -0.27430004
0002d0 ad c7 e0 3e 5a ee c4 3d 24 9e f4 3e dd f5 27 3f
       0.4390234 0.096157745 0.47776902 0.6560953
0002e0 76 48 9d 3e 27 de c0 3e 6a 91 f5 3e 95 5f 26 be
       0.30719346 0.3766949 0.47962505 -0.16247399
0002f0 be 3b 00 3e 06 7b b9 bc 06 12 6b be 01 d8 f8 be
       0.1252279 -0.02264167 -0.22956094 -0.48602298
000300 94 f0 0d bf fa d5 15 3f e1 97 b5 be cc ba 8f be
       -0.5544522 0.5852963 -0.35467437 -0.28072202
000310 7f da f7 be d0 3c 27 bf 28 0d c5 be 3d c7 d2 3e
       -0.48408887 -0.6532717 -0.384866 0.41167632
000320 44 95 8e be 1d ea 84 3f 2b dc 32 bf 5a 9c 5e be
       -0.27848256 1.0383946 -0.698672 -0.21739331
000330 a9 a4 25 3f 1a 05 c1 bd 83 f7 1f bf 1c dd bf be
       0.64704376 -0.09424801 -0.6248705 -0.3747338
000340 c7 49 6b 3e 4a df 30 bf ac 4d e8 3e 15 0d 60 3e
       0.22977363 -0.6909071 0.4537176 0.2187999
000350 91 c9 e3 3e ce fa ae be 37 48 60 be c5 06 35 3f
       0.4448972 -0.34175724 -0.21902548 0.70713454
000360 4a 81 01 3e 61 3d f1 3d 27 61 98 be 6f 17 1b bd
       0.12646976 0.11779285 -0.2976162 -0.037864145
000370 0d ff ab be 31 09 26 3e 39 0e 09 be 61 36 ea bd
       -0.33593026 0.16214444 -0.13384332 -0.11436153
000380 b1 b6 23 bf 5f ee e5 be aa a7 1b bf 6a ab 2a bf
       -0.6395064 -0.44908425 -0.6080271 -0.6666781
000390 ff 41 0f bf 44 55 c1 be c4 c4 c8 be 28 c6 a3 bd
       -0.5596008 -0.37760365 -0.3921262 -0.0799678
0003a0 31 a5 3a bf ba b8 08 bf e4 d8 46 bc 4a fe ae bd
       -0.7290831 -0.5340687 -0.012136672 -0.085445955
0003b0 93 50 86 be c6 1a c3 3e 06 41 57 bf 44 c2 5d bf
       -0.26233348 0.38106364 -0.8408359 -0.8662455
0003c0 c2 06 1e bd 67 9d dc 3d 4c 60 97 3f ba a9 5f bf
       -0.038580664 0.107722096 1.1826262 -0.8736836
0003d0 2c 35 0e 3f 0b 2f 73 bd 04 be f8 3e 6f 97 8a bf
       0.55549884 -0.059371036 0.4858247 -1.0827464
0003e0 64 be 42 bf 5f 1b 4e be 28 c8 20 bf d9 e2 a3 bd
       -0.76071763 -0.20127629 -0.62805414 -0.08002252
0003f0 0b 2a a4 3d d6 de c3 be 06 1a f5 be 76 1c 83 bf
       0.080158316 -0.38255948 -0.47871417 -1.024306

net.2.bias f4 [256]
000000 85 51 60 be c8 c7 ee bd 92 65 ef 3c 0b 9e 2a 3d
       -0.21906097 -0.11659199 0.029223237 0.041654628
000010 e7 2e 0e bc ad 24 a1 bd 98 14 e7 3d 15 57 31 be
       -0.008678175 -0.078683235 0.11283225 -0.17318375
000020 eb f6 90 3e 70 be d0 be 24 5d d6 3e 0d a2 46 be
       0.28313383 -0.40770292 0.41867936 -0.19397755
000030 3c dd 6d 3e 93 a8 18 bf 20 e0 51 3e db 3c 9a 3d
       0.23228925 -0.59632224 0.20495653 0.075311385
000040 d1 df 30 bd 6a 31 01 3e 5e 50 84 3e 11 b4 f8 be
       -0.043182198 0.12616506 0.25842565 -0.4857488
000050 b1 ee bd 3d 02 65 03 bc 15 1e e1 3d 7f 1f 49 3c
       0.092740424 -0.008019688 0.10992066 0.012275576
000060 82 e6 90 3d 57 f6 7b bd 19 70 9b 3d 54 a2 76 be
       0.07075216 -0.061514225 0.0758974 -0.24085361
000070 f6 9e 44 bd fb 98 e9 bc f0 46 93 3d 62 c8 b3 be
       -0.04800316 -0.02851533 0.07191265 -0.35113817
000080 48 b2 17 3e 66 19 d5 3c bb ee 1a bd f0 19 3e bf
       0.14814103 0.026013087 -0.037825327 -0.7425833
000090 ef 76 68 bd d4 34 dc be bd 4f 68 3c 61 98 34 bf
       -0.05675405 -0.43009055 0.014179167 -0.7054501
0000a0 c1 27 7d be eb ff db bd c0 3c b3 3d 11 91 66 3e
       -0.24722196 -0.10742172 0.087518215 0.22516276
0000b0 8b 98 4b 3d 20 9e d0 bd 45 9e 7c be 29 99 e8 bb
       0.049706023 -0.1018641 -0.2466975 -0.0070983362
0000c0 ac 96 00 3e 9b 8a 8c bd 8c fe be bd 9c a7 5b be
       0.12557477 -0.068623744 -0.09325895 -0.21450657
0000d0 7d a3 41 3e 5c dd 22 bd a2 11 3f be 04 fd da be
       0.18910022 -0.039761886 -0.1865907 -0.4277116
0000e0 2c 64 e3 be d6 77 ad 3c 70 e2 a5 bc d5 11 63 3e
       -0.44412363 0.021175306 -0.020249575 0.22174771
0000f0 37 7f 87 3e a8 6e 82 3d 36 2c 83 3e 49 fa 91 bd
       0.26464245 0.06368762 0.25619668 -0.07127816
000100 fe ed 83 3e 72 4e 88 be c4 18 6d bd 13 e6 06 be
       0.2576751 -0.2662235 -0.057884946 -0.13173704
000110 9f 1a c7 be 4e cb 9e 3d 4b df 08 be 9f 93 29 bd
       -0.38887498 0.07753621 -0.1336643 -0.041400548
000120 61 32 c0 bd f1 4f ed be 8d 85 64 be 73 7f cd 3d
       -0.09384609 -0.46350053 -0.2231657 0.10034075
000130 ba 90 9b 3d ad 59 20 be 77 78 7d 3e e8 cf fc 3d
       0.07595964 -0.15659209 0.24752985 0.123443425
000140 33 a9 a9 be 58 2c 8e 3c bc 6d 9e 3e 3c 09 6f 3e
       -0.331369 0.01735513 0.30943096 0.23343366
000150 15 54 92 3e 2f b5 b1 3c 1b 21 d6 bd 36 01 53 3e
       0.28579774 0.02169284 -0.10455533 0.2060593
000160 f8 00 cd 3d a2 1d d0 3d 93 b8 a9 be a7 83 80 3e
       0.100099504 0.10161902 -0.3314863 0.25100443
000170 df 5c b3 bc 7e 2a 7e 3e f2 e9 c5 3d d3 2c cf be
       -0.02189487 0.24820897 0.09663762 -0.40463886
000180 4d d9 ea 3d e2 32 75 3e 8c e1 c9 ba b9 dc 60 be
       0.11467228 0.23945192 -0.0015402301 -0.21959199
000190 f2 b0 01 3c f4 56 af 3d 69 10 02 be 97 e5 26 3d
       0.007915722 0.08561507 -0.12701572 0.040746298
0001a0 20 a5 d7 bd b7 fd 0d 3d 62 d8 0b 3d 82 5d 0b 3e
       -0.10529542 0.03466579 0.034141906 0.13609889
0001b0 45 90 96 3e 8b 8a 40 3b 50 d9 ef 3d de 31 9c bc
       0.29406944 0.0029379453 0.11711371 -0.019066747
0001c0 65 de bc 3b d5 66 94 3e f1 98 63 3e 05 08 a9 be
       0.005763816 0.28984705 0.22226311 -0.3301393
0001d0 4b d0 a8 3e 90 96 65 bd 9b 75 07 bc 85 12 82 3e
       0.32971415 -0.05605179 -0.008267785 0.25404754
0001e0 51 e5 50 3d 2f 45 8a be f3 65 19 3e 99 ed 65 bf
       0.050999943 -0.27005908 0.14980297 -0.8981567
0001f0 02 ef 00 be 7f 74 25 3e 54 28 38 3e a9 b9 0d bf
       -0.12591174 0.16157721 0.17984134 -0.5536142
000200 5a dd 10 3e f2 e4 b5 3e 77 a1 50 be 14 d7 e6 bc
       0.14146939 0.35526234 -0.20374094 -0.02817873
000210 a9 09 47 3d aa 88 a9 be 30 62 28 3d 9c 1a 80 3e
       0.048593197 -0.3311208 0.041109264 0.250203
000220 68 28 27 3e 8b 47 78 bd c1 8f 75 3d 4d e1 aa bd
       0.16324008 -0.060615104 0.059951548 -0.08343754
000230 63 64 02 bf 4b f7 d5 3c 44 ca a6 3e 54 52 85 bd
       -0.5093443 0.026118895 0.3257619 -0.065098435
000240 dd 14 08 bf e5 27 22 3d f0 7f a4 3d 00 b7 88 3d
       -0.53156835 0.039588828 0.08032215 0.066755295
000250 51 99 3b 3e 36 f0 19 be e7 65 bc bd a7 2f 86 be
       0.18320204 -0.1503304 -0.09199124 -0.2620823
000260 eb 6e 4c 3e 2d 06 1e 3e db 2e 7a be 1b 04 31 bd
       0.19964187 0.15432043 -0.24431936 -0.043216806
000270 0d 9f 8e 3c b2 ad a6 bd dd 8e 0f bd f1 22 8a 3e
       0.017409826 -0.081385985 -0.035048354 0.26979783
000280 d7 40 20 3e 03 ea f4 bd bf cc da 3d 0d 22 88 3b
       0.15649734 -0.11958697 0.106835835 0.00415445
000290 0f 91 c3 3d c9 f8 1a 3d ff 58 54 be 53 f9 42 3d
       0.09549152 0.037834916 -0.20737074 0.047601055
0002a0 04 d8 ec bd 4a d5 11 3e a2 d7 ee bd 20 ad bf bc
       -0.11564639 0.1424152 -0.116622224 -0.023397982
0002b0 a2 e0 3a 3d 90 15 b2 bd 09 9c 0e be 17 37 58 3d
       0.045624383 -0.08695519 -0.1392671 0.052786913
0002c0 d6 3b 2d 3e a2 ea 87 3e 70 ca 52 3e df cd 1b 3e
       0.16917357 0.26546198 0.20585036 0.15215252
0002d0 92 f0 06 be 66 b4 3b 3e c0 a7 d7 3c f9 6e 89 bc
       -0.13177708 0.18330535 0.026325107 -0.016776549
0002e0 9e e5 0b bf 04 42 26 3e a8 dd 35 3e 65 ee 4d be
       -0.54647243 0.1623612 0.17760336 -0.20110472
0002f0 0d 1b 21 3d 29 fd 8c 3e 8f 31 87 3d 53 b4 e8 bb
       0.03933244 0.27536896 0.066012494 -0.0071015744
000300 1e 41 ce be 41 07 ab 3e 85 9d 4e be 45 27 a9 bd
       -0.40284055 0.33403972 -0.20177276 -0.08259443
000310 c8 7b 7e bd 0d a5 71 be a0 c2 e4 bd f2 d0 a4 3c
       -0.062129766 -0.23598118 -0.11169934 0.020119164
000320 36 3d ac 3a ac db 16 bd 6b cc 56 3d db e7 7e be
       0.0013140801 -0.03683059 0.052441042 -0.24893133
000330 c3 a4 ec 3d a1 01 a8 3c e4 b5 64 3e b2 87 06 bf
       0.11554863 0.02050859 0.22335011 -0.52550805
000340 e9 01 f2 3d 03 f5 bf 3e f8 e1 ee be c9 c6 5d bd
       0.118167706 0.37491617 -0.46656775 -0.054144654
000350 2c a6 98 bf 36 50 7d 3e ce 07 f2 3d d5 e9 30 3d
       -1.1925712 0.2473763 0.11817895 0.04319175
000360 83 67 28 3e 2d 6d 2c 3e 8c 77 53 bd 2f f3 57 bd
       0.16445737 0.16838522 -0.05162768 -0.052722152
000370 99 d6 7b bc de 27 66 be 95 d2 47 3e 69 ac 42 3e
       -0.015370988 -0.22476146 0.19513924 0.19011082
000380 56 b0 23 be 9f e8 0c be b0 30 2c 3e c9 a3 67 be
       -0.15985236 -0.13760613 0.16815448 -0.22621073
000390 28 da 00 bd a2 12 ab bc 97 a6 0a 3c 31 b4 35 be
       -0.03145805 -0.020882908 0.00846257 -0.17744519
0003a0 c6 33 d3 be 69 42 f7 3b 1a 6a 73 be 03 74 87 be
       -0.41250437 0.0075457585 -0.23770943 -0.26455697
0003b0 1f b5 0b be a5 0b 3d be 66 4a da bc 8b 9c 08 3f
       -0.13643311 -0.18461473 -0.026646804 0.53363866
0003c0 6d 92 36 3e 51 3c 16 bf a2 e8 58 3e 24 19 fb 3a
       0.17829295 -0.58685786 0.21182492 0.0019157273
0003d0 70 cf 15 3e 21 cb d5 3d c2 6b a6 be 39 52 91 3d
       0.14629912 0.104391344 -0.32504088 0.07095761
0003e0 d6 ae 61 be a6 60 fd 3d 9e ad 1b 3d 14 8a d2 bd
       -0.22039351 0.1237195 0.03800737 -0.102802426
0003f0 c7 1b 00 bf 14 11 b0 be 1b f8 a6 be 55 79 32 3d
       -0.50042385 -0.3438803 -0.32611164 0.043572742

net.4.weight f4 [2, 256]
000000 d1 be 24 41 01 54 36 bd 5f 84 c5 bd c2 0a e3 c0
       10.296586 -0.044513706 -0.096443884 -7.095063
000010 62 2c fe be d6 96 41 40 16 e7 07 c0 a8 d6 29 3f
       -0.49643236 3.0248313 -2.1234794 0.66343164
000020 d4 eb af 3f e7 52 fc 3d 0f 6f dd 3d b1 61 fd be
       1.3743844 0.123205 0.10812198 -0.49488595
000030 3c 7d 23 3f fc e0 99 bf 48 92 a9 3d 32 69 81 bc
       0.6386297 -1.2021785 0.08279854 -0.015797231
000040 2a e1 4a 3d 3f 2a cd bf 83 7c 45 bf 6c af b9 3f
       0.04953114 -1.6028517 -0.77143115 1.450666
000050 54 f4 c5 bf 8c 3c 10 3e 7a de cc 40 1b dd 2b bd
       -1.5465188 0.14085597 6.402158 -0.04195891
000060 30 b9 ef 3f b1 e5 13 40 e4 dd 04 3f 10 e8 ab bf
       1.872839 2.3108943 0.5190108 -1.3430195
000070 f1 b7 35 be 10 03 13 3f af 3a 3b be 81 b2 23 be
       -0.1774595 0.5742655 -0.18284105 -0.15986063
000080 ed 8f 2b bf 2d 3a e7 bc da 9d e5 3c 06 36 30 bf
       -0.6701649 -0.028225983 0.028029371 -0.68832433
000090 40 b7 97 bd eb fe 74 bf 15 a8 50 3e 4c 63 10 40
       -0.07407999 -0.95701474 0.20376618 2.2560606
0000a0 90 5a c3 3e 0e c6 a5 be 69 ff c0 bf 94 fd bd be
       0.3815503 -0.32377666 -1.5077945 -0.37107527
0000b0 b6 b4 77 bf cc 5d ea 3f fd 33 ed 3e 77 0e 34 be
       -0.9676012 1.8309875 0.46328726 -0.17583643
0000c0 06 63 5f c0 8b 99 10 41 89 a8 b3 bf d3 3f a2 3e
       -3.490419 9.037486 -1.4035808 0.3168932
0000d0 7a d2 9e 3f 69 51 d4 3c 63 8a 0b 41 a5 28 32 bf
       1.2407982 0.025917726 8.721286 -0.6959327
0000e0 e9 32 22 3f f0 c1 82 3f 20 3d ac 3c dc 00 24 c0
       0.6335893 1.0215435 0.02102524 -2.5625525
0000f0 d3 c2 ad be e8 ac ca 3c b7 e0 87 bf cc 0e 37 bf
       -0.33937702 0.024740651 -1.0615453 -0.71506953
000100 3d 21 42 bf 1f 8f c0 be fe 13 f1 bc 62 01 01 3f
       -0.7583197 -0.37609193 -0.029428478 0.50392735
000110 69 a3 a3 3e ed d2 de bd 72 90 79 bf 80 7b 80 bc
       0.3196061 -0.10880075 -0.9748603 -0.01568389
000120 1a 59 07 bf 9f 14 91 be 25 d0 fe 3f 52 df 2b bf
       -0.52870333 -0.28336045 1.9907271 -0.67137635
000130 60 82 84 c0 a0 86 7e bd 66 62 82 bf 2d 41 38 40
       -4.140915 -0.062140107 -1.0186279 2.878978
000140 ba 7a 84 3f bd ed fd be 08 45 a8 3f f7 83 55 be
       1.0349953 -0.49595442 1.3146067 -0.20851122
000150 a3 64 11 c0 ff a7 68 3e e6 ea 81 bf b1 fe a4 3f
       -2.2717674 0.22720335 -1.014981 1.2890226
000160 68 a2 27 3f 17 11 c3 be a4 35 c1 be d0 9b 65 c0
       0.6548219 -0.38098976 -0.37736237 -3.587635
000170 d8 1a 22 3f 60 7b 03 3f ff 83 f3 bd 4c 27 a5 bf
       0.6332221 0.5136013 -0.11890411 -1.2902617
000180 89 0a 26 c0 2d 8e dc c0 4d 68 a2 40 33 ae 2d 3e
       -2.594393 -6.8923554 5.075232 0.16960983
000190 4f 2c 70 bf 77 1c ee be 87 47 bf 3e 06 93 74 3a
       -0.9381761 -0.46506092 0.3735926 0.00093297695
0001a0 d5 6f 77 3f 3d 4f 01 40 c9 75 d2 be cd 29 97 3d
       0.9665502 2.0204613 -0.41105488 0.0738102
0001b0 49 69 8d 3e fc 08 09 41 2e 53 59 bf d2 ee 3e 3b
       0.2761939 8.564693 -0.8489255 0.0029134047
0001c0 54 c1 86 3e 28 52 1b 3f 7b f7 e1 be 7f e0 57 c0
       0.26319373 0.60672235 -0.44134125 -3.3730772
0001d0 75 ce 84 bc 43 f5 b6 40 36 be 91 bc f2 99 38 c1
       -0.016211728 5.717439 -0.017790895 -11.537584
0001e0 31 7e fc be b4 6b fc 3e f2 bc 9f be 3a 2a d9 bf
       -0.49315026 0.4930092 -0.3119884 -1.6966012
0001f0 65 cb f7 3d e3 b7 17 c1 8d a3 37 3e f1 fc b2 3f
       0.12099341 -9.482394 0.17933483 1.3983442
000200 77 a0 2d 3f 66 3e c7 bf f6 99 d8 bc 58 dc 30 3e
       0.67822975 -1.5565917 -0.026440602 0.17271554
000210 5a c1 82 bf f8 e3 b1 3f 5d e9 12 be b2 94 87 40
       -1.0215256 1.3897696 -0.14346834 4.2369013
000220 4d 6c 22 c1 76 41 8a 3e 44 f7 de 3d a9 55 29 bf
       -10.151441 0.27003068 0.10887006 -0.6614633
000230 5e c2 9a 3f fe f1 3e 3d 94 b6 56 3e 0f f4 87 bf
       1.2090566 0.0466175 0.20968086 -1.0621356
000240 f1 f5 f6 3e eb 62 ba 3b 59 44 06 c0 dd ef 8f 3f
       0.48234513 0.0056880615 -2.0979216 1.1245075
000250 89 ef a7 c0 30 7b c5 bf fb d6 27 c0 13 6f 63 bd
       -5.24799 -1.5428219 -2.6224964 -0.05552585
000260 66 81 c3 bf 84 61 c6 40 18 31 92 be 5c 3a 92 c0
       -1.5273864 6.199404 -0.2855308 -4.569624
000270 6f c9 05 3f d1 cf f3 3e 1d 40 d0 3c 6a 77 eb be
       0.5226049 0.4761949 0.025421197 -0.45989543
000280 46 ea ba be 20 f1 86 3f 12 94 13 3e e2 2c 07 3e
       -0.3650686 1.0542336 0.14411953 0.13200715
000290 98 15 89 be 5d cd 0e bd 0d 75 72 bf 78 38 9d c0
       -0.26774287 -0.03486382 -0.94709855 -4.913143
0002a0 7f d4 a5 be f0 5d 8f 3f 71 df 99 3f ac 40 a9 40
       -0.32388684 1.1200542 1.2021314 5.2891445
0002b0 7c a2 f4 3e 6b ad cf 3f 91 02 af 3f fc 8d 9e 3f
       0.47780216 1.6224798 1.3672658 1.238708
0002c0 80 02 1d bf 4f e4 fa bd b6 25 97 be 92 36 ee bf
       -0.6133194 -0.12250578 -0.2952096 -1.8610404
0002d0 2c 6f 10 3f ea 8f 31 be 37 07 dc bd 38 ed a0 40
       0.56419635 -0.17340055 -0.107435636 5.0289574
0002e0 d7 98 77 bf 7b 78 6e 3d ed b0 21 3f f6 3a 47 3e
       -0.9671759 0.058220368 0.6316059 0.19456086
0002f0 86 42 e7 be 0e bb 2f c1 53 58 88 3f cf 44 4c bd
       -0.4516794 -10.983168 1.0651954 -0.04987031
000300 91 8f 1f 40 79 fb 09 c0 ae 8d 1d 3f 65 e9 7f bd
       2.4931376 -2.1559737 0.6154431 -0.06247844
000310 25 0e ec 3e 46 b9 4b 3f 82 50 49 c0 b5 54 01 40
       0.4610454 0.7957958 -3.1455388 2.020795
000320 19 cf 84 c0 4a 33 c7 3f 42 d7 93 40 d7 71 8a bf
       -4.1502805 1.5562527 4.6200266 -1.0815991
000330 c2 04 88 bf e1 06 a5 40 5b 46 7d c0 c1 af 87 3e
       -1.0626452 5.1570897 -3.9574192 0.26501277
000340 ee 08 0d 41 eb 9e e8 3d f5 1a fc 3e 82 84 f2 3d
       8.81468 0.11358436 0.49239317 0.1184168
000350 35 ea 14 c0 9b cf 34 3e bc 5c 62 bf 36 25 fe be
       -2.3267949 0.1765732 -0.8842275 -0.49637765
000360 08 3f e4 c0 37 e7 3c bf 7e df 05 bf ba 22 7a be
       -7.1326942 -0.73790306 -0.52294147 -0.2442731
000370 58 65 15 3f 92 64 02 c0 69 e6 9d be 53 5a bb be
       0.58357763 -2.0373883 -0.30839851 -0.3659235
000380 93 fb 9b 3e 8e f2 9c 3e f9 51 51 c0 7b 83 89 bf
       0.30465373 0.30653805 -3.2706282 -1.074325
000390 c4 78 94 3c 9d f3 08 c0 2b a0 8f bc 5b 25 47 bd
       0.018123992 -2.139869 -0.017532429 -0.04861961
0003a0 79 93 2a be 1e 08 39 3f 0c 8f 3d 3e 2c 76 04 3e
       -0.16657819 0.7227801 0.185116 0.12935704
0003b0 0a 1a 85 3e 9b 1f 90 40 6a de 82 c0 ab bc a6 bf
       0.2599643 4.503858 -4.08965 -1.3026327
0003c0 63 38 9a bf 04 48 37 3f dc 7f 18 be 01 37 ce 3f
       -1.2048458 0.7159426 -0.14892524 1.6110536
0003d0 76 fe f1 bf 8d 68 44 40 3f 88 bb 3f 33 02 9f 3f
       -1.890578 3.0688813 1.4650954 1.2422546
0003e0 b1 fe fd 3e 89 00 7d 3f 60 08 62 3e 6b 8b 54 bf
       0.49608377 0.9882894 0.22073507 -0.83025235
0003f0 05 5c c7 bf e6 87 1d bd 33 17 f2 3f cc c6 0f 40
       -1.5574957 -0.03845968 1.891333 2.2465086

net.4.bias f4 [2]
000000 47 39 cb be 3e 1f 59 3d
       -0.39692137 0.05300831
