manually_saved_runs/no_offset_ddpg_2/task_params.npy (npy, 2048 bytes, 1 tensors)

array f8 [120, 2]
000000 00 37 9b d4 6d f5 91 bf 74 be 81 e0 2e 90 94 bf
       -0.017537799931964138 -0.020081264927681322
000010 a7 1e 35 89 4d 4f b4 bf 8a 96 32 c7 ff 22 b0 bf
       -0.0793350658396955 -0.06303404439185037
000020 60 c2 2a 7b 33 ed c4 3f f7 6f a9 23 47 ec bf bf
       0.1634888030435091 -0.12469906445170396
000030 77 ba 6f db 81 19 c4 3f 3d 94 38 9e bf bb b8 3f
       0.1570284196345317 0.09661481488053965
000040 27 be fe 24 e6 e6 c2 3f 5c 95 82 9f 4d 1b c4 bf
       0.14767147833252744 -0.15708322800234498
000050 c7 57 7e 63 ea 9c b6 bf 00 14 ff cd c6 5d 5a bf
       -0.08833184174576934 -0.0016092721416367528
000060 13 45 de 01 21 7a c1 bf 27 48 2a b3 cd 6c 9d bf
       -0.1365395793077729 -0.02873536497151732
000070 5a 78 f9 e1 3f d1 90 3f 33 c2 6f c9 1f f1 90 bf
       0.016423223655117482 -0.01654481570216344
000080 d7 c1 d6 3c 35 30 c8 bf 6d 4b 0c f0 45 c2 ba bf
       -0.18897119017266448 -0.10452687368915088
000090 8d cf 81 5b 46 ed b1 3f 15 13 74 83 04 16 c9 3f
       0.07002677663859753 0.1959844247686752
0000a0 43 b9 83 3e 10 36 c0 bf 73 9d 53 a0 7e e6 a2 3f
       -0.1266498856779866 0.03691478449928356
0000b0 da 7e 6a dc 44 26 b1 bf 8d b7 7e 1f 57 05 af bf
       -0.06699018841981844 -0.060587618441203174
0000c0 4f 90 63 b6 be 55 c9 3f 5a a4 89 37 a2 59 9a bf
       0.19792922883709926 -0.025732550277471546
0000d0 4b fa b5 f6 f3 81 c1 3f f4 8d c7 88 27 e1 98 3f
       0.13677835031917804 0.02429639599166751
0000e0 c7 3f 1e 98 ce 31 c8 bf 57 80 91 9b 54 a9 c1 3f
       -0.18901998927731098 0.13798005672561217
0000f0 82 80 88 92 f1 12 c9 3f e5 5b 92 26 8e 1b c3 3f
       0.19589061407987535 0.14927842028984553
000100 00 b8 5e 0f f1 65 c9 3f 1a 14 ba c9 4c 7f a5 3f
       0.19842351198661845 0.04198684656606862
000110 cd 98 08 b0 38 23 6c 3f 32 ef b2 06 21 67 c5 bf
       0.0034347636394783444 -0.1672097475728776
000120 e7 0a 41 3a 4c 99 9b 3f cd 17 ce dc 8b 98 9c bf
       0.026951972060724663 -0.027925668098326462
000130 c0 51 92 72 42 5d aa bf e7 27 96 4d 86 56 85 bf
       -0.05149276398256886 -0.010418938868287554
000140 8f 1e 4c 64 0b b4 c3 bf 5d 76 6a 96 4b 21 b0 bf
       -0.15393202206927412 -0.06300804540884415
000150 84 7e 12 0d eb 5c b5 3f 34 ff db 67 16 a7 c7 bf
       0.08344906872889096 -0.18478660651452972
000160 47 4a 52 76 5a fe ad 3f 9a db 29 d2 22 cf 93 3f
       0.058581187194381594 0.019344848706591124
000170 2d cf 0a d2 1b 46 bd 3f b7 a5 dd 81 c1 a2 be bf
       0.11435102346405009 -0.11967095776130675
000180 1d 35 27 14 9e e7 be 3f 8d e7 41 58 c8 d7 bf 3f
       0.12072170249958387 0.12438633112642901
000190 f3 6d 5f 8c 42 19 a3 bf 1a 0e 6f 4c 18 1a bf bf
       -0.0373020931581002 -0.12149192682323254
0001a0 d0 c1 03 69 12 33 c2 bf 0a 4b c8 00 24 83 c1 bf
       -0.14218359115285617 -0.1368145946331299
0001b0 f4 93 0c d7 5a 77 99 bf 84 b6 6d b4 4e b8 b5 3f
       -0.02486936509662381 0.08484355835909169
0001c0 a0 5b 66 06 e2 29 b3 bf 4d 1c 58 a4 f3 02 b9 bf
       -0.07485783249135958 -0.09770128977116706
0001d0 bd c0 8c 11 79 a9 b4 3f 2a cc 7a 61 86 d7 b7 bf
       0.08071095159971527 -0.09313239936709353
0001e0 b3 f6 c9 d5 98 c7 c2 3f 0a 95 a0 89 27 03 ba 3f
       0.1467162174121107 0.10161063299218057
0001f0 48 7a 0b 2f c4 34 c1 3f eb a8 f2 84 c8 57 c0 bf
       0.1344228009902102 -0.12767893306347075
000200 ad 18 dc db 25 08 b8 bf f7 cf 93 d9 4c 31 c1 bf
       -0.09387432687444415 -0.13431702255149933
000210 e0 57 7e 6c b8 11 a7 bf 74 bf 47 20 ab b5 b9 bf
       -0.04505707096465961 -0.10042829073040399
000220 54 4a 14 09 10 d2 bd bf 17 43 5e b4 f4 de c8 3f
       -0.11648655149137116 0.1943040734008938
000230 2d 62 14 32 03 c5 af 3f da ec 66 e7 88 0a 9d 3f
       0.06204996095965885 0.028360499499950766
000240 6a 17 46 34 82 6a b4 bf 7d a1 13 4c 8d c4 c4 bf
       -0.07975019241538708 -0.16224828924829274
000250 70 bb 5d 40 a9 80 c1 bf 33 35 da af b1 1e b1 3f
       -0.1367389263427543 0.06687460463782173
000260 c3 ef f6 70 74 c3 c0 bf f3 9c ad 98 42 20 c0 3f
       -0.13096480861520207 0.12598450140942638
000270 55 54 45 d9 98 18 c6 bf ad f2 7f be 23 06 c4 bf
       -0.17262564286162055 -0.15643736650226484
000280 a7 99 56 07 b4 6d bb bf 90 58 f5 ba e6 d3 b2 3f
       -0.107142688552449 0.0735458570901264
000290 60 d4 a9 2f a6 ef ba 3f 17 da 91 9a f8 5e bd bf
       0.10521925605446958 -0.11473039411234996
0002a0 20 88 55 5e cb 68 ad bf 9d 1e 44 09 ab 45 c5 3f
       -0.057440142884630285 0.16618860199399857
0002b0 2d b6 3d ec 4d 79 bb 3f 34 1b 5e 15 32 5f a6 3f
       0.1073197080383685 0.04369503508410447
0002c0 da 83 5f b6 14 4e a2 bf 4d 4b 96 73 52 59 9a bf
       -0.03575196005090904 -0.025731361679912457
0002d0 4d 83 40 55 8a 28 99 3f c7 96 fb d3 75 65 c2 bf
       0.024568711713189462 -0.14372132158967174
0002e0 27 70 c5 61 c9 4b c2 bf 73 9d 27 ac 36 a7 a0 bf
       -0.14293782495485738 -0.03252573825357787
0002f0 0a 95 f1 9a fa 37 b1 bf a7 67 ca 8e 6a 3e 9e 3f
       -0.06726042063526819 0.029534974065064692
000300 10 f6 77 e7 2f 5b bf bf f4 b5 75 96 90 6c 9f 3f
       -0.12248515511597469 0.030687579329812878
000310 aa 1e 6d fb ee 32 c1 3f 3a 6f 23 79 29 b3 b8 bf
       0.13436686779663393 -0.09648379523735864
000320 70 6e e1 a3 b8 45 c8 3f b4 e6 89 e4 13 2d a4 3f
       0.1896277237127495 0.03940641560343519
000330 6d 79 06 da 6c 8f c6 3f 9a 47 9e 00 d9 2b 93 3f
       0.17625198980108384 0.018721953070389576
000340 83 26 20 53 91 d8 b2 bf 7d 3f 11 ed ea 7a c9 3f
       -0.0736170604651765 0.1990636498981039
000350 d7 76 f6 a6 4a 3e b5 bf aa c0 a3 e9 35 d5 ba 3f
       -0.08298174453963313 0.10481583551495768
000360 37 08 e5 e0 08 0c c1 bf e5 0f 64 d9 ed 34 c1 bf
       -0.1331797693365517 -0.13442776789463476
000370 f0 ab 10 07 c8 6b b0 bf cd 1e d2 60 44 ec ac bf
       -0.06414461300361984 -0.056490074938719916
000380 87 8c 36 c6 ba df c8 3f 94 07 ee e6 74 ee bd bf
       0.19432768514989027 -0.11691980970320365
000390 a2 5b 7f c7 10 5f c0 3f a7 1b 4f e5 96 0c a0 bf
       0.12790117016876673 -0.031346049777816014
0003a0 64 41 93 45 dd 5a b4 3f 9d f6 df 0c f0 4b c1 3f
       0.07951147984136281 0.13512993458418956
0003b0 ba cf 97 da eb 4c a0 bf aa fc c9 97 35 1b b8 3f
       -0.03183686297771211 0.09416518169199387
0003c0 0d 8a 81 fd 4d a3 9a bf 83 9c 4e 0c 83 92 c0 3f
       -0.02601358279970083 0.12947118855410986
0003d0 5f ba c2 71 e8 9d c8 bf 57 32 7c fa 21 f5 c1 bf
       -0.19231896929473444 -0.14029335718841437
0003e0 0f 53 0d 4e af e2 c5 bf 6d ba 3d 96 7a da c8 bf
       -0.17098037062773883 -0.19416744552605128
0003f0 b4 84 f7 79 b7 a1 9e bf a0 d8 fc a3 9b f4 a6 bf
       -0.02991377527167023 -0.044834960716273686
000400 70 4c 88 c8 2f b7 c7 3f e7 ad 80 1e 82 b3 b4 bf
       0.18527791301366703 -0.08086407894796076
000410 44 c3 90 f3 a4 03 b5 3f 14 b0 b8 10 6a 3a a8 bf
       0.08208685823843803 -0.047320665875617035
000420 1a 89 da 0d fe bd 9a 3f 4b 06 58 9c af d8 c2 3f
       0.026115388484535186 0.147237731303948
000430 0a ca 5c 82 7e e2 b5 3f cd 28 e0 48 ca 3c b5 3f
       0.08548727686574167 0.08295883444967274
000440 cc 79 eb c8 63 65 c8 bf f0 4d b0 0b ca d7 bd 3f
       -0.19059417067087592 0.11657393250816717
000450 bf 52 c6 b5 51 0b c3 bf cd 87 d9 8f 8c 7e b6 3f
       -0.14878293395726946 0.08786848556476841
000460 4d 3c 8f 54 a9 19 9d bf b7 e6 45 0f 10 06 b2 bf
       -0.028418203149893895 -0.07040500996472586
000470 90 58 68 5f 09 fc be 3f e5 d3 96 bf 18 ab c7 bf
       0.12103327349936621 -0.1849089560979841
000480 f2 b2 84 c8 65 0a c3 bf a0 5f 77 d3 37 74 a7 bf
       -0.14875480929313017 -0.04580854851127403
000490 f0 2c 79 d9 c1 8d bd bf d3 68 a9 04 0c 4f b0 bf
       -0.11544429358871233 -0.0637061606770744
0004a0 3d cb 74 8b e2 ab bc bf c0 bb d4 89 e5 79 ad bf
       -0.11199775604908964 -0.05757062251574707
0004b0 e7 d8 e5 9a 66 5d 98 bf 27 c5 22 2b e1 f4 98 3f
       -0.023793795780385898 0.024371641404916346
0004c0 9d d7 51 cf f5 48 b5 3f e7 e5 cd 68 25 f5 ae bf
       0.08314453422084829 -0.06046406654690966
0004d0 2d 40 99 87 96 d1 a1 3f 12 d7 0f 53 16 d7 c0 3f
       0.034802154591148195 0.13156394057994497
0004e0 80 b9 bf ac a9 69 b0 3f ea 6b 2f 64 2f fc b4 bf
       0.06411228625777277 -0.08197303958824845
0004f0 64 9b 6c 49 f8 e2 b9 3f 7a 33 84 1d f4 27 a5 bf
       0.10111953537544377 -0.04132044658954377
000500 cd 91 08 fa 67 97 99 3f c4 43 1c 82 c5 f1 c7 bf
       0.024991631160576056 -0.18706578114554706
000510 ff b8 eb b8 cb f2 c7 bf 4f 6c 18 29 c9 31 c2 3f
       -0.18709703950248266 0.1421443415318628
000520 a3 48 a3 8e f3 f7 b0 bf 94 d8 50 7d 5a 0a c9 bf
       -0.06628343803757501 -0.19562846297202852
000530 cd 2d 67 4f 8d dc ad bf 14 13 c7 87 18 20 c4 bf
       -0.058323303168062425 -0.15722948674933745
000540 67 41 f9 00 54 27 ad bf 10 99 e8 e6 82 2b c3 bf
       -0.056940674895147585 -0.1497653605922058
000550 6d 11 5e 0f b5 b0 b9 bf 67 ec f8 80 3e 10 7b bf
       -0.10035258889371841 -0.006607288508855814
000560 2a f2 64 c4 ef f4 b3 3f 04 53 e4 38 82 9d bb bf
       0.07795618576796728 -0.10787214173280907
000570 6d c4 33 b6 b7 c5 bb 3f ed 15 13 42 05 8a ba 3f
       0.10848568151756562 0.10366852629802965
000580 cd 3d cf c5 09 01 aa bf a7 ba 67 7a 02 4d a1 bf
       -0.05078917064349362 -0.03379066223339083
000590 9a 93 d1 39 7e bc bd 3f 5f 14 9e 7d fb e3 c7 bf
       0.11615742599094717 -0.18664497026125823
0005a0 20 4e 46 88 8e e4 a8 bf 6d f6 0c 6e 5c d8 c1 bf
       -0.048618749747358914 -0.1394153153759591
0005b0 17 2b 8f 0c fc f8 b0 bf 14 5f a4 ff 39 85 a3 3f
       -0.06629920298216195 0.03812581296568687
0005c0 dd 65 da 06 b5 2d be 3f c0 ad e9 5c 5a 37 b9 3f
       0.11788493554413244 0.09850086944941605
0005d0 1a ba 10 fa 48 da 82 bf 17 0a 70 6e b6 4a bf 3f
       -0.009205408221615353 0.12223377414924418
0005e0 9f 92 5d 98 dc bc c5 bf c0 39 ae cb db 4f b3 bf
       -0.16982610168192466 -0.07543729517622122
0005f0 4b 7c 27 5e 1a 8e c0 bf f2 ce 6d c8 17 f7 c8 bf
       -0.12933663937926307 -0.1950406769425324
000600 3a d8 13 39 48 f4 c6 3f 7f 81 0c 7b 16 6c c3 bf
       0.1793298987101382 -0.15173607834095645
000610 a0 98 5b 9b 0a 87 b5 bf 4d df 27 eb 3f e8 bd 3f
       -0.08409181874194127 0.11682509890658573
000620 04 7e de 8f 39 c9 b4 bf cd 0c d1 34 2a 6d 59 3f
       -0.08119544756345226 0.0015519058390658814
000630 f4 a5 af 63 59 1e b5 3f e7 ac c1 5b cf 26 b1 3f
       0.08249434169524489 0.06699844350957883
000640 7d 4f bb a7 d1 c7 bd 3f 67 dc e0 91 d2 16 b8 bf
       0.11633024544727096 -0.094098244299731
000650 b7 5f db fe ae 92 b9 bf 50 7a a0 ca a7 ce c5 bf
       -0.0998944637498188 -0.1703691234005924
000660 2d 14 d8 37 f5 79 c9 bf 04 33 5a ee 69 88 c7 3f
       -0.1990343592334808 0.18385051859186075
000670 ba 02 43 bb d3 64 ae 3f 44 04 fc 3d a9 fa c8 bf
       0.0593629995432869 -0.19514956976493825
000680 a7 44 5a 35 d5 76 c8 3f d2 cf 5d 5b 7d 75 c2 3f
       0.1911264906416694 0.14421050034763866
000690 3a ed f5 94 40 f2 a6 bf a7 30 3a 4c c6 18 9c 3f
       -0.04481698816649744 0.027438257601304496
0006a0 33 44 3f 94 37 39 b2 bf 6a 3d 0e ae 7c bf c8 bf
       -0.07118556374850087 -0.1933437204247455
0006b0 17 2f 55 4a 08 88 b0 3f e7 d9 90 10 11 42 9b bf
       0.06457568945660018 -0.026619211803529465
0006c0 6f f4 32 87 70 b7 c7 bf f4 9a 26 b5 25 6e 95 bf
       -0.18528563119426475 -0.020927991086547373
0006d0 3d 7b 84 96 d6 56 b9 3f 5f 82 92 2d 8e a2 c7 bf
       0.09898129629844461 -0.18464829659662294
0006e0 8d 28 99 5f 3e 89 a9 bf 3d 76 ca 74 16 d6 b4 bf
       -0.04987521092387324 -0.08139171935405272
0006f0 27 dd a9 43 34 9f 9f 3f b8 56 d1 8a 8b 8a c2 bf
       0.03088075316415231 -0.14485306051454017
000700 d4 40 23 6d b1 1b ab bf bd 31 a3 25 50 51 be bf
       -0.052945656368707766 -0.11842823904880269
000710 1a d6 6f 74 98 c6 8e 3f aa 01 48 c5 5c db c7 bf
       0.01502722840630626 -0.18638190873026633
000720 14 02 de c6 89 c4 c4 bf 2d 70 2c 9a 98 93 b6 bf
       -0.16224786958993376 -0.08818963779452878
000730 1d dd c7 bd 62 c5 b9 3f ef af df b5 68 79 c7 bf
       0.10066811688726714 -0.183392609410816
000740 6d fc d2 79 30 40 b4 3f 07 f2 da 1d c5 ea c0 3f
       0.07910445188734778 0.13216461141372823
000750 fd ed a2 da 27 84 b2 bf 1c b3 c5 dd 3a 07 c8 3f
       -0.0723290356426602 0.187720640456427
000760 0d 68 f4 62 51 5b b4 bf 87 9e a7 b2 57 f7 a9 3f
       -0.07951840082060375 0.05071519904941817
000770 ed c4 08 86 05 03 af 3f 2c 8c c0 b5 4a 6a c5 bf
       0.0605699277988466 -0.1673062694036117
