manually_saved_runs/simplified_pearl_ddpg_3/task_params.npy (npy, 2048 bytes, 1 tensors)

array f8 [120, 2]
00000000: c46c d75a 4ed9 c7bf c8e8 c49b 311e ce3f
00000010: 00eb f8d3 4495 d8bf 68f1 06b1 599a cfbf
00000020: 6055 1e96 a238 aa3f 8241 cae6 7b65 de3f
00000030: 82ab 2207 25d3 d2bf cced 00b5 0165 d73f
00000040: c8b9 e647 396e d0bf ec6f 5fcd 2d6d debf
00000050: c0cd 815d b75c df3f 26fe 45a7 e1f5 d3bf
00000060: 72b5 f241 2e96 d4bf 7cbb 02e7 ac0c d2bf
00000070: a03a 5b88 8143 c43f 0ce7 9990 a048 cebf
00000080: 48eb 8d6f 41f3 c2bf 5013 2148 94ee cabf
00000090: 8856 7d4d 3ddb c43f bae0 bd18 4776 d6bf
000000a0: c4e8 536e 2426 cbbf 809a 2416 e1e7 86bf
000000b0: 2812 42c7 f961 df3f 204e 3de7 1a2f d5bf
000000c0: 00a0 a754 a81b 68bf 6a29 6667 4caa debf
000000d0: 28f6 36ef 9cc0 db3f e496 9b93 9062 dd3f
000000e0: d461 9378 8124 c9bf 4812 1930 8a35 d7bf
000000f0: a8d9 59d9 6188 b4bf 9a41 3e8f 20c8 dc3f
00000100: 102d 9dfd e6be a43f 007e c3b0 fbda 563f
00000110: 901e d92a ab3e c03f cc87 a44d aebc c73f
00000120: 1ecf 03d8 b53b d2bf b085 fe1c 123f c3bf
00000130: 5c5c c7e9 7f0a dcbf 7414 4207 203a d5bf
00000140: e441 d7f6 cd85 c03f 2453 e29e 70d1 c83f
00000150: 44d2 6069 4356 c1bf d41c 68c3 aecc dcbf
00000160: d0f4 8da0 67e1 cdbf 8ead 696a f498 d83f
00000170: ac78 5135 7ffd d6bf b86a 8473 664d be3f
00000180: 42a1 20bd 949b d0bf 30c8 adee 085b c8bf
00000190: 8a5a 63de 59f1 d63f 408d a595 495b c2bf
000001a0: 88fd 2e04 9624 dfbf cebf cae6 9045 dc3f
000001b0: 2871 6483 b78d ba3f 9a0f 16e8 7b82 d93f
000001c0: 2eb3 cfa2 0cbe d33f 20b5 a2e1 79b6 d9bf
000001d0: 5a4c 3b44 d205 d43f 8030 661d e2f3 7abf
000001e0: 3079 a092 04ff aebf 7807 a801 1a9e c1bf
000001f0: bc5d feab 4908 debf 7c1b 4a1e f94f ca3f
00000200: f057 98fd c8fa b83f 8430 dc65 1b82 c0bf
00000210: 4019 94dd cc64 8d3f fa0e c446 1dea d43f
00000220: 1431 4785 97b5 c73f 8a46 12bb c80e d0bf
00000230: 1803 4d7d b1db cdbf 1846 d00b ba4a cc3f
00000240: 1cc1 e8c9 06a5 db3f 085b ee34 2c5a bc3f
00000250: b843 57d3 1314 b03f b40c c6ac 3905 ca3f
00000260: 40a1 e1d0 6682 d2bf 7c0c 48ef e146 c8bf
00000270: 60bf 776a 8a2f bb3f 88ba b683 85b9 c3bf
00000280: aeaf 7d69 38f8 dc3f 5e25 0715 44c8 debf
00000290: ea7c 031d 5eaa dbbf a033 80ba 9815 9a3f
000002a0: c0dd a3a8 544f d3bf 3e30 bc2c 4d79 d83f
000002b0: b02a c8f4 5530 c0bf 14fa fcc9 b434 ce3f
000002c0: 20fd a9f2 7947 c13f 389b d552 12b8 ba3f
000002d0: 884e aaeb 7d74 da3f 4056 01af 8318 90bf
000002e0: 92d6 1b3c b69a dbbf 545d cfc6 265c c33f
000002f0: 029b 0f1b 2840 d4bf 7c93 682c d2fe d1bf
00000300: 200c 8c7a 7448 cbbf acfc a10d 4760 c63f
00000310: 34a1 0001 ae92 cabf e85a 625d 5dcb bd3f
00000320: b04e d68b 00b2 a53f a00c 8419 fe6a 94bf
00000330: 10ed b437 b608 a83f 88e8 079f 7d1a d53f
00000340: a00f 6f01 3b33 dc3f 32e0 3d3d a7ac ddbf
00000350: 3cbe 53bc d14b cb3f 409e 0ec9 a2d2 b43f
00000360: 189a d286 abef c33f d03a fb06 d9b9 a23f
00000370: c404 85e1 1250 cf3f ba00 f88d f657 db3f
00000380: a0b9 fd94 0f0b a4bf 2094 d6f9 4b28 90bf
00000390: 105c f562 4ef2 c1bf 04da 4df6 ff7c debf
000003a0: 80ab e5a5 4df9 783f c04d 7c9e 06b5 973f
000003b0: 7010 1355 cdc4 d1bf 182b e661 e990 c43f
000003c0: 6000 9171 5718 c8bf 6e7a 7dba 46fc d2bf
000003d0: 0895 3f9b 1a80 b9bf b4ee f675 0e25 d23f
000003e0: 8255 0eb2 7c36 db3f fcfd 432a d30e dd3f
000003f0: bcc4 992f f1b9 dd3f 4021 9b06 394d d1bf
00000400: fcad c2da 4cb3 c53f d6d7 fc83 920d d1bf
00000410: c072 da36 490f 83bf 481f 2ef8 6f72 b63f
00000420: 34c2 a014 d2f5 c7bf 80a3 62aa 1b01 b23f
00000430: 561e 7fcf 7518 d83f 5a59 6e4a 61c5 debf
00000440: 2412 8f6f 0d68 c3bf 0015 9cdc a2f9 943f
00000450: 2c66 1e13 f7cc cebf d2e5 7a8e a5ce d73f
00000460: b828 4731 fdac d5bf 3ab0 908c 46aa d23f
00000470: 60bd 5815 e995 b6bf fe3c 768f a0d3 dabf
00000480: 50a0 91ec 7525 b83f 8061 4bd1 d844 c0bf
00000490: ded6 56a3 5004 dc3f 9e53 cd53 0937 d5bf
000004a0: 703c 2beb 537d b03f 8050 df76 88f1 9f3f
000004b0: 407a 85f4 fd15 96bf d031 719d f6e7 b9bf
000004c0: 0822 0b0b 1f2a dfbf 2c06 b350 c020 c9bf
000004d0: e884 9314 c5a7 b2bf fe63 e606 0e09 d1bf
000004e0: 247a 8ea4 b72b c33f 20fc aec8 d5e2 c63f
000004f0: cc4d 4cb1 33c2 c23f 12c8 51c8 f7e7 d33f
00000500: a89d 8d5e d6cd b5bf 02a9 e2ab f105 dc3f
00000510: 1406 7667 9925 d4bf 2828 3598 0826 bc3f
00000520: 3469 b032 f427 c8bf 9470 8716 b6b6 d63f
00000530: 92c6 171e c555 db3f 2096 5c8f e223 a43f
00000540: b413 431d 6712 cd3f 6076 6b9b 5220 c7bf
00000550: 30f0 75a8 4a86 cfbf 1078 2fd0 dbcd bd3f
00000560: d4ef 4314 c71f c23f 9676 de42 bee6 de3f
00000570: a09e e24e 8164 bfbf 7845 0463 1bd5 d93f
00000580: 0085 6049 c32f 79bf 04bb 83df 41b9 dfbf
00000590: f45b 3b9f c52f d3bf 980b 6cc0 625b dbbf
000005a0: 2c54 bcd1 6269 c6bf a04f c696 ce35 dcbf
000005b0: 9a70 5513 2af2 dcbf b8ed cd55 7414 d23f
000005c0: 10a7 d066 e069 d53f 3c76 1842 27b6 d4bf
000005d0: b280 6709 27cb d23f 1eb6 62dc 3bb1 d53f
000005e0: 7058 22c5 68af c03f 08ef 1f45 0a19 bb3f
000005f0: 9c94 4bd6 9942 d43f e098 eeff 022f d3bf
00000600: 20b9 3631 1674 ce3f c0e3 bca8 ca1a c1bf
00000610: b84c 3758 c7eb c43f 001c bb58 9a07 debf
00000620: 003e ebff 44e8 933f de48 7c13 4a3f d6bf
00000630: 3c9d b1f7 529f d3bf 9216 4304 4b36 d63f
00000640: c6c6 be98 673c db3f c0d7 b286 506f db3f
00000650: 6e20 ee2a c7a5 d43f ae01 2d9f 3ea5 d23f
00000660: 46cb 9768 3496 d53f 58cd cc55 338d b33f
00000670: 4c08 0543 a740 cabf ec6f 5a11 6f01 d5bf
00000680: 34d0 6783 585e dfbf 9223 e944 2ce7 d3bf
00000690: 2030 97d0 83a6 d0bf 36dc 81d7 0fc8 d83f
000006a0: 7041 952f 1e8e d3bf f0d0 8c62 bb95 b7bf
000006b0: f802 dc32 5761 dcbf 9e2b 6ea3 692b ddbf
000006c0: c4c7 c265 5dbf ddbf b4a5 9513 dc34 c63f
000006d0: 1858 898a 666f cabf 78d9 ab46 5513 c73f
000006e0: e44d 3712 7496 ce3f ec13 6ed6 a300 c23f
000006f0: 00ef 170a 0445 70bf 906e 5791 9156 b9bf
00000700: ec45 f758 859f d53f 9e54 6767 2621 d43f
00000710: 7810 6132 dac9 cbbf f0ed 7e8f d55a b73f
00000720: 342f 6930 8350 dabf 709c cdc6 719e babf
00000730: 6c12 fea1 321b c23f 20c4 ff17 d0ce cfbf
00000740: 70ab 49b4 a34d a13f 4859 e918 e358 b9bf
00000750: 747d 4544 c4a3 c13f aecc 3194 bd27 d3bf
00000760: 9c40 41cc b7ef cf3f f802 f5ce 9afa c7bf
00000770: a060 a7b0 f9dc 95bf 2070 c02c b628 c6bf
-0.18631915507908137 0.23529644113461345 -0.38411064815925045 -0.2468978990926971 0.05121334154606916 0.4749440912064743 -0.29413724610156333 0.3655399577725944
-0.2567275240097868 -0.47541375213563586 0.4900339520601982 -0.31188241324705 -0.3216663021110754 -0.2820236450160605 0.15831011922860672 -0.23659140644650056
-0.14804857203474797 -0.21040586015638008 0.16294065745994524 -0.35096909919912955 -0.21210151087854545 -0.011184462059259603 0.49035496195600325 -0.3310000665853483
-0.002942875643601184 -0.47914419267239927 0.4336311660843841 0.4591409150583401 -0.19642656695829308 -0.36264280983985886 -0.08020602756901118 0.44971479405014636
0.04051896901963847 0.0013949830927727502 0.1269124945849751 0.18544558325908012 -0.28489442916110075 -0.15036226669057617 -0.43814084844547607 -0.33167267521668653
0.1290833907392105 0.19389159925472044 -0.13544504781170208 -0.4499928386944252 -0.2334413083989717 0.3843356169879478 -0.3592222233472835 0.11836853332753605
-0.25949591130713057 -0.19027816442718537 0.35848089902484814 -0.1434108715721809 -0.48660803230810545 0.4417459729984302 0.1037249274999722 0.39858911194482405
0.3084746923403142 -0.4017624572250771 0.3128553072285222 -0.006580241452308511 -0.060539381884370136 -0.1376373775565829 -0.46925584598781334 0.20556558588961227
0.09757667723928853 -0.12897055123938028 0.014352417480506419 0.32678920660713084 0.18522924430579535 -0.2509023501271278 -0.23326700800137057 0.22103047921022845
0.43194741933531744 0.11075092594397173 0.06280635747613317 0.20328446327412097 -0.2892090835435006 -0.18966316398300254 0.1061941633158745 -0.15409916812264535
0.45265016843654393 -0.48097326329714984 -0.4322734149299793 0.025473009474854202 -0.30171696156272887 0.3824036537996597 -0.1264750905250671 0.23598346579270013
0.13499378537014994 0.10437120935749256 0.4133600999277651 -0.015718514973136033 -0.4313178622245256 0.15124973971863176 -0.31641581194564605 -0.2811780389477503
-0.2131486509680096 0.17481315770780748 -0.20760130928943854 0.11638434915435492 0.042373673505747944 -0.01993939429031555 0.04694146566404289 0.3297418644939474
0.44062686100027726 -0.4636629198134897 0.21325132079754094 0.08133904846783313 0.15575164874208336 0.03657415590497737 0.244631157032961 0.4272438417829211
-0.03914688771952801 -0.015778720020211634 -0.14020709831194766 -0.4763793855012468 0.006097129166259374 0.023151496337119104 -0.27763684566548985 0.16067235260228396
-0.1882428459666725 -0.29664772235802317 -0.09961096086734156 0.2835117485044336 0.4252006281688737 0.4540298378705925 0.464474007115381 -0.27033830304255346
0.16953430825866167 -0.266453389066894 -0.009306499468317297 0.08768367585264258 -0.1871893501970746 0.0703294077853922 0.37649293196998224 -0.4807971217027408
-0.15161292979441143 0.020483536448428374 -0.24063003953487916 0.3719877139479567 -0.338683412669194 0.29164279677457083 -0.08822495242269701 -0.41916669855068267
0.0943216040192294 -0.127101041979369 0.4377633662328274 -0.33148415740770953 0.0644123505728531 0.031194813018217804 -0.02156826786937871 -0.10119572967341317
-0.48694587782350185 -0.1963119882621397 -0.07287246467923902 -0.26617766069244897 0.14977164778697827 0.1787974576854774 0.14655157239086092 0.31103319704482246
-0.0851720791666738 0.4378627947395587 -0.3147948751794456 0.10995534626013692 -0.1887192962174794 0.3549018116007201 0.4271099847675056 0.03933628082294782
0.22712410858926335 -0.18067391003471567 -0.24628575540180142 0.11642240364696499 0.14159477700729772 0.4828334477441357 -0.12262733627232558 0.40363201779935975
-0.006149065817255606 -0.4956822092780586 -0.29979076910006985 -0.42745274344650275 -0.1750911258792781 -0.44078411792838246 -0.45228053939877955 0.28249843959175847
0.33458719292194505 -0.3236177583183666 0.2936494438017788 0.33894249460249337 0.1303530657357359 0.10585083186736821 0.3165649979330938 -0.29974436753617617
0.23791768458381402 -0.1336301158824238 0.16344539458677843 -0.46921404519201815 0.019440725441027595 -0.3476128759658773 -0.30659937085006894 0.34706378380028824
0.4255618087437195 0.42866910127792934 0.32261828606033915 0.2913357309771766 0.33729276861338453 0.0763732990715672 -0.20509806415981513 -0.32821251578002264
-0.4901334079033888 -0.3109846756893201 -0.2601632630364765 0.3872108082354687 -0.3055491890600228 -0.09212847858436013 -0.4434411999391581 -0.45577469787593283
-0.4648049825437932 0.17348814922597244 -0.20652467503049432 0.18027749968286932 0.23896647347883893 0.14064453096594265 -0.003972068575872845 -0.0989771823728296
0.3378613823707315 0.31452331636439534 -0.21709754428787043 0.09122977021518586 -0.41116409042000446 -0.10398017028420425 0.141455010507474 -0.24849892780142202
0.033795467145714464 -0.09901255949202892 0.13781026204649616 -0.2993005702221109 0.2495031115854588 -0.1873353491337395 -0.021350766570180313 -0.17311742005483755
