manually_saved_runs/no_offset_ddpg_4/task_params.npy (npy, 2048 bytes, 1 tensors)

array f8 [120, 2]
00000000: 6011 8529 7a96 9c3f 18a2 1843 2de2 cabf
00000010: 88e0 040f a608 dabf f05a 3f2e 29af d4bf
00000020: 88a7 26ee 76e8 dcbf 1873 0c33 4e7c bdbf
00000030: 8cc4 6b77 9ed5 dabf 7a5a 2237 00e8 dabf
00000040: bc3f fdf3 2ace df3f d0f0 a578 67eb b2bf
00000050: e04f c69c 516b b7bf 7023 34be 1fb8 c8bf
00000060: 80ad cf7e 5f9e d8bf a0cf 07b9 55af d63f
00000070: 3c1f ae7d 4af6 c63f 5a7a acd7 fa2c d93f
00000080: 5067 aa84 cfc9 db3f 80e8 494c 96d7 7f3f
00000090: 70a2 7757 70e2 a03f 0800 cc9e 17a1 debf
000000a0: d283 9b0e ef51 de3f 30ff eaa1 bb2a a1bf
000000b0: ba17 1868 1e72 d23f ecb7 698b d393 d5bf
000000c0: e8f8 1f09 e348 d4bf 3c4e 87d5 de68 dcbf
000000d0: 40b1 07c3 5ba6 853f f03b 3633 6a4d d03f
000000e0: a04e afe9 4e4f d43f 3a3b 9d1d 4099 d6bf
000000f0: d4f2 e17e 7504 c73f 40f1 91da a6d1 97bf
00000100: a873 a388 c746 c6bf e07c 74d0 b4ec bd3f
00000110: 84cf c695 b474 d7bf b0e8 465f 47b6 bbbf
00000120: c88f a522 f759 d13f 2656 1668 3b1f d2bf
00000130: 441b 88fb c4cc d93f 5452 b5cf 76c3 c53f
00000140: e4a9 4705 920a d73f 9294 2cae d0bd d8bf
00000150: 6ae9 4f2f dc23 d4bf 96c5 c272 f26d dabf
00000160: 806e f8b9 852f d73f 401e 28db e347 ccbf
00000170: 4070 68f9 8b1a c23f 587f 82e6 dce1 b33f
00000180: 64de 6afe fc1a c1bf 6c8c d018 ab3e d7bf
00000190: 04bc e3c1 16d6 cfbf ac9a b019 c43d da3f
000001a0: ac0a f23f 8a71 d33f d8aa b4ad 96ff d03f
000001b0: 5c6c f660 bd33 cb3f d0c7 0521 7f90 c3bf
000001c0: 1ea2 1f29 820c debf 2074 6143 1cfa 93bf
000001d0: 0264 238e 81d3 d8bf d4b3 1621 0ccf dcbf
000001e0: 6c51 c989 9f5d cebf b4c4 f63a fe20 d33f
000001f0: d46e cd3c 38bc cb3f da61 5c08 3aa8 d53f
00000200: b60b 729b 6305 d23f 642b f048 5f07 c33f
00000210: ec7a 93de e322 c5bf 262a a3a5 7ed4 dd3f
00000220: 9891 5681 5678 c73f 1292 58e9 9d3e dbbf
00000230: b682 3a22 9794 d9bf 0c36 4dba bb99 cd3f
00000240: d0ae a493 1bb0 a03f 5001 6d89 8e8d d43f
00000250: d034 668d 99dc bc3f d81c 7ca9 8599 b2bf
00000260: 1061 7acb 0ae4 c9bf 520f 39d2 75f0 d33f
00000270: 100d 9d19 9df9 c53f a479 df35 5c2c d33f
00000280: 5449 0dbe 993d dd3f 7c4a b14b af5f c9bf
00000290: 8294 1760 55d7 dd3f 9038 5679 8aff bbbf
000002a0: 00db 746f cb4d 76bf a035 277e 52e7 ba3f
000002b0: 7eed 4879 88ff dd3f 28b1 16f1 5199 c3bf
000002c0: e089 8d0a 9dc2 dfbf 6815 2f3a ad14 bfbf
000002d0: 6017 a807 2a9d c53f 50d4 5f80 ae97 c23f
000002e0: 3c45 1be6 860d d9bf a637 5140 b4cd d03f
000002f0: 3425 8563 1764 df3f d88a ffb9 1d4d b73f
00000300: 44d9 be4a 7783 d23f b8ef 1e8f ca47 cabf
00000310: e090 fc4e b8b8 aa3f 903f c6cc 8d1f c4bf
00000320: 020f 563b 1d4f d03f 029b dcc7 34d5 d8bf
00000330: 564f d9df a0d3 dbbf 20ff 4c5b f41e a53f
00000340: ae66 2cde 11ac d43f 00cf a480 f3f8 7b3f
00000350: 4475 a2d3 b43b ce3f 1af3 fb54 e84c debf
00000360: 50f2 d3a2 7d23 a83f c877 025e 656d b4bf
00000370: 90b6 9aba 3816 a2bf f054 e9d8 800a dcbf
00000380: d421 7e94 0c7f db3f b0d6 38e8 12de d93f
00000390: 6893 3c7f e7a5 ca3f 6089 5173 cbe6 a8bf
000003a0: 44c7 419d ce8e dfbf e8c5 f8a7 6306 dfbf
000003b0: cc6d cedf 8895 dd3f de85 2141 392d dfbf
000003c0: d08d 8e28 9a56 d43f 78aa 6acd 3d85 ddbf
000003d0: 3ab6 f7c9 3306 d1bf ee2a c584 84b3 dbbf
000003e0: b4ae 64c3 515b c73f a828 b781 94b0 b8bf
000003f0: a08d 9420 f9e5 9d3f f887 0f42 3a5a dabf
00000400: de17 b511 587e d7bf 8059 feab 4afb b0bf
00000410: 2896 24ce 63b8 cdbf ac80 5c8c f7fd c8bf
00000420: f4e6 5f39 fb43 c13f 7298 3976 ced2 d8bf
00000430: 7075 973c cd6a aabf 44d1 a6b7 cecb ccbf
00000440: a830 15b2 05e8 c03f eeb5 23c0 686d dfbf
00000450: a0ac 448c ec70 cfbf a4fa 9169 b5da c83f
00000460: ee7f 25b8 e6a1 dc3f bc63 716d 2fdf c93f
00000470: e64b 7297 8c44 d73f e0e8 c78b 0100 d73f
00000480: 2cb9 c977 191a c3bf 2a23 57d2 26b6 d4bf
00000490: 2482 c39e d4a7 db3f bc61 4e65 aa1a c43f
000004a0: ec07 cba0 9b1b d43f 1834 dcaa 9211 ba3f
000004b0: 78d8 e019 fd0b d23f 10a9 4b10 3518 a63f
000004c0: 6e94 bb5e d69d d6bf 5c10 75d8 8c70 db3f
000004d0: 8c62 40b6 b964 c83f f863 3635 d8c6 d43f
000004e0: 80f0 b7ca 52d8 cd3f 281b 3a78 5ff3 b8bf
000004f0: 004d 4eaf fe7b 69bf 90f6 5375 f544 acbf
00000500: b0e5 6f4a a5d4 c73f c0ea 4719 cba2 c0bf
00000510: a8d6 ef0e 3132 d3bf 00e4 6f6a 4126 8ebf
00000520: a67d 186b d2c4 d13f 4070 5ec7 4132 823f
00000530: 245f 5642 86d5 c03f 548f 0b5c 8d46 d93f
00000540: 9ce2 4ac6 990e cb3f e85c 63aa e7a5 b03f
00000550: 9ed7 738c 88c2 d63f da46 adc4 af80 dd3f
00000560: 247a c332 3bca c6bf 6a9c 0ac7 8747 d43f
00000570: c2bf 1f11 2be5 debf 9443 0242 36db d2bf
00000580: ec8d 985a 972c d73f c472 cc88 c2e5 c63f
00000590: 1034 e410 f931 cabf ecb2 b0b3 6f7f c6bf
000005a0: b0ef 23f1 fd0c d4bf e8e2 d67f e4a2 d9bf
000005b0: b057 28d4 3fc5 c9bf e828 1793 e312 c23f
000005c0: b08e 63f0 2f2e be3f 1eff cdb8 b18d dcbf
000005d0: d461 a863 9794 cdbf cccb 2509 6a06 cb3f
000005e0: 7838 1e02 5f72 ce3f 607e b6ab 0916 d8bf
000005f0: 385f abe0 dde3 c53f f482 102f 561b d43f
00000600: 5873 c12b 2811 d7bf 70f2 349c 8cbb a73f
00000610: 7a91 4d27 aee8 de3f 00c2 60cd 2ff9 97bf
00000620: 70d3 b2bf dc0f b2bf 98ba af76 ba59 cebf
00000630: 5e6a 7ffa ca3a debf fae2 a0af 828b debf
00000640: 1e4a 8dba 4fb4 d63f f06c a5f0 3215 bb3f
00000650: a401 cf26 0b9e d03f 0e7a 49ab b8e0 d0bf
00000660: 9659 3ee0 16bf dbbf 04e1 9878 3d26 d6bf
00000670: e4f6 f037 09c9 d4bf d6d7 31b2 c053 db3f
00000680: 386a 035c f45c b9bf 3016 44c4 87f7 b93f
00000690: a844 3509 16b9 c43f f88b 1f44 3fdd cfbf
000006a0: 00d0 8b8f d4fb afbf bac0 15bc 36f8 d6bf
000006b0: 7889 be4d 2f45 c5bf 0c0a d7a8 a5d9 d4bf
000006c0: 9059 c2dd f1ef bfbf 40c3 db15 5059 923f
000006d0: e651 f44a c6db dfbf 62d3 bc6a aa7c d1bf
000006e0: c063 3eb1 3ed5 cebf 04d5 cee7 a738 cebf
000006f0: e07b ad24 6a4e adbf 4cbf a406 7f2b c0bf
00000700: 5036 d09b 50da d5bf ec1d f6d8 4582 c7bf
00000710: 70ba c214 99c0 cd3f aa29 3eb3 d87e d6bf
00000720: 5863 0300 2e31 d0bf 6003 8140 540d bc3f
00000730: 3076 7330 b31d b5bf 00b9 3f50 da18 cebf
00000740: 00d4 558c cfd8 953f 04f4 1a16 1c52 c03f
00000750: 007d 6543 e078 6dbf 9cd0 670f 92f2 c93f
00000760: 782e f386 14c8 dd3f d83f 329b 4b8f bc3f
00000770: d6be 2952 2871 d8bf ea6a 2094 5b5c ddbf
0.027917774948279628 -0.21002736831839353 -0.4067778727217122 -0.32319097057681656 -0.4516885114377307 -0.11517800089172814 -0.41928826963619126 -0.42041020759771863
0.49695848300052226 -0.07390448279869877 -0.09148130490785844 -0.1931190184334599 -0.38466632255468625 0.3544515902460663 0.17939120423056376 0.3933703523816
0.43419254260662843 0.007773959256718865 0.0329775912067064 -0.47858229167468425 0.4737508433009313 -0.03352915145433 0.2882152573150695 -0.33714760412737976
-0.31694866076567374 -0.44390078403850786 0.010571209802002657 0.2547250270953887 0.3173405916288434 -0.3531036652756715 0.17982357688369766 -0.02326069554372734
-0.17403501674462274 0.11689310158952848 -0.3664981329595707 -0.1082501037225565 0.2711160505625654 -0.28315625347872453 0.4031231361736227 0.17002759115225052
0.3600201655923725 -0.3865853978080135 -0.3146887266190307 -0.41296063620674184 0.36227553521323586 -0.22094391060839946 0.14143514326213058 0.07766514423064785
-0.13363611624457683 -0.36319997237496326 -0.2487209746099951 0.41001989849830056 0.30380493397403074 0.26559988940668466 0.212516472191825 -0.15284718620711013
-0.46951345458958993 -0.019508782970991345 -0.38790930634201015 -0.4501371691829352 -0.23723215320445534 0.29888873823353923 0.2166815087210724 0.3383927423142531
0.2815789239904761 0.14866248189386078 -0.16512726181004866 0.4660946481277811 0.18335992160167502 -0.42569682872479675 -0.39969423620827216 0.23125406834371665
0.03259359528814587 0.3211399404572335 0.11274108602647748 -0.07265506160557622 -0.2022717946572432 0.31155152825907806 0.1716801047387908 0.2995825315573717
0.4568847995734775 -0.1982325667946333 0.46626791366572473 -0.10936799490284188 -0.005445284528198924 0.10509219722663099 0.4687215027258488 -0.1531164576712254
-0.496253261857559 -0.12140925093179578 0.16885877012117145 0.14525395649221418 -0.3914506194242511 0.26255518227560015 0.4904840919376341 0.09102044859859448
0.2892740468918371 -0.20531589496920133 0.05219055141631812 -0.1572129487872158 0.2548287467436553 -0.38801307218311376 -0.4347917734169092 0.041251789231408376
0.3230023069059865 0.006829215223024709 0.23619709333153527 -0.4734440641330352 0.04714577305455647 -0.07979424996525986 -0.03532578733334646 -0.4381410711551572
0.4296294641613063 0.40417931249553884 0.20818799698568147 -0.048635824038472775 -0.4930912528717395 -0.4847649708127322 0.4622518716439259 -0.4871352325481818
0.3177857776701929 -0.46125741062375125 -0.26600355838204204 -0.43283188787306315 0.18247434654891992 -0.09644439856416176 0.029197590459387635 -0.41175705386387973
-0.36708642701375804 -0.06633440684377057 -0.23218963208744126 -0.19525045732098556 0.13488712598319064 -0.3878666071453899 -0.05159608235019675 -0.2249697109924772
0.1320807570977014 -0.4910528065073255 -0.24563366745983206 0.19417445807262823 0.4473816679292203 0.20212357372181866 0.36355891027159115 0.3593753685996841
-0.14923399304411455 -0.3236176542382504 0.4321185636927416 0.15706376978483927 0.31418505384874496 0.10183064147368304 0.2819817307203105 0.043153436888888064
-0.3533836293339111 0.42874451769262634 0.19057389639853672 0.3246365089085539 0.23316416643490712 -0.09746357617596557 -0.0031108831703449136 -0.05521361405588465
0.186176930757751 -0.12996805891437724 -0.2999384542339194 -0.014721404133512195 0.2776380582672239 0.008884920021778098 0.13151624907617887 0.39493116368088477
0.21138307745220153 0.06503150853983508 0.3556233760458499 0.4609794064209446 -0.17804660776796866 0.3168658679737236 -0.4827373187281375 -0.2946296352975477
0.36209663245446566 0.17888671569462222 -0.20465005230690325 -0.17576404832779902 -0.3132929663549886 -0.40056717380825413 -0.20133207186944224 0.14120144540931467
0.11789226168508082 -0.4461483292325158 -0.23109714857197494 0.21113324591314464 0.23786532977505082 -0.3763450791247802 0.17101644010721784 0.31416849704878236
-0.3604221751500538 0.04635276228734575 0.4829516776865358 -0.023411509428287403 -0.07055453949108226 -0.23711329264866232 -0.47233843290965705 -0.4772650447007859
0.3547553369327562 0.1057922208323594 0.2596462134352129 -0.2637159035420219 -0.4335381688955747 -0.3460839917857046 -0.32477026427282696 0.42698686029268396
-0.09907462355060026 0.1014332632222128 0.16189837884534097 -0.24893942667321745 -0.06246818783066033 -0.3588997685210519 -0.16617385192973777 -0.3257841252163025
-0.12475501693766078 0.017918826421865264 -0.4977889759041133 -0.2732339899405841 -0.2408827176521111 -0.23610400027033773 -0.05723888108945352 -0.12632739853278918
-0.3414498826612986 -0.18366311162775106 0.23244012368873568 -0.35149209503347356 -0.25300168992321437 0.10957838606647163 -0.08248443539510997 -0.2351334468689359
0.02133487981832971 0.1275057895599333 -0.0035976772443714333 0.2027151656362819 0.46533692530349624 0.11156151331874697 -0.38190658591973425 -0.45876206841937395
