notebooks/output/sas_to_offset_MLP_2_with_05_offset_bestval.pt (torch, 191277 bytes, 8 tensors)

weight f4 [256, 20]
00000000: 9f82 09be ad75 cc3c 2853 3b3e 574c bdbd
00000010: c91c 073e 5a67 32be b50c f0bd c52e c13b
00000020: 532a 47be b21b 5cbe be7d 35be 7e3d 2e3e
00000030: 4225 7cbd 9f27 1c3e 96a8 27bc a4cf 2a3d
00000040: 0b75 ad3d acdb 5ebe 355b 5bbe d925 be3d
00000050: 2842 cabd 89e9 38be 879c 2a3e 10c6 0cbe
00000060: 2d9a 883d 5908 073d 97cd 203e 9df6 99bd
00000070: 468f 33ba add9 d1bd 5d75 b8bd aa64 f73d
00000080: 47ff 2cbe 3f19 c83d cfe6 853d 87c2 903c
00000090: 7fc8 bb3d a161 9cbc f335 2bbe ccf5 52be
000000a0: ad71 c33d 36bb 6dbe f5f6 4fbe 99e6 f4bb
000000b0: 89cf 543e 3b28 44be 43f1 d4bd 0edf 0cbe
000000c0: 9b57 143e 0d3f c3bd aa20 eabd b357 0a3e
000000d0: 2464 b1bd f670 09be a68f 50be dcb3 e33d
000000e0: 0553 6dbe 7e4e 34be 6521 4abe a78d 5bbe
000000f0: f53a 6ebc e129 c03d a727 30be 31de 5fbe
00000100: b216 28be 0a79 ba3d c0cd 943d 0874 31be
00000110: 0e65 fabd 6297 47be d4ee 56be c008 f8bd
00000120: 36b2 bbbb 9e3f a3bd aaa3 383e b060 2fbe
00000130: ac76 27bc 3197 43be 4d2a 6e3e c073 f8bd
00000140: 8fe7 5d3e bc0d 4f3e ed31 7a3e 4078 143e
00000150: 5368 cc3d 7c4d 513d 257e 163e e6fe 2abe
00000160: 6a05 e9bb f870 1dbe ba7e f8bd 2f4e 18bc
00000170: 7fad 93bd 0c9d e2bd 7c78 20be ab44 2ebe
00000180: a6a5 55be 516c 9fbd 7689 1f3e 874a dcbd
00000190: 58b2 193d a638 0d3e 5741 54be ba2b 49be
000001a0: 3b28 e53d 53dd 0f3e 3281 c33d 68b9 823e
000001b0: 09bb 293e a265 983d dcec 3f3d ebde a43c
000001c0: 5793 d8bd d6b5 ddbd d8a7 e7bd 08f3 08bc
000001d0: 2ecd 153e 4a63 423e 392a 11be 7e68 3c3e
000001e0: 40c0 7ebe 1937 793e 6ec9 16be 65c7 27bd
000001f0: be41 72be 8345 533d e857 1fbe 0e7d 72bd
00000200: 2dd6 5f3c 0648 0b3e 0597 b03d fdf6 6abe
00000210: 4b45 42be 34d7 093c f2f4 553e 4fb2 64be
00000220: f60f b93d 94bb 39bd 6325 cc3d 7396 fdbd
00000230: 09e3 103d db97 af3d 6fdd 25bd 93f2 5dbd
00000240: 3243 dfbd a845 97be 4d41 a1bd 859e 323e
00000250: 2c01 8dba fe0a 0b3b c93b 153d 3c3c afbd
00000260: f89b 583d 9b93 94be 4720 56be f1ba 2cbe
00000270: 3d01 953e 7cb3 84be a728 1fbd 11e9 5c3e
00000280: 55c7 793d 970e f03d cccd 60be 0808 5a3e
00000290: 38e6 d039 f164 403d e9a1 fc3d d83a 103e
000002a0: 5b98 d0bc e9b5 083e c816 e03d 6463 c8bd
000002b0: 68be fdbd a8cc fcbd dfb7 9a3d 418b 42be
000002c0: bfe9 f23d 4dbc 363e 38c3 09be 0fd4 1e3e
000002d0: e5ba 3ebe da58 973d b159 8ebd 9742 f83d
000002e0: 42d6 493e c06d 3ebe 0c3b 0a3c 3354 7d3e
000002f0: e396 7ebe 35e6 e1bd 2c95 a1bc bea6 2c3e
00000300: fd42 903c cbc3 0fbe eb5d 49be ff89 8c3c
00000310: 7a2b 9c3d 41c2 bebd 92bc 113b 6209 f63c
00000320: 1f90 d03d a1f5 e73d 2a9a 743c 44cd 233e
00000330: 089d 63be 571a aebe a091 83bd 82e8 473e
00000340: 09e0 0f3e df6e 133d 8829 363c dc06 9b3d
00000350: b4d4 2b3e 9223 92be 95ca 7ebe 2cb6 3bbe
00000360: ae26 9f3e 94d9 553e 36a1 6dbd f071 b8bd
00000370: ecba 60be f4e8 81bd 6b43 d8bc ef44 fcbd
00000380: 8660 89bc 9da3 ec3c 801f 2e3d 7d83 343e
00000390: 8b88 49bd 7e4b a1bc 6e0e c9bd fe93 31bd
000003a0: d7da fc3d eef1 28be a8eb 34be f7ad 89bd
000003b0: 3ab0 473e 3854 48be ace8 57be e45f acbc
000003c0: 852b 933d e016 3c3e d797 6fbe f459 6abe
000003d0: b6b4 54be ee38 223e c7e4 d1bd e7c8 3cbe
000003e0: 152f b13d 02bc 1cbe e815 a0bd 66d4 2f3d
000003f0: 5813 333d 519b c23d 78f9 75be 620a ddbd
-0.13428734 0.024958456 0.1829344 -0.09243076 0.13194574 -0.17422238 -0.11721174 0.005895468
-0.19449739 -0.2149494 -0.17723748 0.17015645 -0.06155897 0.15249489 -0.010233065 0.041701928
0.0846959 -0.21763486 -0.21421511 0.092845626 -0.098758996 -0.18057837 0.16661273 -0.1374743
0.06670032 0.032966945 0.15703426 -0.07517741 -0.00068496575 -0.102465965 -0.0900676 0.12079747
-0.16894256 0.0977044 0.06538164 0.017670883 0.09169101 -0.019089522 -0.16719799 -0.20601577
0.09543166 -0.23215947 -0.2030905 -0.0074737784 0.20782293 -0.19155972 -0.103975795 -0.13756964
0.14486544 -0.0953351 -0.114320114 0.13510017 -0.086616784 -0.13421997 -0.20367298 0.1111829
-0.231762 -0.17608067 -0.19739302 -0.21440755 -0.014540424 0.09382988 -0.17202626 -0.21862103
-0.16414908 0.091051176 0.07265806 -0.17329419 -0.12226306 -0.19491342 -0.20989543 -0.12111044
-0.0057280315 -0.079711184 0.18031183 -0.17126727 -0.010221165 -0.19100644 0.23258324 -0.121314526
0.21670364 0.20220083 0.24433108 0.14498997 0.09980836 0.051099285 0.14696558 -0.16698799
-0.007111241 -0.15375125 -0.12133546 -0.009295984 -0.07210826 -0.110651106 -0.15670961 -0.17018382
-0.20863971 -0.077843316 0.15579781 -0.107564025 0.037523597 0.13791141 -0.2072805 -0.19645587
0.11189314 0.14049272 0.095461264 0.2553208 0.16575254 0.0744126 0.046856746 0.020125827
-0.10574978 -0.10825698 -0.113113105 -0.008358724 0.14629051 0.18983188 -0.14176263 0.18399236
-0.24878025 0.24337424 -0.14725277 -0.04096164 -0.23657891 0.051579963 -0.15560877 -0.059201293
0.013661903 0.13601694 0.08622555 -0.22945781 -0.18971746 0.008413125 0.2089422 -0.22333644
0.090362474 -0.045344904 0.099680685 -0.123822115 0.035372768 0.08573886 -0.04049438 -0.054186415
-0.10901488 -0.2954533 -0.07873783 0.17443283 -0.0010757796 0.0021216269 0.03643397 -0.08556411
0.05288312 -0.29018864 -0.2091075 -0.16868187 0.29102507 -0.25918186 -0.03885713 0.21573283
0.060981113 0.11721533 -0.21953505 0.21292126 0.00039844378 0.046971265 0.123355694 0.14084947
-0.025463274 0.13350643 0.10941845 -0.09784582 -0.12389833 -0.123437226 0.07554602 -0.18998434
0.1186099 0.17845269 -0.13453376 0.15510581 -0.18625982 0.07389994 -0.06950701 0.12122076
0.19710639 -0.18596554 0.008436929 0.2473915 -0.24862246 -0.11030237 -0.019724451 0.16860482
0.017610068 -0.14039533 -0.19664733 0.017155645 0.0762548 -0.09314395 0.002223764 0.030033771
0.10183739 0.11326147 0.014929334 0.15996271 -0.22227871 -0.3400447 -0.0642426 0.19522288
0.14050306 0.035994407 0.0111183 0.07569668 0.16780359 -0.28542763 -0.24881966 -0.18331212
0.31084198 0.2088378 -0.05801507 -0.09006107 -0.21946305 -0.063432604 -0.026399335 -0.123178355
-0.016769659 0.02888661 0.04251051 0.17628284 -0.049202483 -0.019689318 -0.09817205 -0.043354027
0.12346428 -0.16498539 -0.1766802 -0.06722634 0.19500819 -0.19563377 -0.21084851 -0.021041818
0.07186035 0.18368101 -0.23397766 -0.22885877 -0.20772061 0.1584203 -0.10248714 -0.18436013
0.08651558 -0.15306094 -0.07816678 0.04292717 0.04371962 0.095022805 -0.24020946 -0.10792996

bias f4 [256]
00000000: d5ab 81bd 9f20 57be f831 1d3e 399c 72bd
00000010: 7aa1 8bbd 3a51 11be db37 443e a981 593e
00000020: 6478 d83d 1cf9 3ebe 3344 c8bd 6769 44be
00000030: 128e f63d 3d70 0bbe 5a92 0fbe cf2b 8bbe
00000040: 6d32 44be ff39 87bd 154c cb3c b964 633e
00000050: f39f 1bbe 4f8f 863d 59bf 223e 54d2 6cbb
00000060: f5e3 773d 3158 283e 92d8 51bd b64f 30be
00000070: 02c6 263e 7589 f53d 600d debd a8b2 4fbd
00000080: 6144 183e f78f 803e c819 003e cc8b f33c
00000090: 0339 25bd c769 f8bd 1e79 333c f88c 8f3d
000000a0: 8e1d 27be de2c 473e 8a8c 6ebe 0020 863b
000000b0: ff4d 11be 1cb7 0abe 924b c5bc e7a6 173e
000000c0: 0575 6cbd 264a 903e 4a02 2c3e 4ee9 353e
000000d0: 4f1f 803e a32a b93d e51f 373e b991 94bd
000000e0: d39b 08bd 9bf4 25be d402 65bd 17c9 f23d
000000f0: 330b d93d c25d 163e f370 3d3e d4de 48bd
00000100: aa76 653c 88f6 053e 87ab 183e ee78 163e
00000110: e254 b2bc fd7e 7bbe a4e9 1a3d 6d4b 5d3e
00000120: 55e7 cdbd 1514 04bd 1a85 533e 2436 2e3e
00000130: 973c 13bd c7a5 4dbd 0a87 2dbe d6c5 a13c
00000140: a19d 76bd 2c85 983d 9312 543e 3a25 253e
00000150: ed8c 6bbd 0b0f 9cbb 4e48 1ebe de60 e6bd
00000160: c0b6 dabd ad29 e6bd 3598 193e 78f1 103e
00000170: 794c 57bb 9859 103e 4c2a 37be 85e6 1a3e
00000180: 4c42 7fbb 38bc 24be ee55 9fbd 314d e2bc
00000190: 4187 b33d 9c2d 3bbd 87eb 75bc dc0b 1e3e
000001a0: b377 bc3d befc 863d b18e 73bd d92d bb3c
000001b0: fc85 6dbd 1523 5e3e bd57 c73d c171 3abe
000001c0: 8756 14be 63a6 1dbd 3654 32bd 4dfe 803d
000001d0: cac7 a83d 4a02 0b3e c6fa 8bbd f941 acbd
000001e0: 4795 c9bc 547a ad3d 7329 2cbe a4e1 463d
000001f0: 1853 f4bd 7f7e 303e 12d2 373e 1f95 abbc
00000200: f23f 0f3e 0167 673d 6a93 19be fa1f ee3d
00000210: 0601 34be 6af2 c5bd c0c3 443e ab80 0c3d
00000220: 959b 52bc 9449 74be 1e69 a7bd 7b30 2a3d
00000230: b1ce 443e 0c56 113d b333 2a3e 1279 fa3d
00000240: bc4e 3ebd 20ff 8b3e 3c44 483e 8c4b e73d
00000250: 5ba2 ddbb 25c0 76bc ac6d 6d3e 89a8 fb3d
00000260: 1c68 2fbe fb3a ccbd d244 15be 8f3c 57be
00000270: b67d ecbd 36c5 b5bc 2795 2a3e 287d dabd
00000280: 7888 10be 41e9 123e ab64 373e 44f8 2d3e
00000290: 6145 ec3d 1730 14be 0a21 243e e2ee 723e
000002a0: 5354 873c 78e9 3c3e a2e1 e43c aab3 8c3d
000002b0: 1a48 523e f689 97bd a6e5 4e3e ca74 67bd
000002c0: 1778 b6bd efee d33d 93ec c53d 5c80 4b3e
000002d0: 324c 373d 2ed6 38be df3c 923e 153f fb3d
000002e0: 7ba7 afbd 9cf0 34ba 9870 8c3d 3106 19be
000002f0: 4d1e c6bd 3aa0 24be 8638 f83d da0b 5c3e
00000300: 138d 2a3d 8006 93bd 6b14 12be 9e8f 5a3e
00000310: 2f01 d7bd 3c75 8cbd ad75 e43c 403d c9bc
00000320: 068b c8bd aef6 263e b56c 87bc 539f 453e
00000330: 8eee 4f3e 7cf4 133e 20b9 acbd 4ccf 2c3e
00000340: e86f 0ebe 49b5 623e d7d9 9c3d a725 e8bd
00000350: f2bb 03be 6d25 35be 3f85 84bd b2a4 e23d
00000360: 2b9a ecbd c415 823d 5abd 2bbd 5aac 3f3d
00000370: 7613 4cbd d65e 62bd 4fe9 203e c0d1 b33b
00000380: afde a8bd 6e71 413e 3567 6f3c 5c74 c7bd
00000390: 683a 533e fddb c33d 8e2e 25be 00ab f5bd
000003a0: eb82 7a3e be2d cdbd 894d e6bd f522 73bc
000003b0: 7e2c 0ebe 03c3 ecbd 9b79 2cbe a38c 5cbe
000003c0: 1373 febd f0fa 513e e12d 0abd 2ce1 8b3d
000003d0: f68f ff3c ba29 41be 54b7 12bd e1fa 553c
000003e0: 6dcc 433e e78c 5fbe 60bd e9bd aa91 453e
000003f0: fccd 403e 7a4c 4d3e 1a9a 21be cbcb b63d
-0.063316025 -0.21008538 0.15351093 -0.059231017 -0.068179086 -0.14191142 0.19161932 0.21240868
0.10569838 -0.18649715 -0.09778633 -0.19180833 0.120388165 -0.13617034 -0.14020672 -0.2718186
-0.19159861 -0.06602859 0.024816552 0.22206391 -0.15197735 0.06570303 0.15893306 -0.0036136108
0.06052013 0.16439892 -0.05123193 -0.17217907 0.16286471 0.119891085 -0.10842395 -0.05070749
0.14869834 0.25109836 0.12509835 0.029729746 -0.040337574 -0.121295504 0.01095417 0.070093095
-0.16319868 0.19450709 -0.23295799 0.00409317 -0.1418991 -0.13546413 -0.024083886 0.14809762
-0.057728786 0.2818157 0.16797748 0.1776478 0.25023887 0.090413354 0.1788326 -0.07254357
-0.03335173 -0.16206591 -0.0559109 0.11854761 0.10597839 0.14684203 0.18500118 -0.04904063
0.0140053425 0.13082325 0.14909182 0.14694569 -0.02176899 -0.24560161 0.037820473 0.21610804
-0.10053889 -0.032245714 0.20656243 0.1701284 -0.035946455 -0.050206926 -0.16946045 0.019747656
-0.06020892 0.074472755 0.2071021 0.16127482 -0.057507444 -0.0047625354 -0.1545727 -0.11248945
-0.10679388 -0.11238418 0.14999469 0.14154613 -0.0032851978 0.14096677 -0.17887229 0.15126999
-0.0038949428 -0.16087425 -0.07780062 -0.027624698 0.08766032 -0.045697793 -0.015009767 0.15434211
0.09202518 0.065911755 -0.059462253 0.02284901 -0.057989106 0.2169307 0.097335316 -0.18207456
-0.14486133 -0.038488757 -0.04353734 0.06298504 0.08241232 0.13575092 -0.068349406 -0.08411021
-0.024607314 0.08470598 -0.16812687 0.04855503 -0.119299114 0.17235754 0.17951229 -0.02094513
0.13989237 0.056494717 -0.1499764 0.11627193 -0.17578515 -0.096653774 0.19215298 0.034302395
-0.012854476 -0.23856193 -0.081743464 0.04155014 0.19219472 0.03548245 0.16621284 0.122301236
-0.046461806 0.27343082 0.1955728 0.11293706 -0.006763739 -0.015060459 0.23186368 0.12288005
-0.17129558 -0.09972187 -0.14577034 -0.21019195 -0.11547415 -0.022188764 0.1665846 -0.10668403
-0.14114559 0.14346792 0.17909496 0.16989237 0.115366705 -0.1447147 0.16028228 0.23723939
0.016519701 0.18448436 0.027939621 0.06870206 0.20535317 -0.07399361 0.20204791 -0.056507863
-0.08909624 0.10348307 0.096642636 0.19873184 0.0447504 -0.18050453 0.28562066 0.12267891
-0.08576866 -0.00069023087 0.06857413 -0.14943768 -0.09673748 -0.16076747 0.12120156 0.21488896
0.041638445 -0.07178974 -0.14265601 0.21343848 -0.10498273 -0.06858298 0.027888143 -0.02456534
-0.097921416 0.16305038 -0.016531328 0.19299059 0.20305845 0.14448732 -0.08433747 0.16875952
-0.13909876 0.22139467 0.07658737 -0.113353066 -0.12864664 -0.17690058 -0.06470727 0.110665694
-0.11552843 0.06351808 -0.041928627 0.046795227 -0.049823247 -0.055266224 0.15714 0.0054876506
-0.082455985 0.18890926 0.014612009 -0.09738991 0.20627749 0.09563444 -0.1613104 -0.11995506
0.24464004 -0.1001849 -0.112452574 -0.014839877 -0.1388416 -0.11560633 -0.16843264 -0.21538024
-0.124242924 0.20505881 -0.03373516 0.068300575 0.031196576 -0.18863574 -0.035819367 0.0130603025
0.19120951 -0.21831094 -0.114130735 0.19293848 0.18828577 0.20048705 -0.15781441 0.08925589

weight f4 [128, 256]
00000000: 45a3 b03c ac8a 533d 08b9 623d 143d 083c
00000010: bf56 6b3b 3371 17bd 1975 9ebd 2574 01bc
00000020: 5629 07bd bdd7 f83b 8942 d3bc 3f99 abbc
00000030: dbfe 243c e63c 6ebc a1c0 193d 2b09 b3bc
00000040: 2ff7 13bd 1003 cebc 30e6 bb3d ee13 c4bd
00000050: a205 873d b984 7e3c 27d8 edbc 1e53 81bd
00000060: 7268 c0bc 7192 7ebd c7b4 71bd 5f07 303c
00000070: 356a 94bd e16d ca3c eb42 1f3c 75c6 b1bc
00000080: ed0e b7bc d3aa aa3d 0ff2 b7bb dd07 053d
00000090: c2c2 cf3c c90f b93c 196e d0bc c3fa fbbb
000000a0: 566e 13bd 8b8f 163d d195 5a3d b548 083d
000000b0: 4312 d83c e879 d9bc 544d 3cbc 5358 b83c
000000c0: d109 223d f9c6 aabb f698 d53c 7701 79bc
000000d0: af17 5ebb 6ee8 d9bd 31ac 2cbd 5f0b d5ba
000000e0: 70dd 27bd 400c ba3b 2520 413d bb5c 933d
000000f0: 1c62 b03c 5c0e 2a3d 93ba 0e3b 4c0b 073d
00000100: f50c 453d 8104 b13c 65b1 9abc 6293 d9ba
00000110: 2310 9fbd 2b8a 05bd 1ccd 683c 439b 40bd
00000120: d5d8 2b3c 31fe 9b3c faad 923d a139 0cbd
00000130: 581f 883c 8cb5 1a3d 9771 5abd 9f5b a03c
00000140: 6167 9cbc 16bf 12bd aa1b d73c 0fd9 8fbd
00000150: efbc c03d 77a0 85bd 864a 5dbc 27cd 96bd
00000160: 1a5c a03c f2e9 a6bc a1a3 07bd 0bbe f4bb
00000170: 195a 86bd 5636 6ebb 09b9 3cbd 3f7a 67bd
00000180: a3ff 953d f228 143c aa4d d2bc a4ec 97bd
00000190: 26e5 0c3d d680 c73c dea8 913c 8c35 9bbd
000001a0: 367f 043d 4697 243d 7244 c03c e4f0 7b3b
000001b0: e398 52bc 1afa 893b 5d51 08bd c59f 333d
000001c0: 8e49 f83b 6401 283d 21eb a6bd 3f82 703d
000001d0: b9a4 7abc d2c5 75bd 38fd 893d 9494 7fbd
000001e0: 25f2 56bd fee3 c13d ac00 913c 3478 083d
000001f0: d70c 9fbc deee f33b f785 93bd 876d fa3c
00000200: 410a 11bd 1a81 27bc 6c99 1abd 99ce 013c
00000210: 4de5 7abc 20c2 b33b 73cf a4bc 6749 89bc
00000220: 91a6 9cbc 107b 6d3d edc2 22bd 9459 5e3d
00000230: 70ed 4c3d 00f6 e2bc c8ee 35bc 35f3 8b3c
00000240: 2e5d 393c 8394 73bc 3bf1 96bc f60a 75bd
00000250: 7ed2 813d d9c5 903b ae0b 9abd 565b 403c
00000260: 199c 7d3d 1470 9a3d ddaa 2b3d d430 1d3d
00000270: a04a 62bd e505 1fbd 81b4 e23c f299 cc3c
00000280: b011 00bd 37ad bf3c c47d d7bc c8e2 a03d
00000290: 1e2b bdbc c8e4 423d 75eb 89bd b5fc 19b9
000002a0: cb7f 013b 1eb3 68bd 0109 9b3c 5b46 69bd
000002b0: db67 8ebc 21e8 3dbd 7c8d 38bd c304 bbb9
000002c0: dce2 4b3d f20a ca3c 69bd ac3d 63ef 30bd
000002d0: 5848 b03c 5d7d 46bd 849b 983d cf48 3a3d
000002e0: 581e de3b 6562 8e3c 348d 103d b09c 2abd
000002f0: 4aed 3fbd 022d bb3c 5d77 8abc d9c0 ff3c
00000300: 2788 6bbd 023d 3a3d ede2 c03d 4aa1 993c
00000310: 442e b93c 1b0a adbc a900 843c f743 5dbd
00000320: 7870 7a3c 0326 25bd 1ff3 20bd 7968 403d
00000330: 30ec c4bd 724d bcbc b18e 20bd cb65 1dbc
00000340: 1b3e 20bd ce2e db3d 1a60 523b c8c2 babb
00000350: 9ae5 78bd 1d98 89bc b628 4d3d b5a6 8fbb
00000360: 5765 5cbd cde1 6f3d ba0a 8e3b 2a82 793d
00000370: 86cf cbbd 931d 2fbd c853 97bc 865f f33c
00000380: 9cda 88bd 252d 443c e8a2 5cbb 1350 803c
00000390: 1da1 cabc c10d ac3c 4928 073d 0e29 0e3d
000003a0: 6563 3abd f64d 91bc 10f5 0a3e 01b2 36bd
000003b0: cd09 263b b914 733c e04d b03c 2829 9b3b
000003c0: 3123 5bbd 5aeb 39bd 4350 5a3c 13fb 743d
000003d0: e439 b53d 5bea 8fba f170 ef3c f519 c9bc
000003e0: 6dd5 de3b e141 39bd c9f9 bbbb abae 9d3d
000003f0: aa96 a83d 3955 d7bc ed06 08bd cc74 023d
0.021562228 0.05164592 0.05535224 0.008315343 0.003590986 -0.03697319 -0.07737178 -0.007901226
-0.032998405 0.0075940774 -0.025788562 -0.020947097 0.010070528 -0.0145408865 0.03753722 -0.021854958
-0.036124405 -0.025147945 0.09174764 -0.09574114 0.06592871 0.015534573 -0.029033734 -0.063146815
-0.023487303 -0.062151376 -0.059010293 0.010743945 -0.0724682 0.024710597 0.009720544 -0.021701077
-0.022345984 0.083333634 -0.0056135724 0.032478202 0.025361422 0.022590535 -0.025443124 -0.0076898052
-0.035993896 0.036757987 0.053365532 0.033272464 0.026375895 -0.026547387 -0.011493046 0.022503054
0.039560143 -0.0052117077 0.026073914 -0.015198103 -0.0033888628 -0.106400356 -0.042156402 -0.0016253999
-0.040982664 0.00567773 0.047149796 0.07195421 0.021531157 0.0415176 0.0021778687 0.032969758
0.04810806 0.021608593 -0.018883416 -0.001659971 -0.0776675 -0.03260247 0.014209058 -0.04702307
0.0104887085 0.019042106 0.0716209 -0.034234647 0.016616508 0.037770793 -0.053330984 0.019574938
-0.019092264 -0.035826765 0.026258308 -0.070238225 0.09411036 -0.06524747 -0.013506537 -0.073633485
0.019575167 -0.020375226 -0.033115033 -0.007468944 -0.065601535 -0.0036348305 -0.0460749 -0.056513067
0.073241495 0.009042965 -0.025671799 -0.074181825 0.03439822 0.024353426 0.017780717 -0.07578573
0.03234788 0.040183328 0.023470137 0.0038443143 -0.012853834 0.0042107226 -0.03328072 0.04385354
0.007577128 0.04101695 -0.08150316 0.058717962 -0.015298062 -0.06000311 0.06737751 -0.062397555
-0.05247702 0.09467314 0.017700516 0.03331776 -0.019415302 0.0074442467 -0.07203286 0.030569805
-0.03541017 -0.010223651 -0.03774397 0.007922792 -0.015313459 0.005485788 -0.02011845 -0.016758634
-0.019122394 0.05797869 -0.039736677 0.054284647 0.050031126 -0.027705193 -0.011104293 0.017083744
0.01131372 -0.014866951 -0.018425575 -0.059824906 0.06338976 0.0044181165 -0.07521759 0.011740526
0.061916444 0.075409085 0.041910995 0.038376644 -0.05524695 -0.03882398 0.027673962 0.02497575
-0.031266868 0.023398025 -0.026305087 0.07855755 -0.023091849 0.047581464 -0.06734363 -0.00014685358
0.0019760008 -0.056811444 0.018925192 -0.05695186 -0.017383507 -0.046363954 -0.045056805 -0.00035670967
0.049776897 0.024663422 0.084345646 -0.043197047 0.021518871 -0.0484594 0.07451537 0.045479592
0.0067785196 0.017380903 0.03529091 -0.041653335 -0.046857156 0.02284861 -0.01690262 0.031219887
-0.057502892 0.045468338 0.09418283 0.018753666 0.022605069 -0.021122983 0.016113596 -0.054019894
0.015285604 -0.040319454 -0.03929436 0.046974633 -0.09615362 -0.022986148 -0.03919858 -0.009606789
-0.03912173 0.10702287 0.0032100738 -0.0056994893 -0.06076584 -0.016796166 0.050087653 -0.0043838867
-0.053807583 0.05856495 0.004334775 0.06091515 -0.09951691 -0.042752814 -0.018472567 0.029708635
-0.066823214 0.011973654 -0.0033666436 0.015663182 -0.024735028 0.021002652 0.032997403 0.03470712
-0.045504946 -0.01773737 0.13570046 -0.04460335 0.0025335432 0.014836484 0.021521509 0.004735131
-0.053500358 -0.045390464 0.0133248 0.059809756 0.088489324 -0.0010979878 0.02922866 -0.02454851
0.0068003447 -0.045228843 -0.005736564 0.07699331 0.08231862 -0.026285755 -0.03320973 0.031849667

bias f4 [128]
00000000: 7803 b8bd 7246 df3c 2683 553d 275e ce3c
00000010: b2e7 22bd a697 c1bc 9008 32bd a814 9abc
00000020: 979b 013e b04c 743d e39e a0bd d89b 76bd
00000030: 2566 243d e8ae f1bc c6fd 983d 34c9 173d
00000040: fbb3 933c 4f79 673d 5620 3fbc e72f b4bb
00000050: f6ec ea3c 5f96 67bd 33cc 68bb e2fa a93a
00000060: fcb5 a53d c66f 38bc 15d7 2e3d 7479 1fbb
00000070: 28e5 3e3d dc99 993d 1bac 9ebd 73e3 97bd
00000080: e6b2 813d 57e8 4abd 087e c0bd 0d8a 6a3d
00000090: f4c8 aa3d e23c b03d 29e9 ccbd 3cf8 18bb
000000a0: ddf2 7e3d 552d 303d 024f c93d ef40 07bc
000000b0: 5ead 0dbd 766d 82bd 2a02 053d c19e 523d
000000c0: 4052 c83c 12c7 ad3c 4644 d5bb 5c16 b4bc
000000d0: 0f68 c73d 364e 9f3d 2938 0dbd fc2d 3c3d
000000e0: 8c5f 953b a0ed 363d cff9 0dbd 5b89 9cbc
000000f0: 4116 14bd e6a3 973d bc0b 0c3c 12ef 32bc
00000100: 0e46 17bd f695 efbb 0c50 4abd dc02 893d
00000110: 7833 bb3b 7c87 763d ec5d 2d3d 6e12 b4bd
00000120: 286c 8c3d fd32 953c 4450 313d efbc 973d
00000130: df8f 6a3d 4634 eb3c 3fec 413d 04f4 283d
00000140: 5a14 d8ba 657a 723c 7b72 2ebc 0473 033e
00000150: cdfe bb3b 37fa 5bbc d2b2 25bc 9c97 033e
00000160: 9ca8 81bb 7496 c73d 185a b53d 92da 093b
00000170: 7830 b53c b3f7 a8bb 1f94 35bd 713f cc3b
00000180: 3136 2c3d 56ac 85bc 8382 843d 648b 903d
00000190: 18a9 1a3d e26d dd3c 0ec2 cebc b0b1 ea3d
000001a0: 487b 413d e483 543d 3716 603d 042d 98bc
000001b0: 8f78 a33c 3030 dd3c 60ab 09bd e09a d93c
000001c0: 5ab1 adbd 3053 8b3b 3f75 aeba 696f 663d
000001d0: 45ff 0c3c 55e6 2cbd 2aa6 39bc 1e78 87bd
000001e0: c9a7 ad3d 5945 443d 2168 4ebd 0b0c 29bd
000001f0: 55c3 5bbc 5343 bebd 6152 873a 8300 c03b
-0.089850366 0.02725527 0.052127026 0.02519138 -0.039771743 -0.023631882 -0.043465197 -0.018808678
0.12657009 0.059643447 -0.07842805 -0.060207218 0.040136475 -0.029502347 0.074702784 0.037057117
0.018030157 0.056512173 -0.011665424 -0.0054988745 0.028677445 -0.05653989 -0.0035522103 0.0012968446
0.080913514 -0.011257118 0.042685587 -0.0024333866 0.04660526 0.075000495 -0.0774767 -0.07416429
0.0633295 -0.049537983 -0.093990386 0.05726056 0.0833911 0.086053625 -0.10005409 -0.0023341319
0.06224333 0.043011982 0.09829523 -0.0082552275 -0.034589164 -0.06368534 0.032472767 0.05142093
0.024453282 0.021213088 -0.006508383 -0.021983318 0.097366445 0.077785894 -0.034477387 0.04594229
0.004558509 0.04466021 -0.034662064 -0.019108465 -0.036154035 0.07404308 0.00854772 -0.010921257
-0.036932044 -0.007311578 -0.049392745 0.066899985 0.0057129227 0.0601878 0.0423259 -0.08792578
0.06856567 0.01821279 0.043289438 0.07409083 0.057266112 0.02871145 0.047344442 0.041248336
-0.0016485557 0.014799689 -0.010647411 0.12836844 0.0057371617 -0.013426355 -0.010113435 0.12850803
-0.0039568674 0.097454935 0.08855075 0.002103482 0.022117838 -0.005156481 -0.044330712 0.0062331487
0.04204387 -0.016317528 0.06470206 0.07057837 0.037758917 0.027029935 -0.025239017 0.114596725
0.04723671 0.051883593 0.054708686 -0.018576153 0.019954948 0.027000517 -0.0336107 0.026563108
-0.08481093 0.00425186 -0.0013310089 0.056258593 0.008605783 -0.04221185 -0.0113311205 -0.066147074
0.08479268 0.047917698 -0.050392274 -0.04127125 -0.01341327 -0.09290185 0.0010324233 0.005859436

weight f4 [64, 128]
00000000: 667c d43c 629e e53b 91d8 ddbd 20cc b53d
00000010: f1f6 473d 92dd 763c 0273 84bc 2711 963d
00000020: 9bdc bcbc 5cc5 913d 3836 8fba c0e8 ed3b
00000030: 6cd6 873d fa67 c4bc 0ca0 d8bb 90ba 07bd
00000040: b487 e13d 9b93 f83d 4a74 d4bd 0571 8dbc
00000050: e011 c93d 8764 9f3c 4d78 ad3d da4c 96bc
00000060: c453 c5bd e9b6 103d 0433 d3bb 93d3 a03d
00000070: 299c 9bbd 49ad da3d a809 82bd 305b e63c
00000080: 1226 023e a471 15bc 394e 1fbe 94e5 15be
00000090: f9b5 febd 0e56 8e3d d7e2 50be 6888 05be
000000a0: bfdb 8f3c 863e 023d 8e82 babd 502f 38bd
000000b0: 2f30 d03b f98a d5bc 1f66 c53d eddd e63c
000000c0: dd75 babd 5af9 b8bd f945 f43c 9b2f a03d
000000d0: 0c25 24bd d766 87bc 489c 5dbc 576d 6cbc
000000e0: 1b0a 55bd b17a 9ebb 3ced a23d 709f 213e
000000f0: aacb a0bd 2827 313d 470c 14be 8ac5 2e3d
00000100: 389c 413d b93b 53bd 1c5a a33c 0e19 483d
00000110: 24fc 4f3d 3885 05bd 2327 eebc d5f6 aa3c
00000120: 1303 f8bd a720 80bd ee83 093d aa12 c1bd
00000130: ecb9 8dbd d024 f33c 419f 22bd 14e7 80bd
00000140: d1f0 163d a757 a6bc 4688 d73b 03f6 963c
00000150: a9ed 8ebd 2021 2bbd 99ef 083d e9e7 733d
00000160: 7946 21be c957 ce3d 29a3 c73d bd37 a03c
00000170: 8eb4 17bd b3f2 c03b 61ce ecbd 718d c0bd
00000180: 26cc 013d 47d4 723c 5ed6 743d 5851 303c
00000190: 44cb 6d3b d3a1 16bc 6bfc 603c cc4e 8c3c
000001a0: e4a1 94bd 22e4 c33c 72e3 89bd 281f 3d3d
000001b0: 48bc a3bd 75bf 113c ebd9 10bd efe0 e23d
000001c0: 5489 6a3c 6868 a43d 5ae6 dc3d 3f43 cfbd
000001d0: 4f90 18bd 0cae 5d3c 632b b73c b68b 05be
000001e0: 565a a6bd b23e dfbc dce3 993d 9212 85b9
000001f0: cb49 8fbd 211b 183b 2b6d 7f3d 3a07 0e3e
00000200: b495 a93c 6b00 863c 6d6a 8d3c e879 2dbd
00000210: 69e7 593d ebda f23c 3a9c f7bb 2f17 b53d
00000220: e091 273d 2690 b2bc 0a06 933d db08 b4bc
00000230: 63c3 8bbd 5da8 54bd be7d 033d 9545 91bd
00000240: 1c12 b63c 4328 3d3c 1def e9bb 251f 59bd
00000250: aa2b cfbc 7574 a2bd 76f2 053d 8cef a6bd
00000260: 7825 183d be54 ba3c 13dd a03d b69f 33bd
00000270: d27f a3bd 03d2 47bd 3902 993d 9eae 733d
00000280: 5261 f33b 140a 86bd ed2d 783d a842 aebd
00000290: 3c8c a13d 8808 0c3d 3c08 3abd 76bf 393d
000002a0: d606 20bd 611f 483c 57bf 47bd cf3e 493c
000002b0: 0963 27bd 0ca7 8f3d 3517 f2bc ce26 adbd
000002c0: cbdd d1bc dad5 0a3d 3e31 3cbd d722 b63c
000002d0: 20be 843d a6c8 68bd d9ed b2bc bbcd b2bd
000002e0: 2fa6 a9bd 76c6 94bc 4990 f33c 75fe b9bc
000002f0: 2ad1 6b3d fa30 e13c 7853 b0bd f6c5 823d
00000300: f164 7f39 5619 16bd c705 b4bc 61be 9d3c
00000310: 30b8 ae3d 813b 53bd be49 76bd fbe2 a2bd
00000320: a8a1 31bd da63 2abd 3056 1c3d d98f 8e3d
00000330: d5e8 90bd 28c7 57bb e7e3 86bc 57cf 5bbd
00000340: 6b17 3abd 0e55 963c 182a 863d e9e3 a4bd
00000350: 3d2f fabc b95c 6e3d fa3e b83c 0987 a2bd
00000360: d283 b9bc cb07 a2ba ef9d 99bd b07f 1ebc
00000370: bb54 d7bb b35f 27bc 1646 593d 1cfa 0b3b
00000380: b10c 9b3d c527 2c3d ea48 c5bb e58d 3e3d
00000390: 6eb2 7dbc 5651 b23d e0b5 03bd d592 70bd
000003a0: 4008 97bd 1437 8a3d a7e4 a8bd fccf d83b
000003b0: 9d2e 73bc 8427 58bd 9f34 2e3d b053 38bd
000003c0: 8dc0 833d 44d1 ad3a e2a7 863d 74ca 6eba
000003d0: a47f 2abd 025a e63c 368a 3cbd 2706 60ba
000003e0: 4be2 0f3b 29a0 7cbc fba7 42bc 201f 083d
000003f0: 0db8 91bd 52fe 463d 5d3c 683d bc2d e9bc
0.025938224 0.007007406 -0.108323224 0.088768244 0.048819486 0.015067475 -0.016168121 0.0732749
-0.023054412 0.071177214 -0.0010926193 0.007260412 0.066326946 -0.023975361 -0.006610876 -0.033136904
0.110122114 0.121375285 -0.10373743 -0.017265806 0.098178625 0.019457115 0.08470211 -0.018347193
-0.09635118 0.035330687 -0.0064452905 0.078528546 -0.075981446 0.10677583 -0.06349498 0.028119653
0.12709835 -0.009121332 -0.15557183 -0.14638358 -0.12437052 0.069500074 -0.20399033 -0.13040316
0.017560838 0.03179791 -0.091069326 -0.044966996 0.0063534 -0.026067244 0.09638619 0.028181994
-0.09104512 -0.09031935 0.029818522 0.0782158 -0.040074393 -0.01652853 -0.01352603 -0.0144303655
-0.05201159 -0.0048364033 0.07955405 0.15783477 -0.07851346 0.043250233 -0.14457808 0.042668857
0.047268122 -0.051570628 0.019940428 0.04885202 0.05077757 -0.03259775 -0.029071396 0.020869652
-0.12109961 -0.06256228 0.033573084 -0.09427388 -0.069202274 0.02968064 -0.039702658 -0.06294075
0.036850754 -0.020305468 0.0065775244 0.018427854 -0.06978924 -0.041779637 0.033431623 0.05954734
-0.1574954 0.100753374 0.09747917 0.019557828 -0.037037425 0.005888307 -0.11562801 -0.09401978
0.03168883 0.014821119 0.05977475 0.010761581 0.0036284486 -0.009193855 0.013732056 0.017127417
-0.07257441 0.023912493 -0.06732835 0.04617229 -0.07994896 0.008895745 -0.035364073 0.11078059
0.014314968 0.080277264 0.107861236 -0.10120248 -0.037247 0.013530266 0.022359556 -0.13041577
-0.08122699 -0.027251575 0.07514164 -0.00025381573 -0.06996497 0.002320953 0.06235997 0.13869944
0.020701267 0.016357621 0.017262662 -0.042352587 0.053199206 0.029645404 -0.0075564655 0.088423125
0.0409106 -0.021797251 0.07178886 -0.021976879 -0.068243764 -0.051918376 0.03210234 -0.0709335
0.022225432 0.011545244 -0.0071391 -0.053008217 -0.025289375 -0.07932369 0.032701932 -0.08151159
0.037145108 0.022745486 0.078546666 -0.043853484 -0.07983364 -0.048784267 0.07471127 0.0594927
0.007427373 -0.06544891 0.060590673 -0.085088074 0.07888076 0.034187824 -0.04541801 0.045348607
-0.03906902 0.012214513 -0.04876646 0.012283041 -0.04086593 0.070142835 -0.029552082 -0.08454667
-0.025618454 0.03389535 -0.0459454 0.02223341 0.06481576 -0.05683198 -0.02184193 -0.08730646
-0.0828365 -0.01816104 0.029731886 -0.022704342 0.05757252 0.027489174 -0.086096704 0.06385414
0.00024356299 -0.036645256 -0.021975411 0.019255819 0.08531225 -0.05157042 -0.06012892 -0.07953449
-0.043367058 -0.041599132 0.038168132 0.069610305 -0.07075659 -0.0032925103 -0.016466094 -0.05366453
-0.04543249 0.018351104 0.065509975 -0.08051283 -0.030540103 0.058193896 0.022490967 -0.07935912
-0.022645865 -0.0012361942 -0.075008266 -0.009673998 -0.00657138 -0.010215688 0.053045355 0.0021358794
0.0757078 0.042030115 -0.006020655 0.04652204 -0.0154844355 0.0870692 -0.03215587 -0.05873378
-0.073746204 0.067487866 -0.08246737 0.0066165905 -0.014842656 -0.05277206 0.042530652 -0.045001686
0.064332105 0.0013261219 0.0657499 -0.00091091474 -0.041625634 0.028119091 -0.046030246 -0.00085458386
0.002195495 -0.0154190445 -0.01188087 0.033232808 -0.07115183 0.048582383 0.056698192 -0.02846419

bias f4 [64]
00000000: ddc1 2b3e b788 aabd 3673 9a3c eecd b73c
00000010: 81eb b3bb b008 debb 17bc 78bd e2fd ba3d
00000020: 6b79 113e 90ae 9e3d 5f32 46bd fd70 473d
00000030: 13a9 b1bc 5a2b 9b3d e839 aebd 7bc1 8b3d
00000040: 925b d33d 3a08 ca3d 1e99 d1bc 991a 203d
00000050: 6af3 123d ad3b 823d 3d75 c3bc b8c0 1cbd
00000060: 6513 8e3b cb10 e9bc 2517 663d 801f ce3d
00000070: 08d0 0bbd 4e13 873d aaf3 133d 4e3d 89bd
00000080: e260 afbd 0fb8 c8bb 9558 893d 8a25 61bd
00000090: 0a2a d43d 7140 d03b d8b9 5e3d aef7 683d
000000a0: 7412 4d3c 1ef2 a13d 8a99 443d 903b 9e3c
000000b0: ae37 e0bb 1454 113d f771 9abd 35bf e03d
000000c0: 3c49 b53d 7ff7 673d 6593 913c 33b7 803d
000000d0: b6c5 a33c 5e78 c4bb 87e9 9bbd 3312 8a3d
000000e0: 7871 d33d 58a1 8d3d 951c 373d eb87 9a3c
000000f0: ca5f 653d 05d3 cebc ed09 6d3c c950 c43d
0.16773172 -0.083268575 0.018853765 0.022437062 -0.0054907207 -0.006775938 -0.06072625 0.091304556
0.14206474 0.07748139 -0.04838788 0.04869174 -0.021687066 0.07576628 -0.085071385 0.06824013
0.103202 0.0986485 -0.025585707 0.039087866 0.03587667 0.063590385 -0.023859615 -0.03826973
0.004335808 -0.02845039 0.056174416 0.10064602 -0.03413394 0.06595479 0.036121048 -0.06701146
-0.08563401 -0.006125457 0.06706349 -0.05496744 0.10359581 0.0063553383 0.054376453 0.05687683
0.012516607 0.07907508 0.04799799 0.019315511 -0.006842575 0.035480574 -0.07541268 0.1097397
0.08851859 0.056632515 0.017770479 0.062849425 0.019991737 -0.005995794 -0.07612901 0.067417525
0.10324377 0.069155395 0.044704992 0.018863639 0.055999555 -0.025247106 0.0144676985 0.09585721

weight f4 [2, 64]
00000000: 7bd2 0d3f d107 b0bc 6fe7 e9bd 0af1 d4bd
00000010: 0f7b 843e 8657 293b c695 153d f191 c53e
00000020: 6440 97be 8b79 fb3d 97b9 173d c7da d13c
00000030: 533b 17bd e338 cebe 1222 7dbe 2596 6cbe
00000040: 0a0f fb3e 6932 8f3e ab57 503e 3f08 883e
00000050: dfe0 a43e 76bb 93be 74b2 cb3c 2e5c d7bd
00000060: c826 acbe 7fd9 61be d5ff 8bbe 2b40 21bf
00000070: 6e25 a0be ce5b b73e d472 1d3e cfff 02bd
00000080: 965b f6bd c09a 8cbe f542 6bbe aa99 12be
00000090: faa6 0b3f c35f eebd 2d25 bcbe 81f1 d0be
000000a0: 4c7e 153c e882 0c3e a5c3 04bf 410c 793e
000000b0: 95ce 8a3d 3dc9 b13d 31c5 c23d d6d3 803e
000000c0: 9558 eabb 2975 a9be cf59 18be 6472 c5be
000000d0: 04cd 863d 1f36 573e 0746 85be f9aa bd3e
000000e0: c177 b03e 5078 913d 94db d83d a7c8 bdbe
000000f0: 7223 cdbe c7fd bdbd 03d7 1e3e 494f 0ebf
00000100: 6303 2b3d d804 c5bd af7e 07be e818 0d3e
00000110: be3d 833e 2ab3 10be ceb3 883d 1967 be3e
00000120: 56dd ee3e a9dd 82bf 98b9 1a3e 98d1 64be
00000130: 13e3 2dbf 30b1 c33e cd7e 92bc b7a5 94be
00000140: ada3 1bbf 084a c4bd 4f3d 6e3d c86a 173e
00000150: 89da aebc e522 72bd 0260 0e3e 02d2 c03d
00000160: 2dfd 83be 302a 203e 5fd8 e3bd 44fa 0bbe
00000170: 788b 92be e275 c73e 9ad1 b43d a05f 773d
00000180: 98d8 eabd ba73 84be 619e 25be 50a8 c93d
00000190: e36c 99bd e548 513f ee19 093f a09c 5d3d
000001a0: f9bc 013f e748 5b3f 9812 1c3e 419f 7e3e
000001b0: d3ae 9dbe b671 c0bd 844e efbd 6d8d f43c
000001c0: a7f1 0e3e cb9e bdbd 32be c4bd 0572 09be
000001d0: 16f1 0a3d 3f68 d23e fd66 e93d b122 493e
000001e0: c13d 3a3f e72e b4be 6fad 9abe 465b 01bf
000001f0: 0d09 673e ce96 31be e247 6bbe d49c 033e
0.5539929 -0.021488102 -0.114210956 -0.10397537 0.25875136 0.0025839522 0.03651979 0.38587907
-0.29541314 0.12279042 0.037042227 0.025617016 -0.03692181 -0.40277776 -0.24720028 -0.2310415
0.4903491 0.27968147 0.20345943 0.2656879 0.32202813 -0.2885396 0.024865367 -0.10515629
-0.33623338 -0.22055624 -0.27343622 -0.6298854 -0.31278557 0.3581223 0.15375835 -0.03198224
-0.120291874 -0.27461815 -0.22974761 -0.1431643 0.5455166 -0.11639359 -0.36747113 -0.40809253
0.00912435 0.13721812 -0.5186103 0.2432108 0.06777684 0.08680961 0.095102675 0.25161618
-0.007151673 -0.330972 -0.1487801 -0.38563836 0.065820724 0.2101674 -0.2602999 0.37044504
0.34466365 0.07103026 0.10588756 -0.37067148 -0.40066105 -0.0927692 0.15511708 -0.5558973
0.041751277 -0.096200645 -0.1323192 0.13779032 0.25633043 -0.14130846 0.0667492 0.37188032
0.4665324 -1.0223895 0.15109861 -0.22345579 -0.6792461 0.3822112 -0.017882729 -0.2903268
-0.60796624 -0.09584433 0.058163937 0.14786828 -0.02134444 -0.05911531 0.13903812 0.09415056
-0.25779095 0.15641093 -0.11125254 -0.13669688 -0.2862203 0.38957125 0.08829041 0.06039393
-0.11467093 -0.25869542 -0.16173698 0.09846556 -0.074914716 0.81751853 0.5355519 0.054104447
0.50678974 0.85658115 0.15241468 0.24865438 -0.30797443 -0.09396689 -0.116848975 0.029852593
0.1395937 -0.09258803 -0.096065894 -0.13422401 0.033921324 0.41095158 0.113965966 0.1964214
0.7275048 -0.35192034 -0.30210444 -0.505299 0.22562046 -0.17342684 -0.2297664 0.12852794

bias f4 [2]
00000000: 941e 903c 2cbc ffbd
0.017592706 -0.12487063
