notebooks/output/sas_to_offset_MLP_1_bestval.pt (torch, 191127 bytes, 8 tensors)

weight f4 [256, 20]
0	0x3e4faa66	0.20279846
1	0x3dc093ba	0.094031766
2	0x3e93080d	0.2871708
3	0x3d4682b2	0.048464485
4	0xbd950182	-0.07275678
5	0x3db4fe24	0.08837536
6	0x3d07359c	0.03301011
7	0x3c9416cc	0.018077277
8	0xbc776084	-0.015098695
9	0xbd8abae2	-0.06773926
10	0xb9cd970a	-0.0003921318
11	0x3ea0f0b8	0.31433654
12	0xbe5d69ec	-0.21622437
13	0x3e255823	0.16146903
14	0x3e447549	0.19185366
15	0x3e0f8ed0	0.14019322
16	0xbe16c8ef	-0.14725088
17	0xbbee5dc0	-0.0072743595
18	0xbbb3ec2c	-0.0054908004
19	0x3cedb3cd	0.0290164
20	0x3e95b510	0.29239702
21	0x3d64e3f1	0.055881444
22	0xbe2faf2f	-0.17156671
23	0x3e40d7b4	0.18832284
24	0xbe17ed72	-0.14836672
25	0xbf0ea27a	-0.5571667
26	0x3dbc64f1	0.091989405
27	0xbdb99dbd	-0.09063289
28	0xbce60d7e	-0.028082605
29	0xbd3aad59	-0.045575473
30	0xbc74c443	-0.014939371
31	0x3ecf3c6f	0.40475795
32	0xbe0b5d06	-0.13609704
33	0xbe253ec3	-0.16137223
34	0x3c0c0642	0.008546414
35	0xbe7a331e	-0.24433562
36	0x3e0ded9a	0.13860169
37	0xbe3d135d	-0.18464418
38	0x3ddf0e1f	0.10891365
39	0x3e0e659b	0.13905947
40	0xbe912a92	-0.2835279
41	0xbe8b5d40	-0.27219582
42	0xbe4be2f9	-0.19910802
43	0xbd6e1e12	-0.058134146
44	0xbc5d71a2	-0.013515862
45	0xbb0f86e2	-0.0021900465
46	0xbdf2573d	-0.11833046
47	0x3e44715d	0.1918387
48	0x3ca1b8af	0.019741384
49	0x3e788f70	0.24273467
50	0xbd83f2e3	-0.06442811
51	0xbd54e9e4	-0.051980868
52	0xbe6be182	-0.23035243
53	0xbd5c7739	-0.053824637
54	0xbd348c49	-0.0440791
55	0x3e68b09e	0.22723624
56	0x3c2dc0e0	0.010605067
57	0x3cb1979c	0.021678738
58	0xbe4818c1	-0.19540693
59	0xbd0f1270	-0.034929693
60	0xbe621d7e	-0.22081563
61	0xbd61d2e3	-0.055132758
62	0x3d855afe	0.06511496
63	0xbe51a392	-0.20472553
64	0x3c168949	0.009188005
65	0xbda4caf7	-0.08046525
66	0x3c303ac2	0.010756196
67	0xbd773d0f	-0.060360964
68	0xbe092d73	-0.13396244
69	0xbe1400cd	-0.1445343
70	0x3e36bacd	0.17844696
71	0xbdd80725	-0.10548238
72	0x3d4d1120	0.05006516
73	0xbdd4c41f	-0.1038897
74	0x3e027677	0.12740503
75	0xbdaa9164	-0.08328512
76	0x3c8cdb86	0.01719452
77	0x3e446d27	0.19182263
78	0xbe56cf6a	-0.2097756
79	0xbe3c62eb	-0.18397109
80	0x3de85659	0.113445945
81	0x3d4dbc03	0.05022813
82	0xbe98dd65	-0.2985641
83	0xbd78cc4e	-0.060741715
84	0x3b6292ef	0.0034572443
85	0x3eb8dc42	0.36105543
86	0x3de91028	0.11380035
87	0xbe37a9be	-0.17935845
88	0xbe197806	-0.14987192
89	0x3c76d763	0.015066001
90	0xbb9aa580	-0.004719436
91	0xbe2ca59a	-0.16860047
92	0x3e0dddda	0.13854161
93	0x3db655e8	0.08903104
94	0x3e249831	0.16073681
95	0xbde2657c	-0.11054513
96	0xbe75e983	-0.24014859
97	0x3e47e2fe	0.19520184
98	0x3da3d825	0.08000211
99	0x3d8ebea9	0.06969959
100	0x3e2b5c6f	0.1673448
101	0xbd48b498	-0.049000353
102	0xbd961dbf	-0.07329892
103	0xbd75f87e	-0.060051434
104	0x3e8b8eaa	0.27257282
105	0x3d6e9b4a	0.058253564
106	0x3c82dae7	0.015973521
107	0x3d677d7a	0.05651615
108	0xbe5935e3	-0.21211962
109	0x3e0cf0ef	0.13763784
110	0x3e472c37	0.1945046
111	0xbce366dc	-0.027759008
112	0xbe571c57	-0.21006905
113	0x3df9ab9f	0.12190937
114	0xbe56962b	-0.20955722
115	0xbd142bb8	-0.036174506
116	0xbd5a224d	-0.053255368
117	0xbe4a678f	-0.19766067
118	0xbdde43df	-0.10852789
119	0x3e65177a	0.22372237
120	0x3da304e6	0.07959919
121	0x3d9ee917	0.07759302
122	0x3e5e8f2a	0.217343
123	0x3ec25b1f	0.37960145
124	0xbc452695	-0.012033124
125	0xbe876dd0	-0.26450968
126	0xbe151c9f	-0.145617
127	0x3e3b0c47	0.18266402
128	0x3da196dd	0.07890103
129	0x3e08ac75	0.13347037
130	0xbd79c47b	-0.060978394
131	0x3d6f0839	0.05835745
132	0xbd41f90d	-0.047356654
133	0xbe749b20	-0.238873
134	0xbebb35e8	-0.36564565
135	0xbe0521c6	-0.13001165
136	0x3e791115	0.24322923
137	0x3e023bd6	0.12718138
138	0x3d52d457	0.051472034
139	0x3d2ff228	0.042955548
140	0xbd02b04d	-0.031906415
141	0x3d9976ec	0.07493386
142	0xbe0c9d0a	-0.1373178
143	0x3dfb4c9e	0.12270473
144	0x3dd28bde	0.10280584
145	0x3c442918	0.011972688
146	0x3c175909	0.009237536
147	0xbe216cc0	-0.15764141
148	0x3d2514e4	0.040303126
149	0xbd29a0bc	-0.041413054
150	0xbd0416ac	-0.032248184
151	0xbdf1c4d3	-0.11805119
152	0xbdb4645d	-0.08808205
153	0xbe259249	-0.16169085
154	0x3e363353	0.17793016
155	0xbe47ec9a	-0.1952385
156	0xbe63afc2	-0.22235015
157	0x3e52e379	0.20594586
158	0xbe2ae2d0	-0.16688085
159	0x3d916c74	0.07100764
160	0xbd151d9b	-0.036405187
161	0xbe0a4c6b	-0.13505714
162	0x3e693cfd	0.22777171
163	0x3de15bb6	0.110038206
164	0x3e2dec70	0.16984725
165	0x3b8f17ac	0.0043668356
166	0x3e864605	0.26225296
167	0xbe5f04b1	-0.21779133
168	0x3e2032e3	0.15644412
169	0xbe76c88b	-0.24099939
170	0xbc7483aa	-0.014923969
171	0xbe4fac14	-0.20280486
172	0x3d277cbd	0.040890444
173	0xbda122d9	-0.07867975
174	0xbe09bd39	-0.13451089
175	0xbe80a57f	-0.25126263
176	0x3dd4b899	0.10386772
177	0xbc20c8d0	-0.009813502
178	0xbd89321c	-0.06699011
179	0xbe393faf	-0.180907
180	0x3d86f461	0.0658958
181	0xbe21c22a	-0.15796724
182	0x3e96688a	0.29376632
183	0x3c7bd73d	0.015371141
184	0x3ddcdf83	0.10784819
185	0xbe25c0cc	-0.16186827
186	0x3cded231	0.027199836
187	0x3ce5033b	0.027955642
188	0xbdc48afe	-0.09596823
189	0xbdb73600	-0.089458466
190	0xbd9a2e72	-0.0752839
191	0xbe5974fd	-0.21236034
192	0xbde23824	-0.11045864
193	0x3d74d74e	0.059775643
194	0x3d084bb4	0.03327532
195	0xbcecb2d0	-0.028893858
196	0xbdb5857a	-0.08863349
197	0xbdd6db2c	-0.104910225
198	0xbc5b5dfe	-0.013389109
199	0xbd02ac27	-0.03190246
200	0x3e9645ca	0.2935012
201	0x3d8b572e	0.068037376
202	0x3b87714b	0.0041333786
203	0xbe91c7f8	-0.28472877
204	0xbe12fc97	-0.14354168
205	0x3c271b9d	0.010199455
206	0xbde7ebfc	-0.11324307
207	0xbe5aa472	-0.21351793
208	0x3d551770	0.052024305
209	0x3d83d781	0.064375885
210	0xbd01a391	-0.03165013
211	0x3e7339ab	0.23752467
212	0xbe081693	-0.13289861
213	0xbe5a74ac	-0.2133357
214	0xbce7131e	-0.028207358
215	0x3d1c4604	0.03815271
216	0xbcbcd321	-0.023049893
217	0x3d8fa0d5	0.07013098
218	0xbe443edd	-0.19164605
219	0xbe0bcd50	-0.13652539
220	0xbe3922d0	-0.18079686
221	0xbe5a1690	-0.2129767
222	0xbe32ad5b	-0.17448942
223	0x3e27e21f	0.16394852
224	0x3e5c0b5a	0.21488705
225	0x3cb48870	0.022037715
226	0xbdc01913	-0.093797825
227	0x3d81c08a	0.06335552
228	0x3c06afe5	0.008220647
229	0x3e454eac	0.19268292
230	0xbd97bd5b	-0.074091636
231	0x3e054bf8	0.13017261
232	0xbe590a28	-0.2119528
233	0xbd9921a5	-0.0747712
234	0x3e1dbab9	0.1540326
235	0x3e445fac	0.19177121
236	0x3e7eb2fd	0.24872966
237	0x3bee14bf	0.0072656567
238	0xbd1b59f5	-0.037927587
239	0xbd5c56f5	-0.053793866
240	0x3e135825	0.14389093
241	0x3e3ceace	0.18448946
242	0x3d2f1afa	0.042750336
243	0xbd0183db	-0.031619888
244	0x3e64b216	0.2233356
245	0xbea5ab42	-0.32357222
246	0xbe879524	-0.26480973
247	0xbe8454f8	-0.25846076
248	0xbd98cb94	-0.074607044
249	0xbd5eb72d	-0.05437391
250	0xbce63881	-0.028103115
251	0x3d7a2211	0.061067645
252	0xbdd01fc8	-0.10162312
253	0x3c8a8627	0.016909672
254	0xbcfaa153	-0.030594504
255	0x3e9ecc03	0.31015024

bias f4 [256]
0	0xbca95bdf	-0.02067369
1	0x3d83a2a8	0.064275086
2	0x3e33a0a0	0.17541742
3	0xbe4e1f31	-0.20129086
4	0x3c31e823	0.010858568
5	0x3e44b356	0.19209036
6	0x3d48343c	0.04887794
7	0x3e3b8a2a	0.18314424
8	0x3aa9bfc5	0.0012950829
9	0x3b8ab60e	0.0042331284
10	0x3caedcd3	0.021345532
11	0x3d81034a	0.062994555
12	0xbc372f4b	-0.011180709
13	0xbd54d946	-0.05196502
14	0x3cc5533d	0.024087543
15	0x3d74cdf4	0.059766725
16	0xbe666de7	-0.22502862
17	0x3d8121ac	0.063052505
18	0xbe38b9da	-0.18039647
19	0x3dd38528	0.10328132
20	0xbc823c3b	-0.01589786
21	0xbd498c67	-0.049206164
22	0xbccc96a6	-0.024974179
23	0xbe34d348	-0.17658722
24	0xbe23faab	-0.16013591
25	0xbcaadf27	-0.02085836
26	0xbdabf516	-0.08396356
27	0x3dd7bb76	0.10533802
28	0xbe24e887	-0.16104327
29	0x3ce669aa	0.028126556
30	0xbe876083	-0.2644082
31	0xbd01a844	-0.03165461
32	0x3e560ca3	0.20903258
33	0xbde7f81c	-0.1132662
34	0xbe13ad04	-0.14421469
35	0xbe4141c2	-0.18872741
36	0x3e075f01	0.13219835
37	0x3e43313a	0.19061747
38	0xbe3070cd	-0.1723053
39	0xbe46611d	-0.19372983
40	0x3e84e801	0.25958255
41	0x3c289d63	0.01029143
42	0x3cd4c60c	0.025973342
43	0x3e8f4029	0.27978638
44	0x3dc8b3ac	0.09799895
45	0xbe25b4e6	-0.16182289
46	0x3cbff723	0.023433274
47	0xbdff2773	-0.12458696
48	0x3e179fac	0.14807004
49	0xbc297c93	-0.010344642
50	0x3e1aba3a	0.15110102
51	0xbd26791f	-0.040642854
52	0xbcb2a41f	-0.021806775
53	0x3da0e1b8	0.078555524
54	0xbd88e2d8	-0.06683892
55	0x3e0a2c8c	0.13493556
56	0xbe3e9191	-0.18610217
57	0xbe4a2902	-0.19742206
58	0x3e30babe	0.17258736
59	0x3d60af4f	0.054854687
60	0x3e082486	0.13295183
61	0xbe4904a6	-0.1963068
62	0xbe16f09c	-0.14740223
63	0x3cfda8a0	0.030964196
64	0x3cdce948	0.026966706
65	0xbdf47ea6	-0.11938219
66	0xbd16b933	-0.036797713
67	0x3dffc48f	0.124886625
68	0xbe58705d	-0.21136613
69	0xbd0a7422	-0.03380216
70	0x3e5b3b57	0.21409355
71	0xbe619c5a	-0.220323
72	0x3e27ce53	0.163873
73	0xbd0febe2	-0.035137065
74	0xbe082d69	-0.13298573
75	0xbe9c5922	-0.30536753
76	0xbd556642	-0.052099474
77	0xbe61673d	-0.22012039
78	0x3d9ab1d8	0.07553452
79	0x3e24f8e8	0.16110575
80	0xbdc21b61	-0.09477878
81	0x3dcc257e	0.099680886
82	0x3d7c4b60	0.06159532
83	0x3d8ca58b	0.06867512
84	0x3e89aa7a	0.26887876
85	0xbe883631	-0.26603845
86	0x3e165725	0.1468168
87	0xbe0dab7f	-0.13834952
88	0xbc612dd9	-0.013743841
89	0x3da3149b	0.079629146
90	0x3ea1ce15	0.3160254
91	0xbe3e6b06	-0.18595514
92	0xbd883fed	-0.06652818
93	0x3e4c1318	0.19929159
94	0x3e733688	0.23751271
95	0xbcbbb354	-0.022912659
96	0x3e5cddad	0.21568938
97	0x3d855b86	0.06511597
98	0x3db10f8c	0.086455435
99	0xbd8b5aab	-0.06804403
100	0xbe363cf4	-0.1779669
101	0xbc8833ee	-0.016626325
102	0xbd9e0281	-0.07715321
103	0x3e297aa4	0.1655069
104	0xbd71b8d1	-0.059014145
105	0xbe14c723	-0.1452909
106	0xbe29482d	-0.16531439
107	0x3d3dca6e	0.04633563
108	0x3c10a95d	0.008829442
109	0xba37163f	-0.0006984211
110	0x3bd478f6	0.006484146
111	0xbe056eef	-0.13030599
112	0xbe7053b3	-0.23469429
113	0xbdbe2ba5	-0.09285668
114	0xbe096a56	-0.1341947
115	0x3e07a7e5	0.1324764
116	0xbe3f07fa	-0.18655387
117	0xbcb0472c	-0.021518312
118	0x3e7a866c	0.2446534
119	0xbbd08a67	-0.006364155
120	0xbd915d40	-0.07097864
121	0x3d2aec5b	0.041729312
122	0xbd6d2005	-0.057891864
123	0x3b8b1e68	0.004245568
124	0xbe147225	-0.14496668
125	0xbdda5ebc	-0.106626004
126	0x3e0c9780	0.13729668
127	0x3d07ee47	0.033186223
128	0x3dba032e	0.09082638
129	0xbe2bead5	-0.167888
130	0x3e3cc3ac	0.18434018
131	0xbc652c23	-0.013987574
132	0x3e2a9d98	0.1666168
133	0x3d9750fe	0.07388495
134	0x3e1b0873	0.15139942
135	0x3df07eb7	0.11742919
136	0x3cb894f2	0.02253196
137	0x3e46cad5	0.19413312
138	0x3ebb12c2	0.3653775
139	0xbd881db9	-0.06646294
140	0x3cc02d4f	0.023459105
141	0xbe6a1832	-0.22860792
142	0xbe866e4f	-0.26256034
143	0xbe3cd6f4	-0.18441373
144	0xbd95f287	-0.07321649
145	0xbda08c98	-0.07839316
146	0x3e15964d	0.14608116
147	0xbe59eb5e	-0.21281192
148	0xbe0fc9e8	-0.14041865
149	0x3cabb117	0.020958466
150	0xbd601e65	-0.054716486
151	0xbe52e663	-0.20595698
152	0x3e9bf115	0.30457368
153	0xbc98d766	-0.018657397
154	0x3d002146	0.031281732
155	0xbd8c65f8	-0.068553865
156	0xbd29e942	-0.041482218
157	0x3e838aeb	0.25691923
158	0xbde34ff6	-0.11099236
159	0x3de98cf9	0.114038415
160	0x3d3cf0d1	0.046128098
161	0x3cd4ecdc	0.02599185
162	0xbd47de01	-0.048795704
163	0x3e1d7e6b	0.15380256
164	0x3d0b6838	0.034034938
165	0x3e3482bb	0.17627995
166	0x3c5b7dc6	0.013396686
167	0xbeabeb78	-0.33578086
168	0xbe8a2988	-0.2698481
169	0xbd264f61	-0.040603045
170	0xbd3521c0	-0.04422164
171	0x3cda13cc	0.026620768
172	0x3cc5d06d	0.024147237
173	0x3be3e7f7	0.0069551426
174	0xbdeb7298	-0.114964664
175	0x3e2d4d47	0.1692401
176	0x3c764b84	0.015032653
177	0xbdf449b9	-0.11928124
178	0xbdc7d846	-0.09758048
179	0xbd40fab6	-0.047114097
180	0x3d8dec09	0.06929786
181	0x3e3a57b1	0.18197514
182	0xbd39511d	-0.04524337
183	0xbd89d615	-0.06730286
184	0x3dfa0752	0.122084275
185	0x3e4530a9	0.19256844
186	0x3d47639a	0.04867897
187	0x3e4b20ff	0.19836806
188	0xbe539027	-0.20660459
189	0xbe3a1064	-0.18170315
190	0xbdc6c748	-0.09705979
191	0xbd678537	-0.056523528
192	0xbe0e72bd	-0.13910957
193	0xbe1d1219	-0.15338935
194	0x3d547f28	0.05187908
195	0xbe44101f	-0.19146775
196	0x3cd70770	0.026248664
197	0x3d2584bc	0.04040979
198	0x3d5dc8b0	0.05414647
199	0xbda4ea4c	-0.08052501
200	0xbccd6925	-0.02507455
201	0xbc9fdd29	-0.019514637
202	0xbdece7e3	-0.115676664
203	0x3dd349be	0.103167996
204	0xbe380858	-0.17971933
205	0xbe42f6dd	-0.19039483
206	0x3e3d5fee	0.18493626
207	0x3d4266ac	0.047461197
208	0x3e5beb65	0.21476515
209	0x3cf7139b	0.030160716
210	0x3d647bdb	0.05578218
211	0x3e00b55a	0.1256918
212	0xbe02e726	-0.12783489
213	0xbe832ef3	-0.25621757
214	0x3e2c0d33	0.1680191
215	0xbe1b3847	-0.15158187
216	0xbe832c20	-0.25619602
217	0xbd88f606	-0.0668755
218	0xbe0bc1b7	-0.13648115
219	0xbcc41a41	-0.0239383
220	0xbe158901	-0.14603044
221	0xbe387f37	-0.18017279
222	0x3d792fc3	0.060836565
223	0x3db02b27	0.08601981
224	0xbe08825e	-0.13330981
225	0xbe378b76	-0.17924294
226	0xbb6b98a9	-0.0035949147
227	0xbe613541	-0.21992971
228	0xbdda111d	-0.10647795
229	0xbbb0e961	-0.0053989147
230	0x3e327a11	0.17429377
231	0x3e078fe2	0.1323848
232	0xbd8619c9	-0.06547887
233	0x3ea07dc0	0.3134594
234	0xbe04acfb	-0.12956612
235	0xbe470339	-0.19434823
236	0xbe53e47d	-0.2069263
237	0x3e381cfc	0.17979807
238	0xbe27ed28	-0.16399062
239	0x3e23fe40	0.16014957
240	0xbd98282f	-0.074295394
241	0x3dda91c1	0.106723316
242	0x3e6fa5f1	0.23403145
243	0x3e8cddb6	0.27512902
244	0xbcc9f4d8	-0.024652883
245	0x3db7e1d0	0.08978617
246	0xbe266cd4	-0.16252452
247	0xbd181e84	-0.037138477
248	0x3ca6ae8e	0.020346906
249	0xbe11948e	-0.14216825
250	0xbe37e86e	-0.17959759
251	0x3dd149fa	0.10219188
252	0xbe5e14d2	-0.2168763
253	0x3df03354	0.1172854
254	0xbe3d3d60	-0.18480444
255	0xbeb888d5	-0.36041895

weight f4 [128, 256]
0	0x3d1ce2df	0.0383023
1	0x3d81e3b8	0.06342262
2	0xbd532adc	-0.051554546
3	0x3d87202d	0.06597934
4	0xbd72ead6	-0.05930599
5	0x3ccf8358	0.025331184
6	0xbcecfde7	-0.028929664
7	0xbd5a6a2b	-0.053323906
8	0xbd4a452f	-0.049382385
9	0xbba2cd6d	-0.0049683363
10	0x3d1c3b0a	0.03814224
11	0x3c99aca6	0.018759083
12	0x3d49e367	0.049289133
13	0xbcf5a8a2	-0.029987637
14	0x3d1fe3e3	0.03903569
15	0x3cf2cb80	0.029638052
16	0xbc00f91c	-0.007871892
17	0xbd6ee6bb	-0.05832551
18	0x3d4d19af	0.050073322
19	0xbcc912e6	-0.024545144
20	0xbc630158	-0.013855301
21	0x3d14ca6b	0.036325853
22	0xbd77c97e	-0.060494892
23	0x3d1ad766	0.037803076
24	0x3d07f6bf	0.0331943
25	0xbd290d62	-0.04127253
26	0x3d25a57a	0.040441014
27	0xbcb88bf5	-0.022527674
28	0xbb1ccc8d	-0.0023925633
29	0xbc7ded80	-0.015498519
30	0x3d22b93a	0.039727427
31	0x3d6ee964	0.058328047
32	0x3d39f9df	0.04540431
33	0x3b395257	0.0028277838
34	0x3d1f4c03	0.03889085
35	0x3d3b5c06	0.045742057
36	0xbc888566	-0.016665172
37	0xbd86a470	-0.06574333
38	0x3d277d31	0.040890876
39	0x3d109530	0.035298526
40	0x3cb4cb7b	0.022069683
41	0xbd40399f	-0.04692995
42	0xbbebd8d6	-0.0071974797
43	0xbc2e5b73	-0.01064192
44	0x3bd05d7c	0.0063588005
45	0x3d143f07	0.03619292
46	0x3dc72273	0.097233675
47	0x3ce8ae5d	0.028403455
48	0x3d88374f	0.06651174
49	0x3d2ec4b9	0.042668078
50	0xbd28e4c1	-0.04123378
51	0xbd1007ef	-0.035163816
52	0xbd781c2b	-0.060573738
53	0xbd465eaf	-0.04843014
54	0x3c86c785	0.01645256
55	0x3c02a557	0.00797399
56	0x3c54a610	0.0129790455
57	0x3d3bf11c	0.045884237
58	0xbb69863a	-0.0035632984
59	0x3d8796dc	0.06620571
60	0x3c6ce4de	0.014458863
61	0xbd4fd379	-0.050738785
62	0xbd38ae61	-0.045088176
63	0x3d6a9fcc	0.0572813
64	0xbd1cdeed	-0.038298536
65	0xbcebe24d	-0.028794432
66	0x3d805733	0.06266632
67	0xbccee5c5	-0.025256047
68	0xbc555d54	-0.013022739
69	0xbd4cd2ae	-0.050005607
70	0xbce5f69d	-0.028071696
71	0xbd34a86f	-0.044105943
72	0x3d848ff5	0.0647277
73	0x3cc60af8	0.024175152
74	0x3d882f01	0.0664959
75	0xbc08722e	-0.008328004
76	0x3c4d4bf3	0.012530315
77	0x3c2dfb91	0.01061906
78	0xbd38dae4	-0.045130625
79	0x3bd886f8	0.0066078864
80	0x3ce18679	0.027529942
81	0xbd22e56e	-0.039769582
82	0x3c5636ea	0.013074616
83	0xbc63a59c	-0.013894465
84	0x3ca4e624	0.02012927
85	0x3c488c38	0.012240462
86	0x3c556fd5	0.013027151
87	0x3c757875	0.0149823325
88	0x3d566fec	0.05235283
89	0xbd184990	-0.03717953
90	0xbd19c54d	-0.037541676
91	0x3d1abaa2	0.037775643
92	0x3d4c3b2d	0.049861122
93	0x3bfe6b75	0.0077642747
94	0xb88a1819	-6.584841e-05
95	0x3d93ec31	0.07222784
96	0x3d4491dc	0.047990665
97	0x3d8bc2fc	0.068243
98	0x3c0f82bd	0.008759198
99	0x3d3d8074	0.04626508
100	0xbdbb62f9	-0.09149737
101	0x3d893e59	0.06701345
102	0xbc5d6199	-0.013512039
103	0xbc38fd24	-0.011290822
104	0x3d4e552a	0.050374188
105	0xbccdf83b	-0.02514278
106	0x3d923c71	0.071404345
107	0xbc3a15ed	-0.011357767
108	0xbd570ff7	-0.05250546
109	0xbd50dcb8	-0.050991744
110	0xbd063bfc	-0.03277205
111	0xbd25daef	-0.040491994
112	0x3c1c70fd	0.009548423
113	0x3c0e3092	0.008678572
114	0xbc8a6b97	-0.016897006
115	0xbd2f5996	-0.042810045
116	0xba5e95ac	-0.0008490931
117	0xbcb91232	-0.022591684
118	0x3cb4374b	0.021999022
119	0x3c9b6240	0.018967748
120	0xbcd698fa	-0.026195992
121	0xbd51efb6	-0.051253997
122	0xbccf3dce	-0.025298025
123	0x3d81ad1c	0.06331846
124	0xbd0b0f5b	-0.03395019
125	0x3cbf47e9	0.02334972
126	0xbd78a84c	-0.060707375
127	0xbcb1f2c7	-0.02172221
128	0xbca82bca	-0.020528693
129	0xbd658193	-0.056031775
130	0xba9f33dd	-0.0012146194
131	0x3ba2494c	0.0049525853
132	0xbcac9480	-0.021066904
133	0xbd9f5c84	-0.07781318
134	0xbd716d3a	-0.058942057
135	0x3cbdd3ad	0.023172224
136	0x3c55a92d	0.013040823
137	0x3cc7d55e	0.024393734
138	0xbd4ac625	-0.04950537
139	0x3cb78c30	0.022405714
140	0xbd68c4de	-0.056828372
141	0x3d12322b	0.035692375
142	0xbc93916b	-0.018013677
143	0xbce87b0c	-0.028378986
144	0xbcc4a1fb	-0.02400302
145	0xbce670e0	-0.028129995
146	0x3c8e7c6d	0.017393315
147	0x3c2da674	0.010598768
148	0x3d398398	0.045291513
149	0x3cd113f4	0.02552221
150	0x3c5374ec	0.012906294
151	0x3a96444d	0.0011464447
152	0xbd11a52e	-0.03555792
153	0x3d24b5c1	0.040212397
154	0x3d33327e	0.043749325
155	0x3b639376	0.0034725345
156	0x3c360714	0.011110086
157	0x3d38d2d8	0.04512295
158	0x3c4708bd	0.012148079
159	0x3d8b810f	0.06811725
160	0xbd54fb99	-0.051997755
161	0x3d7bfab5	0.06151839
162	0x3ca9a6a5	0.020709345
163	0x3d344630	0.04401225
164	0xbd69cd41	-0.05708051
165	0x3cb948fd	0.022617811
166	0xbd5f0f93	-0.054458212
167	0xbd38459f	-0.04498827
168	0xbd99bf08	-0.075071394
169	0xbd637837	-0.055534568
170	0x3c527308	0.012844808
171	0x3d24fe2d	0.040281463
172	0xbd1143e8	-0.03546515
173	0xbd4600ae	-0.048340492
174	0xbca7bc65	-0.020475576
175	0xbd4ea7b8	-0.050452918
176	0x3d053aed	0.0325269
177	0x3c10da93	0.008841175
178	0x3d4ca3c5	0.04996087
179	0xbd2f8f7a	-0.04286144
180	0x3d0a47bf	0.03375983
181	0x3bcf6015	0.0063285925
182	0x3c27a540	0.01023227
183	0x3d3b1a89	0.045679603
184	0x3cbda2de	0.02314895
185	0x3d1490cc	0.0362709
186	0xbd66156f	-0.056172784
187	0xbd519731	-0.051169578
188	0xbd3ba56d	-0.04581206
189	0xbd6408eb	-0.055672567
190	0xbd351fba	-0.04421971
191	0xbd624854	-0.05524476
192	0xbd698152	-0.057008095
193	0x3d065aa0	0.03280127
194	0xbc84bb45	-0.016202578
195	0x3d5f6f65	0.054549593
196	0x3abe3a64	0.0014513251
197	0xbd00b7d8	-0.031425327
198	0xbc9b9b75	-0.018995026
199	0x3d323cf2	0.043515153
200	0xbc9f5260	-0.01944846
201	0x3d7f3aa1	0.062311772
202	0x3d0e7e03	0.034788143
203	0x3cebb12c	0.028771006
204	0xbd374b24	-0.044749394
205	0xbd3ae842	-0.045631655
206	0xbd2a0cb9	-0.04151604
207	0x3cd65ac5	0.02616633
208	0x3d50eb66	0.051005743
209	0x3d6337d3	0.05547316
210	0xba899375	-0.0010496216
211	0x3cbca974	0.02303002
212	0xbd29da92	-0.04146821
213	0xbd7ac3a0	-0.06122172
214	0x3c1135ef	0.008862956
215	0xbd3a2613	-0.045446467
216	0xbd5d6a77	-0.05405661
217	0x3d66afc1	0.056319956
218	0x3cc14046	0.023590218
219	0x3d19e8e5	0.03757562
220	0x3c656c3a	0.014002854
221	0x3d6c7f4c	0.057738587
222	0x3d3df6fb	0.046378117
223	0x3c3ee3ff	0.011651038
224	0xbc640ad6	-0.013918599
225	0xbd2689d4	-0.040658787
226	0xbd2792a1	-0.04091132
227	0x3d11e7ab	0.035621326
228	0xbd53ad98	-0.051679224
229	0xbd2cc5eb	-0.042180937
230	0x3d65eaba	0.056132056
231	0xbd878be5	-0.0661848
232	0xbcd3f160	-0.025871933
233	0x3b2b1f93	0.002611135
234	0xbd1207d0	-0.03565198
235	0x3d963ae8	0.07335454
236	0x3c49461b	0.012284781
237	0xbbff19e4	-0.007785069
238	0xbcfb2ba6	-0.030660462
239	0x3c7dfcbc	0.015502151
240	0xbd630aaf	-0.05543011
241	0xbd70963f	-0.058737036
242	0xbd5594a6	-0.052143715
243	0xbd71535b	-0.058917385
244	0xbd638e6f	-0.055555757
245	0xbd2f8945	-0.04285552
246	0x3c44498f	0.011980428
247	0x3b494d1f	0.0030716134
248	0xbbddf597	-0.0067736614
249	0x3d2cf6b2	0.042227454
250	0xbd88234f	-0.066473596
251	0xbc363d47	-0.011123008
252	0x3d66d5d0	0.05635625
253	0x3d040ab2	0.032236762
254	0xbcc29c70	-0.023756236
255	0xbc61be92	-0.013778346

bias f4 [128]
0	0xbc728cca	-0.014804075
1	0x3cf8c9e8	0.030369714
2	0x3dae5f65	0.08514289
3	0x3dc2c453	0.09510102
4	0x3dd6cc62	0.10488202
5	0xbdb630d7	-0.08896034
6	0x3c4ddacf	0.012564375
7	0x3e1529d8	0.14566743
8	0x3ba99a4b	0.005175864
9	0x3b8d07a4	0.0043038893
10	0x3d179ec4	0.037016645
11	0x3d67129d	0.056414235
12	0x3d3b9c9f	0.045803662
13	0x3ccf7d01	0.025328161
14	0xbe31abaf	-0.17350648
15	0x3d0de841	0.034645323
16	0xbc6c81a6	-0.0144352075
17	0x3bf48200	0.0074617863
18	0x3d808642	0.06275608
19	0x3db39ea2	0.08770491
20	0x3d62e9ca	0.05539874
21	0xbc52b9dd	-0.012861696
22	0x3def2afa	0.11678119
23	0xbd0ec0e8	-0.03485194
24	0xbe23d2c9	-0.15998377
25	0xbd8a02c0	-0.06738806
26	0x3dda761b	0.10667058
27	0xbd4d214a	-0.050080575
28	0x3da7d575	0.081950106
29	0x3d12cdae	0.035840683
30	0xbc42bc4f	-0.011885717
31	0x3daeffa6	0.08544855
32	0x3db1bae9	0.086782284
33	0x3d3d3b92	0.04619939
34	0xbd38d319	-0.045123193
35	0xbc34f289	-0.011044153
36	0xbca1cac6	-0.01975001
37	0x3e1daef1	0.15398766
38	0xbd58554b	-0.052815717
39	0xbd1e9129	-0.038712654
40	0xbc44c84d	-0.012010646
41	0x3c966b4f	0.018361716
42	0x3cc83058	0.024437115
43	0x3d6bf41e	0.057605855
44	0x3c130281	0.008972765
45	0xbc88650b	-0.016649744
46	0x3d8ab4b1	0.067727454
47	0x3e0f16bf	0.1397352
48	0xbda6a1c8	-0.08136326
49	0x3cf3ac0b	0.029745122
50	0xbde8e4c5	-0.11371759
51	0xbd18af51	-0.03727657
52	0x3d89d26e	0.067295894
53	0xbd15a075	-0.036529977
54	0x3dd14f3a	0.102201894
55	0x3d10cdfb	0.03535269
56	0xbd05c59e	-0.032659166
57	0x3cb0b0c7	0.021568669
58	0x3cb6091a	0.022221137
59	0x3c306baa	0.010767857
60	0x3dc0dd78	0.09417242
61	0x3d589a8f	0.052881774
62	0x3d69ec0d	0.05710988
63	0xbcdfd9bb	-0.027325502
64	0x3c4616d5	0.0120904045
65	0x3dea68c2	0.11445762
66	0x3b72db53	0.0037056997
67	0x3c92d7fe	0.017925259
68	0x3c25c5e4	0.010117982
69	0xbb77771a	-0.00377602
70	0x3c183c3f	0.009291708
71	0xbd4e132c	-0.050311252
72	0x3d21bca9	0.03948656
73	0x3cdeba70	0.02718851
74	0x3d3a6b9b	0.045512777
75	0xbda06bf7	-0.07833093
76	0x3bbd189f	0.0057707573
77	0x3cb039a3	0.021511858
78	0x3d9754f0	0.073892474
79	0x3d89a5a1	0.06721044
80	0x3e00ab9e	0.12565467
81	0x3d7aa12a	0.061188854
82	0x3c64d463	0.013966653
83	0xbc403ec9	-0.011733719
84	0x3d12b830	0.035820186
85	0xbd9c71d1	-0.07638896
86	0xbd442249	-0.04788426
87	0x3d00fb5a	0.031489708
88	0xbc4e0fa3	-0.01257697
89	0x3cf69555	0.030100504
90	0x3c7bf4e6	0.015378213
91	0xbcebbc12	-0.028776202
92	0x3be45a43	0.006968768
93	0x3cf0f56c	0.029413901
94	0x3d3b2878	0.04569289
95	0x3c4d145a	0.012517059
96	0x3d04b69b	0.03240071
97	0x3d31ec93	0.043438505
98	0x3da41352	0.080114976
99	0xbdd4dd74	-0.10393801
100	0x3df154dd	0.117837645
101	0xbcee70bf	-0.029106496
102	0xbdb0e675	-0.08637706
103	0x3d23549d	0.039875615
104	0xbc343747	-0.010999507
105	0x3ab881a7	0.0014076725
106	0xbd01ff39	-0.03173754
107	0xbd8ee13a	-0.06976552
108	0x3d8609ad	0.06544814
109	0x3e0908c4	0.1338225
110	0x3a9ebfdc	0.0012111622
111	0x3dc3c022	0.09558131
112	0xbd1644b7	-0.036686625
113	0x3d1269d1	0.035745446
114	0x3da272bd	0.07932041
115	0xbcc64547	-0.024202956
116	0x3d4ee62e	0.050512485
117	0x3df1faf3	0.11815443
118	0xbd5a3e11	-0.053281847
119	0x3e04ade6	0.12956962
120	0xbb6fdc0e	-0.0036599669
121	0xbd8475bc	-0.064677685
122	0xbd3b7f63	-0.045775782
123	0xbdca2994	-0.09871212
124	0x3daab602	0.083354965
125	0xbd8c2909	-0.06843764
126	0x3da716b8	0.0815863
127	0x3cb616df	0.022227703

weight f4 [64, 128]
0	0x3d8a3935	0.067491926
1	0x3dad5c51	0.084648736
2	0xbc925460	-0.017862499
3	0x3db2a5d3	0.08723035
4	0xbd1515ad	-0.036397625
5	0xbcd3d918	-0.025860354
6	0x3caee5a6	0.02134974
7	0xbd1f1a14	-0.03884323
8	0xbd07ada7	-0.033124592
9	0xbbb81114	-0.0056172702
10	0x3df40063	0.11914136
11	0xbd2f69a3	-0.042825352
12	0xbd79a71e	-0.06095039
13	0xbdb3bd83	-0.08776381
14	0xbd2ac03d	-0.04168724
15	0x3cc3bf52	0.02389494
16	0x3c11e8a6	0.008905565
17	0x3db81caa	0.08989842
18	0x3c98b649	0.018641608
19	0x3cbdb2cf	0.023156552
20	0x3d06bae2	0.03289307
21	0x3d8015d5	0.06254164
22	0xbd9291c6	-0.0715671
23	0xbda34210	-0.07971585
24	0xbe0359da	-0.12827244
25	0xbd8c2a5e	-0.068440184
26	0xbda5d3b1	-0.080970176
27	0x3d3cbcaa	0.04607836
28	0xba7a2c79	-0.000954337
29	0x3a2a5e21	0.00064990117
30	0xbd079262	-0.033098586
31	0xbd1e0630	-0.03858012
32	0xbb9b8b30	-0.004746817
33	0x3d369489	0.044575248
34	0x3d75660a	0.059911765
35	0xbce7f97f	-0.028317211
36	0xbc002d3d	-0.007823286
37	0xbcce8ae7	-0.025212718
38	0x3da025df	0.07819723
39	0x3ca541be	0.02017295
40	0x3d6f9aab	0.058497112
41	0xbdfb7e3a	-0.12279935
42	0x3d791456	0.06081041
43	0x3db03ebf	0.08605718
44	0xbb6f1e7a	-0.0036486671
45	0x3db1f021	0.08688379
46	0xbd58c6b2	-0.052923866
47	0x3e0104d0	0.12599492
48	0x3dda77e0	0.106673956
49	0xbdf4ee66	-0.119595334
50	0xbc89f6b5	-0.016841272
51	0xbcff7491	-0.031183513
52	0x3d21cdcd	0.039502908
53	0x3d52c974	0.051461652
54	0xbc449dd5	-0.012000521
55	0x3d49830f	0.049197253
56	0x3d7576da	0.0599278
57	0x3d1414ed	0.03615277
58	0x3d787275	0.06065603
59	0xbd2a52be	-0.041582815
60	0xbdf79a56	-0.12089984
61	0xb7a27eee	-1.9371011e-05
62	0xbd04a441	-0.032383207
63	0x3ceede64	0.029158778
64	0xbdbc3263	-0.09189298
65	0x3dcd4d34	0.10024491
66	0x3c0ff55d	0.0087865265
67	0xbce6ea72	-0.028187964
68	0xbde8c840	-0.1136632
69	0x3cb8be85	0.022551784
70	0x3d088a1f	0.033334848
71	0x3d1bf1cc	0.038072392
72	0x3c81a793	0.015826976
73	0x3d626ac9	0.05527762
74	0x3d55c09a	0.052185632
75	0x3e0ce098	0.1375755
76	0x3db520ba	0.08844133
77	0xbcc67fe2	-0.024230901
78	0x3d8e6f56	0.069548294
79	0x3d954e17	0.07290285
80	0x3d4e191b	0.05031691
81	0x3d0356d9	0.032065246
82	0xbda2bc94	-0.07946125
83	0xbbaaa8e4	-0.0052081216
84	0x3c4ea220	0.012611896
85	0x3c9d1eb1	0.019179674
86	0x392727a9	0.00015941136
87	0x3db774fb	0.08957859
88	0xbb865d13	-0.004100451
89	0xbe0c631f	-0.13709687
90	0xbc847744	-0.016170152
91	0xbd716902	-0.058938034
92	0xbd8ee70e	-0.06977664
93	0x3db482b5	0.08813993
94	0x3d850252	0.06494583
95	0x3d0c278e	0.03421741
96	0xbdc9fa8c	-0.09862241
97	0x3e1398b9	0.14413728
98	0xbd960478	-0.07325071
99	0x3cdb4dfd	0.026770586
100	0xbc8f9c6e	-0.017530646
101	0x3d6dfc16	0.058101736
102	0xbd851334	-0.06497803
103	0xbd0c32a9	-0.034228
104	0x3d68a771	0.05680031
105	0x3d3cabe5	0.04606237
106	0xbe3f0cbb	-0.186572
107	0xbb8488fb	-0.0040446497
108	0x3da3c537	0.079966
109	0xbc8b18fb	-0.016979685
110	0x3d41448e	0.04718452
111	0x3d599e33	0.053129386
112	0xbcd1a30f	-0.025590448
113	0xbd8024ac	-0.062569946
114	0x3d513faa	0.051086105
115	0x3da88ada	0.08229609
116	0x3d82f810	0.063949704
117	0xbdbc405a	-0.091919616
118	0x3db0f1b4	0.08639851
119	0x3df2f19f	0.11862492
120	0xbda88a14	-0.08229461
121	0xbd3dd891	-0.046349112
122	0xbdec48ec	-0.11537346
123	0x3c9a78cc	0.018856429
124	0xba969755	-0.0011489192
125	0x3db6d865	0.08927993
126	0xbb162c72	-0.0022914675
127	0x3d70cecf	0.058790978
128	0x3d9714a5	0.073769845
129	0x3d88bc0f	0.06676494
130	0xbd701fd9	-0.058624122
131	0x3d844013	0.06457534
132	0x3d9da5b3	0.0769762
133	0x3dc14b53	0.09438195
134	0x3d39e367	0.045382883
135	0x3b1da8f1	0.0024056996
136	0x3d9a9df5	0.07549659
137	0xbd61a299	-0.055086706
138	0xbd01aee0	-0.031660914
139	0xbd89ccc1	-0.06728507
140	0x3da0617e	0.07831095
141	0xbd84c412	-0.0648271
142	0xbcb48c9e	-0.022039708
143	0xbce24252	-0.027619515
144	0xbd0fb69e	-0.035086267
145	0xbd91c703	-0.071180366
146	0x3d28dbd1	0.04122526
147	0xbd8017d1	-0.062545426
148	0xbdc63485	-0.09677986
149	0x3cff28b4	0.031147338
150	0x3db8e022	0.09027125
151	0x3c99abd2	0.018758688
152	0x3d968727	0.07349997
153	0x3ceb8884	0.02875162
154	0x3d7a3387	0.061084297
155	0xbd13929d	-0.036028493
156	0xbd02d013	-0.031936716
157	0xbd1e5dba	-0.038663603
158	0x3d0457d0	0.032310307
159	0x3cc97b4f	0.024594931
160	0xbcb1ab0d	-0.021688009
161	0x3d77a6b6	0.060461722
162	0x3d109918	0.03530225
163	0xbc1383a7	-0.009003556
164	0xbd84a9d6	-0.06477706
165	0xbd2b1ed3	-0.041777443
166	0x3d322023	0.04348768
167	0xbd31f846	-0.043449663
168	0x3d4799bb	0.048730593
169	0x3dc52dec	0.096278995
170	0x3b11615a	0.002218327
171	0x3d9fa5b6	0.07795279
172	0x3d3af9ee	0.045648508
173	0x3d6eea33	0.05832882
174	0x3d2a8831	0.04163379
175	0x3d6911c1	0.056901697
176	0x3cfbe785	0.030750046
177	0xbd240132	-0.040040202
178	0x3cfe78a8	0.031063393
179	0x3b95d97b	0.004573045
180	0x3cb7353d	0.022364253
181	0xbd6d2a69	-0.057901774
182	0xbd418637	-0.047247138
183	0x3cb54bf3	0.022130942
184	0xbd5c2782	-0.053748615
185	0x3d9141a0	0.07092595
186	0xbdc4c672	-0.09608163
187	0x3d617799	0.055045698
188	0x3dc79013	0.09744277
189	0xbdb6b4f0	-0.0892123
190	0xbcde0a8d	-0.02710464
191	0x3d63fb3c	0.055659518
192	0xbd3d3ff3	-0.046203565
193	0xbd7b6992	-0.061379977
194	0xbd958936	-0.073015615
195	0x3cb9aec5	0.022666344
196	0x3d59d56e	0.053182058
197	0x3b922da0	0.0044610053
198	0x3d95b107	0.07309156
199	0x3c854d40	0.016272187
200	0xbcdbcf47	-0.026832236
201	0x3d0daaec	0.034586832
202	0x3dcbac42	0.09944965
203	0xbd9496fe	-0.07255362
204	0xbd825ba4	-0.06365135
205	0x3dde886e	0.10865866
206	0x3cb88546	0.022524487
207	0x3d316c28	0.043316036
208	0xbcec9123	-0.0288778
209	0x3c13df5f	0.009025424
210	0x3d731002	0.059341438
211	0x3dbbe63c	0.09174773
212	0x3d3c385b	0.045952182
213	0x3d35fc1e	0.04442989
214	0x3d78de52	0.060758896
215	0x3c567c84	0.01309121
216	0x3d664f37	0.05622789
217	0x3d97ecde	0.07418226
218	0xbda104c6	-0.078622386
219	0xbd9f9094	-0.07791248
220	0x3d7376a9	0.059439335
221	0xbd84c7f2	-0.06483449
222	0xbceef3ff	-0.02916908
223	0x3d1cafd8	0.038253635
224	0xbd85c9f7	-0.06532662
225	0x3cd4372e	0.025905218
226	0xbdc54718	-0.09632701
227	0xbd2f80ba	-0.042847373
228	0xbb9218b4	-0.0044585112
229	0x3c5629ad	0.01307146
230	0x3d040592	0.032231875
231	0x3d771e45	0.0603316
232	0xbbeea2ce	-0.0072825914
233	0xbd899a0e	-0.06718837
234	0x3dd8eb10	0.105917096
235	0x3dc25b57	0.09490078
236	0xbc6b739a	-0.014370823
237	0x3cf15f6d	0.029464448
238	0x3d793112	0.060837813
239	0xbc0b8891	-0.008516447
240	0x3d96e23d	0.0736737
241	0xbd5ef15a	-0.05442939
242	0xbd97040a	-0.07373817
243	0x3c8354be	0.01603162
244	0xbcf59dc9	-0.029982464
245	0xbdb73593	-0.08945765
246	0xbd70f793	-0.058829855
247	0xbcf076ad	-0.029353464
248	0x3b4b2a40	0.0031000525
249	0xbdc9bb8f	-0.09850227
250	0xbd15d128	-0.03657642
251	0x3dc2bcc7	0.09508663
252	0x3de2ce37	0.110744886
253	0xbd3ffee1	-0.04687393
254	0xbdc1f466	-0.094704434
255	0xbde97e37	-0.11401027

bias f4 [64]
0	0x3d0636d3	0.03276713
1	0xbc6dfdd3	-0.014525848
2	0x3e11860a	0.14211288
3	0xbde34721	-0.11097551
4	0xbe0c22b6	-0.13685116
5	0xbd56eaf5	-0.052470166
6	0xb8493696	-4.797297e-05
7	0xbd9f0796	-0.07765119
8	0x3d995449	0.07486779
9	0x3d0688be	0.03284525
10	0x3d28722d	0.04112451
11	0x3d6c4a67	0.057688143
12	0xbd8201f3	-0.06348028
13	0xbd8c0eaa	-0.068387344
14	0x3d4ac22b	0.04950158
15	0x3db900b2	0.09033336
16	0x3e16530e	0.1468012
17	0x3e3c1572	0.18367556
18	0xbdb49605	-0.088176765
19	0x3d058ba0	0.03260386
20	0x3cac7c96	0.021055501
21	0x3d669511	0.056294505
22	0xbd3f88d4	-0.04676135
23	0x3e0e94ac	0.13923901
24	0xbd9720e2	-0.07379319
25	0x3c70d2f6	0.0146987345
26	0x3e0fcba0	0.1404252
27	0xbdc62c93	-0.096764706
28	0x3e811c98	0.25217128
29	0xbd940dd7	-0.07229202
30	0x3dd42675	0.103588976
31	0x3cf8a6f4	0.030353047
32	0x3d8afbaa	0.06786282
33	0xbded8e32	-0.11599387
34	0x3e6d1392	0.23151997
35	0x3e0bd013	0.13653593
36	0x3d2c2cd9	0.042034958
37	0x3d53d7db	0.051719528
38	0x3d640c2f	0.05567568
39	0x3dccc624	0.0999873
40	0x3da833f1	0.08213032
41	0x3dd25946	0.10270934
42	0xbd8d9519	-0.06913204
43	0xbcdef059	-0.027214216
44	0x3e1c113c	0.1524095
45	0xbd2399e8	-0.0399417
46	0xbd82f6bc	-0.06394717
47	0xbd57df23	-0.052703034
48	0x3d3a707c	0.04551743
49	0xbd50c5ad	-0.05096977
50	0x3d85e886	0.06538491
51	0x3d32fef9	0.043700192
52	0xbc8ea480	-0.017412424
53	0x3d994566	0.0748394
54	0x3da6ec74	0.081505686
55	0xbd0cadc4	-0.034345403
56	0x3cb744a8	0.022371605
57	0x3df76765	0.12080268
58	0xbe31268e	-0.17299864
59	0xbd92f198	-0.071749866
60	0x3baf0a9d	0.0053418414
61	0xbd3f7dcb	-0.046750825
62	0x3dc140c2	0.0943618
63	0x3dfb77de	0.12278722

weight f4 [2, 64]
0	0xbe3739e2	-0.17893174
1	0x3cbc90ef	0.023018328
2	0xbee62d9f	-0.4495668
3	0x3cb543c7	0.022127045
4	0xbe82dddf	-0.255599
5	0xbd29dd10	-0.041470587
6	0x3f07ea77	0.5309214
7	0xbe9172a2	-0.2840777
8	0xbc88848a	-0.016664762
9	0x3d9577af	0.072982185
10	0xbe4ec99d	-0.20194097
11	0x3f2cc0ec	0.67481875
12	0xbe8dc1bb	-0.27686867
13	0x3dcb2f0a	0.09921081
14	0xbc90c4e5	-0.017672012
15	0xbdfe6a2c	-0.124225944
16	0xbea7a018	-0.3273933
17	0x3e93c157	0.28858444
18	0xbd9664e9	-0.07343466
19	0x3db65ccc	0.08904418
20	0x3cd8403f	0.026397822
21	0x3e432406	0.1905671
22	0x3e8748d7	0.2642276
23	0x3f009105	0.5022128
24	0x3d832bf5	0.064048685
25	0x3e11826b	0.14209907
26	0xbea59235	-0.3233811
27	0x3e3b1e24	0.18273216
28	0x3f3320df	0.6997203
29	0xbe829a1a	-0.25508195
30	0x3e944c03	0.28964242
31	0xbe3ef342	-0.18647483
32	0x3c7b603b	0.015342767
33	0x3e20d669	0.15706791
34	0x3f06dddf	0.526823
35	0xbf6f5c14	-0.93499875
36	0xbeb2ab6b	-0.34896407
37	0x3be44fd3	0.0069675236
38	0x3e878d65	0.26475063
39	0x3ceb15d4	0.028696932
40	0xbef0a13c	-0.46998012
41	0x3db647c5	0.08900408
42	0xbd57e4cb	-0.05270843
43	0x3c9dbd60	0.01925534
44	0x3f643acd	0.8915222
45	0x3d399ab6	0.04531356
46	0xbb2726ee	-0.0025505382
47	0x3de28a4a	0.11061533
48	0xbde9db33	-0.11418762
49	0x3a28a44e	0.0006433175
50	0xbe895311	-0.26821187
51	0x3e6f6208	0.2337724
52	0x3e4f9d1d	0.20274778
53	0xbf35e470	-0.7105169
54	0x3f16c948	0.5890088
55	0xbe66e708	-0.22549069
56	0xbdd660a1	-0.10467649
57	0xbea96617	-0.330857
58	0x3ead20c8	0.33814073
59	0x3b7a6d97	0.0038212293
60	0x3d6216c1	0.05519748
61	0x3d7c78f5	0.06163879
62	0xbe2506d5	-0.16115887
63	0xbf351bca	-0.7074553
64	0xbec3271c	-0.38115776
65	0x3e8efdc1	0.27927974
66	0xbef220c9	-0.47290638
67	0xbe66fe77	-0.22558008
68	0xbe229ba3	-0.15879683
69	0x3dc208ff	0.09474372
70	0x3ce5edf4	0.028067566
71	0x3e0a605b	0.13513319
72	0x3de2afba	0.110686734
73	0x3c308880	0.010774732
74	0x3e11621f	0.14197586
75	0xbd10fd3b	-0.03539775
76	0x3bf61e1d	0.007510914
77	0x3deb6064	0.114929944
78	0xbf062c2d	-0.52411157
79	0x3ef429a3	0.47688016
80	0x3d8c6b84	0.068564445
81	0x3eb97bfa	0.362274
82	0x3e065a9f	0.13120507
83	0xbe673ce1	-0.22581817
84	0xbf24288d	-0.64124376
85	0x3f92f957	1.1482342
86	0xbd88e6a3	-0.066846155
87	0x3e26a996	0.1627563
88	0x3d6d58f8	0.057946175
89	0xbf073aaf	-0.5282392
90	0x3dd82495	0.105538525
91	0x3da0414a	0.07824953
92	0xbf11dd2c	-0.56978106
93	0xbd9d591e	-0.076830134
94	0xbe35a96c	-0.1774041
95	0x3f3dae2b	0.74093884
96	0xbf773b22	-0.96574605
97	0x3ea90bf4	0.33016932
98	0x3f3054ba	0.6887928
99	0x3b65aaa9	0.0035044348
100	0x3e948a8b	0.2901195
101	0x3ea62082	0.32446676
102	0xbe56ebe1	-0.20988418
103	0xbf7704fb	-0.96491975
104	0xbd88d57f	-0.06681346
105	0x3ef2979f	0.47381303
106	0x3d1e7d66	0.038693808
107	0xbdad5806	-0.08464055
108	0xbd7790e3	-0.06044091
109	0x3df0a734	0.117506415
110	0x3ebec757	0.3726146
111	0xbdc95939	-0.09831471
112	0xbf51f58f	-0.8201532
113	0xbe6e4cca	-0.2327148
114	0x3e38a364	0.18031079
115	0xbe9bbfb3	-0.30419692
116	0xbd44b60e	-0.048025183
117	0xbcfd49ae	-0.030918922
118	0xbd3e6299	-0.04648075
119	0x3c4114e3	0.011784765
120	0xbe94c5c6	-0.2905714
121	0xbeb1c9d9	-0.3472431
122	0x3c0e6ee0	0.008693427
123	0xbdebecc8	-0.11519772
124	0x3d979fbf	0.07403516
125	0xbe82e4ed	-0.25565282
126	0x3dc8029b	0.09766122
127	0x3e37cec1	0.17949964

bias f4 [2]
0	0xbcd141f8	-0.025544152
1	0x3d3ea419	0.046543214
