manually_saved_runs/naive_ddpg_4/task_params.npy (npy, 2048 bytes, 1 tensors)

array f8 [120, 2]
000000 d2 2a d2 ae 1b 78 e6 bf 8c 7c 79 c2 c0 bb ec bf
       -0.7021616377326956 -0.8979190634089647
000010 96 61 82 c3 1c 85 e5 3f 6a 41 1b f5 50 14 e2 3f
       0.6724990671673818 0.5649800097690278
000020 3e b5 12 08 05 f2 ea bf a2 fd 6c ba db 78 e9 3f
       -0.8420434148480707 0.7960032120826563
000030 42 83 53 14 c7 0f ec bf 4c 72 3f 32 58 1b e9 3f
       -0.8769259831425205 0.7845879537013132
000040 f6 c2 f5 27 89 df e4 bf 74 0f 13 d0 92 53 d3 3f
       -0.6522870808094854 0.30197592086573555
000050 86 b6 54 84 d7 b8 e7 3f c0 8b f4 2e 4b ca a8 3f
       0.7413137039745414 0.04841837833580298
000060 fc fe 26 31 42 c8 d0 bf 66 04 66 90 91 8f e6 3f
       -0.2622228126528936 0.7050254650386136
000070 e8 97 9b 20 71 10 ec bf c0 12 a5 23 be c0 c2 3f
       -0.8770070683356126 0.14650704136342618
000080 d2 c1 e4 db 54 32 e3 bf 98 b6 76 74 c5 15 c8 bf
       -0.5998939795300038 -0.188164407603314
000090 64 14 fc 3c 84 fb d2 3f 60 eb fc c4 3b 44 c4 bf
       0.2966013522676063 -0.15833232039025358
0000a0 80 c3 33 1b fe 86 cd 3f 0c f1 b3 f0 33 3c d5 bf
       0.23068214729530823 -0.3317994928945758
0000b0 e2 a2 50 33 66 f2 e9 bf fc 77 3e 64 f0 44 e6 3f
       -0.8108397485967453 0.6959154088870032
0000c0 dc ac 3d ab c4 5a da bf de 32 1c cc fb 22 e6 3f
       -0.41179005358453735 0.691770456936492
0000d0 c8 a4 f9 48 45 83 d5 3f ca bf fa 6c c8 e4 ef 3f
       0.3361371243141318 0.9966776016717571
0000e0 c0 4f cd 28 9a 99 d2 3f 38 c1 77 ac fd 48 ed bf
       0.2906251333672536 -0.9151600235473216
0000f0 3a 5e 72 9e fe bc ec 3f 36 43 78 16 68 d4 e8 bf
       0.8980706305182544 -0.7759285391676716
000100 72 13 47 e9 ba b3 e0 3f b2 da e6 68 9d 2f e1 3f
       0.5219397121623912 0.5370623635161194
000110 58 55 71 b5 1e e5 d4 bf 74 84 54 4d 91 24 d7 3f
       -0.32648437232031347 0.36160690833828046
000120 ae ff e1 be 06 f2 e5 3f 48 d5 15 bf 27 52 c5 bf
       0.6857942321948849 -0.1665696795495626
000130 fc 75 c2 b4 81 28 e2 bf da 99 86 06 ee ca e7 bf
       -0.5674446611844242 -0.7435217025238743
000140 00 37 d5 10 d4 e1 80 bf 00 0b 60 eb 0f 1c e3 bf
       -0.008243233455370369 -0.5971755597277877
000150 b4 e6 f6 9f d5 06 da 3f 34 00 dd 5d e6 ee d2 bf
       0.40666714307335927 -0.295831290877689
000160 02 31 4d 4f 64 6c ef bf 20 12 6e 0e ab 78 ad 3f
       -0.9819814251764287 0.05756125022074721
000170 66 a6 4f 23 02 d0 e5 bf c0 a2 ac b3 3f e1 e2 3f
       -0.6816416444464266 0.5899961957230389
000180 c2 2e ff 9c 69 54 e5 3f 3c 1d b7 d2 b9 f9 d1 bf
       0.6665542665809527 -0.28086705758729
000190 58 a8 6f f6 6e 7d e8 3f 8c 65 b5 a7 55 90 d9 bf
       0.765311700173025 -0.3994344842700108
0001a0 b0 53 3e ac 35 13 b4 bf f8 8f de 3a 23 09 e2 3f
       -0.0784181161419173 0.5636154317658102
0001b0 00 71 23 07 51 2d b0 bf 26 92 85 6a 9c 53 e7 bf
       -0.06319147514608758 -0.7289564209464217
0001c0 c8 43 6e a4 3c c7 d6 3f a6 04 9d 57 74 bc ef 3f
       0.35591045434653923 0.991754695052937
0001d0 74 c4 f2 6d 35 79 e4 3f bc d0 7c ab e0 43 d7 bf
       0.6397959849765713 -0.3635179209407047
0001e0 34 ba 8a c2 2d 7f d7 3f 28 59 30 fb f0 53 eb bf
       0.3671373748610762 -0.8539967447311811
0001f0 28 c2 57 8a 8e 67 e6 3f c8 09 ff 06 77 7e d5 bf
       0.700141210747522 -0.33584380801417213
000200 40 6c b5 40 cb 20 af bf a8 66 e2 ba b0 bb df bf
       -0.06079707302952686 -0.4958307099383128
000210 32 62 94 ed 18 60 e7 bf 32 a5 43 3c 1d a4 ec 3f
       -0.7304806366183298 0.8950334717784811
000220 30 6d f4 0f 41 17 d3 3f 86 34 91 45 79 0b e2 3f
       0.2982943206604487 0.5639006003126645
000230 98 11 87 3a 04 1e cc bf f2 24 58 8e 03 62 ee bf
       -0.21966603143495145 -0.9494645862734201
000240 68 9c 5b 19 74 71 d6 bf 5c 97 b1 38 61 8d d3 3f
       -0.3506746528277689 0.3055041364335602
000250 44 f8 e5 f4 74 34 e3 bf be 4f ea e6 a4 ae eb 3f
       -0.6001534255190184 0.8650688657821701
000260 dc dc f4 bc 39 e0 ed 3f d0 d5 af fe b7 3e c2 3f
       0.9336212816769165 0.14253902374154714
000270 1c 26 06 6f 8b 1b df bf f4 27 02 07 88 4e ea 3f
       -0.48605619280042034 0.8220863472827191
000280 e0 98 7c 35 b8 89 d9 3f a4 dc b4 7e 1e 96 e2 bf
       0.399030735238183 -0.5808250879989783
000290 c0 20 97 14 ea 48 a7 3f a0 6e 42 f9 a7 b1 b9 bf
       0.04547816754672018 -0.10036706767498993
0002a0 d8 a4 a2 15 b7 f7 c3 3f 50 83 ad 36 d2 9e ba 3f
       0.1559971671715974 0.10398591837794169
0002b0 34 0b 9a 75 ca 7e d8 3f c0 73 e4 b2 32 50 e1 3f
       0.3827386997656277 0.5410398000709549
0002c0 a8 27 6c 61 24 ae e8 bf e4 ff b3 d8 10 cd d8 3f
       -0.7712575819762053 0.3875162235490264
0002d0 c0 8a 98 69 3e 4b cb bf bc 7f 7c a5 f2 33 e2 bf
       -0.21323375850723458 -0.568841288772084
0002e0 e8 ea 5c c4 90 31 c5 bf ee 17 ea dd 25 4f e3 3f
       -0.16557511890444876 0.6034116110101857
0002f0 ae 8d 14 02 cb 8a e3 3f dc 5d 80 42 f5 3b ec bf
       0.6106925049429515 -0.8823190974098298
000300 fe 5f f8 97 b5 f8 ec bf 18 5b 63 4a 9e e0 d4 bf
       -0.905360028092218 -0.326209614414823
000310 6a c3 04 87 47 ad ea 3f 00 a0 85 ff c8 2b 35 3f
       0.8336522709924854 0.0003230443685624529
000320 d0 ef 62 15 f7 0c c3 bf 8c d1 60 30 81 2f db bf
       -0.148833165590871 -0.4247744533961615
000330 e0 39 0b d3 8e c6 b7 bf fc 0f 32 57 e4 32 ed bf
       -0.09287350323140897 -0.9124623969114505
000340 a0 51 8d 40 5b cc c5 bf d6 8d 8e cd da 1f e5 bf
       -0.170298964042229 -0.6601385130674611
000350 ca af 44 98 c6 4d e5 3f f8 7f d5 f3 47 f5 e7 bf
       0.6657441114416482 -0.7486915361769197
000360 64 4b 4c ee 48 90 d2 bf 0e 23 af c1 c4 36 e7 bf
       -0.2900564505700258 -0.7254356177228105
000370 5c 47 54 59 a8 75 df 3f 10 de ef 15 2d 1f e7 3f
       0.4915562507968525 0.7225556782204325
000380 da 82 33 e9 ee a4 e9 3f 68 bd 36 91 d3 e8 ea bf
       0.801383452864765 -0.8409211956222125
000390 3c fd c3 e9 d9 4a ed 3f ca 99 6b f1 47 a3 e8 3f
       0.9153871122106589 0.7699317660561118
0003a0 cc 10 4a 49 a4 40 d6 bf 78 ca 80 a8 fd c4 d3 3f
       -0.34769541890296973 0.30889836745624377
0003b0 50 0c 60 b0 b5 2d db bf ce db ac 9c c1 21 e6 3f
       -0.42466490005626145 0.6916206417143884
0003c0 90 03 e9 0e ae b4 da bf f6 bf bd bf 75 6b e9 bf
       -0.4172778268439794 -0.7943676705308451
0003d0 d8 cf 90 a9 96 33 c1 3f 90 47 f4 91 b3 e5 d4 3f
       0.13438685683797646 0.3265198636373663
0003e0 74 cf 27 15 71 a7 d7 3f 58 95 5b 07 c9 db c5 bf
       0.3695948320957918 -0.1707698141027929
0003f0 fc 83 c4 be 6d 96 d4 3f 48 42 31 81 1c e3 d6 bf
       0.3216814387288307 -0.35761177650877984
000400 6a b1 e5 d8 7b 78 e4 bf 4a fd 2d 32 dc a6 e7 bf
       -0.6397074924730479 -0.7391186695166791
000410 02 92 b7 97 2c 9f ee 3f 80 c0 c8 54 93 84 a0 bf
       0.9569304431175285 -0.032261470889694444
000420 00 03 6d 26 68 cc ae bf d8 4a 77 9b 1d 5a e7 3f
       -0.06015325039925834 0.7297504459805522
000430 40 30 7c 22 45 e8 bb 3f 6a ad 10 ef a8 ff ef bf
       0.10901290981218015 -0.9999584836236128
000440 74 a1 b5 5f b7 26 d9 3f b0 04 9e 6e 65 42 ce 3f
       0.3929880556738887 0.23640125180466987
000450 5c b4 b7 da 03 be e1 bf 62 e4 eb e1 ce 33 e2 bf
       -0.5544451972797435 -0.5688242352035895
000460 6c 6e 76 4a 74 ef e7 3f f8 eb b4 3d 1a d1 d0 bf
       0.747980256495294 -0.2627626040081732
000470 60 fd 05 da 39 a9 ed 3f 60 de 4c 7f 71 8f b0 bf
       0.9269074686307412 -0.0646887718002005
000480 44 9c e7 4e 28 3d ea 3f 0c 1d 84 8c f8 82 d3 3f
       0.8199655095203373 0.3048688289859036
000490 f4 15 4b 6e 9c 13 e2 bf f6 0f 96 06 2b 86 e2 bf
       -0.5648939279714669 -0.5788779381405209
0004a0 28 cc 30 85 94 be c1 bf 50 e0 82 cc 42 a9 e2 bf
       -0.13862854484031684 -0.5831617349968017
0004b0 74 8e 92 11 ea eb e7 bf 80 1f 6d aa f7 f0 e1 bf
       -0.7475481360638256 -0.5606649712217262
0004c0 00 a2 c7 3c e7 4d 76 bf d4 7e e8 1a ff 22 ee bf
       -0.005445388098884951 -0.9417720342207425
0004d0 ec 4b 5f 29 3e 97 ec 3f 70 e1 84 88 f8 85 cd 3f
       0.8934622581531335 0.2306509653660771
0004e0 48 ab 5b c8 4e 17 d3 3f 60 5a 2c 57 d2 ab ac 3f
       0.29829759184092497 0.05599839510084759
0004f0 2e ee 1b 2c 4f b2 e0 bf d0 6d d0 48 87 c9 e1 3f
       -0.5217662679201049 0.5558506414558284
000500 8e 03 59 b8 51 d6 e6 bf c0 df 03 41 01 62 92 bf
       -0.7136620140591832 -0.017951984017571254
000510 c8 08 dd 64 f1 74 ed 3f 14 4a b0 f9 38 31 db 3f
       0.9205252618778781 0.42487930663733775
000520 d6 46 18 ad f1 93 e2 3f a0 b6 6b c3 79 d0 dc 3f
       0.580559576106874 0.45022434314783233
000530 7c da 36 94 92 08 ef 3f 34 d0 d1 e3 ff 3a eb bf
       0.9697964567956912 -0.8509520959473833
000540 70 02 19 e0 86 c6 b0 3f 1c ff 4a 59 e2 fe d4 3f
       0.06552927943358511 0.32805689544692185
000550 d8 32 12 97 c2 39 de bf e8 79 a5 e7 4a 52 ef bf
       -0.4722753978065106 -0.9787954830497343
000560 48 72 db 8a 1c d4 e8 3f f8 e7 a2 9b ef 27 e4 3f
       0.7758925163321431 0.6298749961636068
000570 a0 62 32 d3 a2 de cd bf a6 8b db 88 71 c9 ee bf
       -0.2333568125948391 -0.962090270328521
000580 e8 85 f5 88 06 f7 c3 3f 10 52 88 4f 7d 49 b1 3f
       0.15597612082915124 0.0675276106997631
000590 c0 0c 85 80 37 22 a2 3f 1e d3 95 01 96 98 e8 bf
       0.03541730350345906 -0.7686262160264936
0005a0 50 22 f8 e9 43 30 c6 3f d0 98 a6 5c af e7 d2 3f
       0.17334793972283302 0.2953909306328457
0005b0 70 6a e7 2a 39 e4 b9 bf 80 70 e2 b9 75 0c 92 bf
       -0.10113866136036065 -0.01762565562295082
0005c0 f8 19 cf 5e 27 70 d5 3f f8 4f e2 02 e8 16 c6 3f
       0.3349703241223376 0.17257404461690817
0005d0 d0 b2 55 5b db 42 e8 bf c8 31 64 b3 49 77 ec 3f
       -0.7581612380868936 0.8895615104425412
0005e0 9e 7b 53 19 4b 93 e3 bf 5e 65 06 7c 16 62 ed 3f
       -0.6117301458979119 0.9182236120570157
0005f0 f8 84 0f 9b 0b 8b e6 bf 64 cf f8 99 cd 52 dd 3f
       -0.7044733074691569 0.4581789020187357
000600 08 e9 73 c8 0c 6f d2 bf 4c 8d 31 b6 9f c7 e4 3f
       -0.2880279500528933 0.6493681486576093
000610 08 0d b7 e7 86 83 d8 3f 0c cf 41 3a 0e 52 eb bf
       0.38302776935979965 -0.8537665498574554
000620 b4 38 37 b1 8a 24 d1 3f 08 1a 62 4e 83 e6 c4 3f
       0.26785533243390636 0.1632846958857075
000630 d6 8e 7a 52 50 eb ec 3f 2c fa e8 b4 b5 95 d3 bf
       0.903724824038785 -0.30601256052969705
000640 cc df 2b a8 2c 8d ea bf 80 bb 56 72 fa 18 b6 bf
       -0.8297332081410729 -0.0863186387202699
000650 52 e6 30 8d d9 40 e7 bf 90 29 d4 69 5f ac dd bf
       -0.7266662366520882 -0.46364579520072713
000660 aa f6 8a 9d fb a0 e7 bf 18 37 6c 30 3a 6a c0 3f
       -0.7384012295730902 0.12824179996862806
000670 48 01 00 24 e3 b9 ee bf cc 1b ea e3 a3 5c e4 bf
       -0.9601913169026739 -0.6363086177306001
000680 44 65 1e e5 95 73 d8 3f e4 9d cc 9b 88 cf d4 bf
       0.38205478072048416 -0.3251668473698983
000690 a8 75 a4 20 b3 7d dc bf a4 52 f7 dc 87 12 e3 bf
       -0.4451721018575321 -0.5960120502228006
0006a0 44 82 2f c9 28 0d d1 bf 40 d0 e3 79 81 d8 b2 bf
       -0.26642818114308775 -0.07361611581637906
0006b0 a8 8b e1 d8 af 63 e1 3f 2c 86 43 5e 8e ae d4 3f
       0.5434188114125975 0.3231540604157057
0006c0 1c b4 44 c3 89 43 ea 3f a8 cd 6f 66 b7 df db 3f
       0.8207444013438621 0.4355295658453664
0006d0 46 fa f1 f9 96 ad e9 3f 7c a4 56 d1 ea 3d dd 3f
       0.8024401551954916 0.4569041294403815
0006e0 b8 91 94 6e 92 e7 c3 bf 02 61 a3 06 76 26 e4 bf
       -0.15550451659613684 -0.6296949510242771
0006f0 9c fc 20 49 b2 b1 e6 bf bc 30 a5 a5 6e 43 d1 3f
       -0.7091914585397663 0.26974073578163504
000700 62 4d 12 b8 69 27 ef bf 80 23 40 9a 1b 94 db 3f
       -0.9735611529489854 0.43091478408364736
000710 9a ab 3f 81 f4 ea e2 bf ac c2 8e 2d b9 cf ee 3f
       -0.5911810421360884 0.9628568544195182
000720 a4 e9 26 d5 cd 38 ec bf 4e dc ef c2 72 30 e9 bf
       -0.8819340861439753 -0.7871640975344094
000730 00 87 65 df 95 42 7d bf 98 a9 e4 5a a7 f2 e6 3f
       -0.007143578948985541 0.7171208167322218
000740 10 37 bc 87 95 45 c7 bf 6c ff d5 86 24 1e d8 bf
       -0.1818110382814031 -0.3768397633320919
000750 2c 8d fb bb fa 63 d0 bf 08 ee 17 3f 07 16 cc bf
       -0.2561022601859857 -0.21942225056396603
000760 1e cf 13 84 3e e1 ed bf 2e 2a 5e 13 75 d5 e1 bf
       -0.9337456302295981 -0.5573068025854064
000770 d0 b4 e6 15 01 30 e1 3f 5c 74 d5 ee 30 23 e1 bf
       0.5371098926313156 -0.5355457939837254
