manually_saved_runs/pearl_ddpg_3/task_params.npy (npy, 848 bytes, 1 tensors)

array f8 [45, 2]
00000000: 082f ba84 a4c2 c83f 80b4 da0c a02c 9d3f
00000010: ad96 87e1 9055 c73f 800f 5d97 67d9 9e3f
00000020: 6765 10e0 b004 a5bf 4d42 ddee 463e b23f
00000030: 9a9a ca73 a10f af3f 14d9 7e8b 2427 bc3f
00000040: 60a2 943b c4dc a8bf 63c2 6320 3c39 c2bf
00000050: 0d01 ace4 0ec9 bc3f 154a a16f 36e7 c73f
00000060: 343e a331 c7bb 9abf 2cf0 4c92 5a9e c33f
00000070: 57e2 3578 c2fd c43f 67db 3f2c 9b14 a5bf
00000080: c006 452c 8fb6 b8bf 0d0e 5789 4998 c2bf
00000090: 149c b0d6 c0ff afbf a73b 9a04 76c9 90bf
000000a0: a79f 484f b929 b0bf ad2c 8955 4f46 c8bf
000000b0: 275f 8e2c 554a c9bf 053c 310f 3bd6 c13f
000000c0: 670c 4bfb 37f2 95bf 8df7 8202 6dd0 92bf
000000d0: 8dda ae95 9436 a6bf 5494 7541 e10c a5bf
000000e0: 321a 32b0 804a c4bf 1a76 1bbe 6b8a 903f
000000f0: 3bea 9cb0 0267 c13f 07ed ee9a 087e bfbf
00000100: b29a 9f60 ade6 c6bf df18 a38b fe65 c83f
00000110: 1386 d770 3a31 a2bf ede9 e592 6e84 b13f
00000120: 8889 5c8b 8038 c5bf 40af 439b 6948 c8bf
00000130: 4f57 170a 0244 c53f 144b fdc2 d58b bfbf
00000140: 50e7 6bd0 96ff c4bf 44c9 bcfe 2c15 b83f
00000150: 1241 e88a 83c9 c0bf 856b 4875 6f93 c3bf
00000160: c0d7 24dc 1203 c73f 338d 7310 2d4b 823f
00000170: 6051 d6bd e962 b6bf a405 f48e 037d b43f
00000180: 4a96 44f9 765f b0bf 5892 8f4b 0b04 c1bf
00000190: 924f fbfb 486d c83f 0d49 e498 3e51 9dbf
000001a0: 4d23 36a9 e47f 853f fd16 3882 038e bb3f
000001b0: 0fd6 fd4d 4fe4 c3bf 52b1 630e 48f1 c8bf
000001c0: 4d97 a0f2 9549 a5bf 9acf fe4b e23a 92bf
000001d0: 6716 10b2 a692 bdbf 0087 d1e6 48c5 b93f
000001e0: cda6 1aa8 1753 c23f 74b8 0b3b 506b c93f
000001f0: 44a1 5e9b 893f b7bf 678e 89aa 9bbd c63f
00000200: 500a 6581 c3ce b5bf 1090 1d25 5ea7 b83f
00000210: f00b 02de 0261 bc3f 740c 1493 09f8 bf3f
00000220: a0e4 fe58 5f59 a93f 3a42 3335 4abf b93f
00000230: 870c f42f 0609 b4bf 0775 613b cee7 a73f
00000240: c710 d34c 7525 acbf 5459 454d fa2c c93f
00000250: e7c4 5e82 4ba5 80bf a725 32bd 9b01 c2bf
00000260: fafe e7a1 4077 ae3f 47f2 c848 fb98 bd3f
00000270: 6ce9 5d3a 68b1 c53f 6361 864b 4102 b2bf
00000280: 2085 6e12 9382 b5bf fd7d d67e 8911 c13f
00000290: 5284 06a0 c3ba c1bf d7da 84d3 66a4 b8bf
000002a0: 5093 12a8 221f c13f 172f 551f 94d6 b73f
000002b0: e490 eae7 9b05 c9bf 6772 3845 c923 51bf
000002c0: 4fe4 4286 9bd2 c7bf 6750 36df e486 a83f
0.19344002228569246 0.028490544113698224 0.18229876529874414 0.030126207936759908 -0.04105141387135341 0.07126277286193634 0.06066612757176877 0.10997227101947643
-0.04855931498815802 -0.1423716695931204 0.11244290430841293 0.1867435498302973 -0.026106941609041992 0.15327007430630724 0.163994129845167 -0.04117283740190807
-0.09653563338090532 -0.14527243810708548 -0.06249811764455884 -0.01639351275531067 -0.06313665567051761 -0.18964568783335292 -0.19758095431893105 0.13935030214130975
-0.021431803429333842 -0.0183732064040139 -0.043385165473798094 -0.041113890877377074 -0.15852364161783467 0.01615303371260355 0.13595613120726732 -0.12301687033225416
-0.17891471116964436 0.19061261957376183 -0.035531832003254625 0.06842700086955462 -0.16578680805930568 -0.18970985490101988 0.1661379384301491 -0.12322746286853842
-0.16404996086913082 0.09407311648536615 -0.1311497143037817 -0.15293687082961696 0.17978130101408674 0.008932449402385778 -0.08744679341027028 0.08003256073063497
-0.06395667634623084 -0.13293591680043693 0.1908351164225875 -0.028630235749980183 0.0104978431834454 0.10763570717980638 -0.15540496166401893 -0.19486332609757057
-0.04157703959235324 -0.01780274952734793 -0.11551896903264379 0.10066657672134838 0.14316077907760985 0.19858744509787452 -0.09081325572208693 0.1776613791181376
-0.08518621357965483 0.09630382925166736 0.11085527343861634 0.12487850037364173 0.04950998269436835 0.1005751018412945 -0.07826269789443262 0.04669041132795298
-0.05497328341292156 0.1966851117419518 -0.008127775112230796 -0.14067408311920568 0.059503574146217944 0.11561556364990465 0.16947653627341752 -0.07034690946455195
-0.08402365875237594 0.1333476895642746 -0.1385120898603725 -0.09625857032811368 0.13376267630260452 0.09311795964202606 -0.19548367332493577 -0.0010461297541787486
-0.1861147313664184 0.04790415978200784
