manually_saved_runs/no_offset_ddpg_0/actor.pt (torch, 276359 bytes, 6 tensors)

net.0.weight f4 [256, 8]
0.8591532 -1.9779516 -0.7177812 -0.13422139 0.77318734 0.5652689 0.04494892 -0.14021446
-0.83197796 0.34733242 -1.3931829 -0.0547754 0.9225335 0.5070572 0.11057258 0.36545777
-0.96270937 -0.39276165 -0.67890745 -1.0676377 1.0893791 1.0594863 -0.3751471 -0.93863356
-0.93930894 0.17300025 0.0027481471 0.74131507 1.1456176 -0.5920805 -0.602821 0.34132272
-0.9016831 -0.411972 -0.427548 -0.07888775 -1.0647134 0.44021782 -0.9439842 -0.75039524
0.5945998 -0.8358094 -1.3335881 2.7842124 0.4294426 -0.22179772 0.1148329 -1.4536344
-1.7336237 -0.23822713 1.9654503 2.629832 -0.06501134 0.18295772 -0.49841335 0.44815257
-0.4466312 -0.56085557 -1.0372009 1.1125783 0.28012106 0.7266983 -0.825308 -0.7994086
-0.015090712 -0.6495942 1.7674843 -0.9367185 0.28945318 -0.6645432 0.24851622 0.5639209
-0.022405611 -1.7304341 -0.28280994 -1.3473525 0.236217 -0.24059388 0.15504456 -0.018098336
-0.16774957 -0.5308499 0.48559335 1.9185454 -0.73860073 -1.6574302 -0.93205917 -1.254924
1.3740451 0.40785834 -0.32388934 0.60532737 0.32875535 -0.3833896 -1.5628716 -0.36160102
-1.2041287 0.56200945 -0.15784702 0.86645436 -1.6222306 -0.6069268 0.100825906 0.75013936
0.31389776 -0.38261044 0.054898776 -0.8956721 -0.072989725 1.2860721 -0.8782307 0.02940113
0.9577656 0.15283197 -0.8304486 0.39707148 0.97317183 -0.005140801 -0.72046196 -0.5581767
-1.6824613 -0.15590926 -0.98394233 0.75556463 0.5801402 0.15750161 0.18909164 0.14280367
-1.2784383 -0.3557074 0.5803412 -0.7675139 -1.0989419 -0.6489786 0.52270937 0.23898421
-0.65351725 0.5627413 0.48145667 0.6757906 -1.1868954 -0.49194893 0.40381634 0.23828205
0.16454747 -0.8225113 1.6237948 0.8508363 0.85812926 0.43566388 0.07002098 0.054083418
-0.9426073 0.092068054 -0.11866088 -0.5215532 0.36385092 -0.49545223 -0.3819571 -0.059967097
-0.317032 -0.14925502 0.5905259 3.125485 -0.26940688 -0.7460657 -1.4957542 -1.3169185
-2.091179 0.33982924 -0.22901742 -0.090775155 -0.020708516 0.6304066 -1.1121473 -0.1897416
-0.36377668 0.5810239 -1.8766205 0.37876987 1.9386947 -0.011450859 -1.3725799 -0.88947195
-1.4497023 0.100415185 -0.16922817 -0.5382527 0.6190452 -0.22270091 -0.035640303 -0.6011544
0.93952125 0.29861853 1.0162965 1.1041827 -1.5835445 -0.4965912 -0.6294471 -0.37087685
0.74564326 -0.21132402 0.12188833 3.7111769 -1.8282893 0.21504186 0.7064396 -0.43023738
-0.44394368 -0.31705606 1.3516225 0.21760899 -1.3047473 0.62142074 0.048172027 -0.33179146
-0.2586516 0.19031598 1.0689788 0.15404199 0.726814 0.62315464 0.14713873 0.32747513
-0.123507805 -0.56683606 1.3687305 0.16178662 0.072703905 -0.22694777 -1.0447121 -1.3659521
-0.08544479 0.41025588 -0.51847196 0.5553074 1.3947514 0.32139376 -0.42196798 0.3814022
-0.33527932 -0.65068704 0.17597339 -0.8904316 0.64620954 0.2081334 -0.27162626 0.229183
0.03154852 -1.7551932 -0.10239502 -1.6243886 0.34696066 -0.23883857 0.18882371 0.09491439
00000000: 77f1 5b3f 852d fdbf 82c0 37bf 5571 09be
00000010: 9bef 453f 76b5 103f 5c1c 383d 6194 0fbe
00000020: 82fc 54bf 8ed5 b13e d153 b2bf 2b5c 60bd
00000030: 282b 6c3f 80ce 013f e073 e23d 481d bb3e
00000040: 1f74 76bf 0e18 c9be e1cc 2dbf 5aa8 88bf
00000050: c670 8b3f 3f9d 873f 4813 c0be 4a4a 70bf
00000060: 8d76 70bf fa26 313e 421a 343b d3c6 3d3f
00000070: 99a3 923f 9692 17bf 7a52 1abf dac1 ae3e
00000080: b4d4 66bf feed d2be 92e7 dabe e78f a1bd
00000090: 8748 88bf 3b64 e13e f3a8 71bf e719 40bf
000000a0: b137 183f 9bf7 55bf 04b3 aabf 8930 3240
000000b0: e7df db3e f11e 63be 832d eb3d b110 babf
000000c0: 62e7 ddbf d0f1 73be e093 fb3f 2b4f 2840
000000d0: aa24 85bd 4559 3b3e 0930 ffbe 4174 e53e
000000e0: d8ac e4be 3b94 0fbf 00c3 84bf f768 8e3f
000000f0: 076c 8f3e e608 3a3f 6347 53bf 0ba6 4cbf
00000100: 093f 77bc ce4b 26bf ed3c e23f c9cc 6fbf
00000110: 3533 943e 811f 2abf 097b 7e3e 1f5d 103f
00000120: f98b b7bc dd7e ddbf 77cc 90be 0c76 acbf
00000130: dfe2 713e 3e5e 76be 00c4 1e3e f642 94bc
00000140: 8bc6 2bbe c7e5 07bf b19f f83e e592 f53f
00000150: f014 3dbf ac26 d4bf 6e9b 6ebf 5aa1 a0bf
00000160: b6e0 af3f cfd2 d03e d3d4 a5be bcf6 1a3f
00000170: 9f52 a83e a44b c4be 2d0c c8bf c523 b9be
00000180: e420 9abf dadf 0f3f a6a2 21be f4cf 5d3f
00000190: 41a5 cfbf 8e5f 1bbf d07d ce3d 2209 403f
000001a0: 35b7 a03e 84e5 c3be 8add 603d c44a 65bf
000001b0: a37b 95bd 039e a43f bad3 60bf a3da f03c
000001c0: 2030 753f fc7f 1c3e 4898 54bf f44c cb3e
000001d0: ca21 793f 2a74 a8bb 3270 38bf abe4 0ebf
000001e0: e45a d7bf ada6 1fbe a5e3 7bbf af6c 413f
000001f0: 1184 143f 1a48 213e 3da1 413e 203b 123e
00000200: dea3 a3bf 481f b6be 3e91 143f ca7b 44bf
00000210: 21aa 8cbf 7623 26bf 48d0 053f 47b8 743e
00000220: e84c 27bf d00f 103f 7d81 f63e 9d00 2d3f
00000230: 30ec 97bf bbe0 fbbe 04c1 ce3e 3600 743e
00000240: 227f 283e 1a90 52bf 82d8 cf3f 68d0 593f
00000250: 5cae 5b3f 560f df3e 2967 8f3d 9386 5d3d
00000260: b64e 71bf 2d8e bc3d 7a04 f3bd 8384 05bf
00000270: ab4a ba3e eaab fdbe e28f c3be 0fa0 75bd
00000280: 0552 a2be 4fd6 18be b52c 173f f207 4840
00000290: b3ef 89be 29fe 3ebf e074 bfbf c990 a8bf
000002a0: e0d5 05c0 19fe ad3e 8b83 6abe 53e8 b9bd
000002b0: e8a4 a9bc 5462 213f d85a 8ebf 9f4b 42be
000002c0: f040 babe fbbd 143f 1a35 f0bf 20ee c13e
000002d0: 2627 f83f 629c 3bbc b3b0 afbf 6fb4 63bf
000002e0: d88f b9bf 7aa6 cd3d 264a 2dbe eeca 09bf
000002f0: bf79 1e3f b50b 64be 91fb 11bd 41e5 19bf
00000300: 7784 703f 87e4 983e 0116 823f dc55 8d3f
00000310: 96b1 cabf 3441 febe 7223 21bf 92e3 bdbe
00000320: 7ae2 3e3f 5365 58be 97a0 f93d ec83 6d40
00000330: 6205 eabf ef33 5c3e 3ad9 343f 1348 dcbe
00000340: 964c e3be 2c55 a2be f701 ad3f e4d4 5e3e
00000350: f601 a7bf 6e15 1f3f 0850 453d 92e0 a9be
00000360: fc6d 84be 31e2 423e 4cd4 883f 2fbd 1d3e
00000370: 7b10 3a3f 1087 1f3f 89ab 163e d2aa a73e
00000380: a9f1 fcbd 2b1c 11bf 9032 af3f 64ab 253e
00000390: c9e5 943d ff64 68be 20b9 85bf 85d7 aebf
000003a0: aefd aebd 0f0d d23e 94ba 04bf a028 0e3f
000003b0: 3787 b23f b98d a43e 300c d8be 2647 c33e
000003c0: bba9 abbe 6d93 26bf 5e32 343e 53f3 63bf
000003d0: fd6d 253f ec20 553e 9912 8bbe f3ae 6a3e
000003e0: 0539 013d 2caa e0bf 7bb4 d1bd f7eb cfbf
000003f0: d4a4 b13e 1992 74be 015b 413e 7a62 c23d

net.0.bias f4 [256]
0.07589186 -0.16269922 -0.12485599 0.17833354 -0.05143531 0.23429893 0.45456374 -0.020787787
-0.5345421 0.049313396 -0.082329415 -0.31183332 -0.54043996 0.13117237 0.45761403 0.0997202
0.10762681 0.7868339 -0.13875242 0.20576242 0.027870674 -0.046593513 -0.2796011 -0.12679163
-0.45075372 0.06891086 -0.029238896 -0.24361445 0.18189557 -0.7754861 0.027761454 -0.15870757
-0.8593116 -0.0275949 -0.61573815 -0.8724395 -0.41558746 -0.41487846 -0.19309713 0.7342306
0.5867955 -0.13013417 -0.9601854 0.35535228 0.11012031 -0.044423655 0.19996992 0.022888027
0.06422165 0.073180184 -1.0487998 -0.4347436 -0.414067 0.166922 -0.09037617 -0.043462258
-0.16757321 -0.010543721 0.49147576 -0.2530697 0.1233691 -0.5262467 -0.53510547 0.033418518
0.064728364 0.1479637 -0.035273265 -0.38360885 0.037091877 -0.5845332 -0.4504124 -0.49230364
0.11198303 0.20484282 -0.7322899 -0.58267677 -0.10015353 -0.079646446 0.015731648 0.06440229
0.1033671 0.0067340885 -0.1335521 0.48006147 -0.08882279 0.07261243 -0.46376655 -0.13550183
-0.68816364 0.15440536 -0.4711547 0.65556586 -0.23552227 0.3512063 -0.190801 -0.2099337
-0.74199337 0.0074434783 0.4881282 0.6885945 -0.18456428 0.07769464 -0.15079871 -0.35109547
-0.6581379 0.39934537 0.4936933 0.14751202 0.09574856 0.17927353 -0.2957453 0.4256039
0.20969054 0.27176067 -0.0561868 -0.5557968 0.07647624 -0.60805726 0.25060588 0.24682137
-0.1993261 -0.59423524 0.14270794 0.26722923 -0.21926317 -0.08266431 0.37964737 0.0147023145
-0.29649138 0.08529258 0.32913482 0.5032076 -0.7805291 0.0641756 0.29958174 -0.5379922
-0.20111597 -0.8595541 0.118631594 -0.05850674 0.0037188132 -0.21456334 -0.6244979 -0.046843916
-0.36500874 -0.081350975 -0.2913553 0.02276933 -0.20455366 -0.038236473 0.121245205 -0.65054405
-0.077248886 -0.82121783 -0.5026347 -0.0007555182 -0.34302706 0.039430954 -0.1960041 0.43495032
-0.0044618114 0.1965632 0.24502362 -0.24631587 -0.36842805 -0.3571617 -0.030542485 -0.31395024
-0.050397996 -0.23338242 -0.082855 0.189831 -0.36226782 0.5624271 0.32677674 0.55361086
0.41794845 0.00037678008 0.88104 -0.038850375 -0.5834422 -0.23743375 -0.08276657 -0.21710709
0.16702724 0.25804976 0.60724014 -0.35870796 0.30404574 -0.1831318 -0.5887395 0.27233127
-0.34632137 -0.6496509 0.28175753 -0.30389392 -0.7284116 0.25881967 -0.01519687 0.073778525
-0.068471424 0.5188398 -0.15436998 0.093657255 0.040795315 -0.2654556 -0.53497577 -0.13154338
0.14646174 -0.051429152 -0.12698823 -0.879869 0.03848956 0.3802774 0.087052405 -0.7171793
0.12698543 0.03041228 0.174839 -0.37224308 0.039157934 -0.5983079 -0.44699275 -0.3800841
-0.41620317 -0.4820661 0.041709002 -0.7391495 -1.0156616 -0.47895983 0.2571135 0.21154672
0.0030549245 -0.71594214 -0.32510144 0.2629677 -0.48339406 0.6353782 0.04588111 0.11091989
-0.3737658 0.04529456 -0.31466347 0.30622858 -0.49544388 0.086758815 -0.75842553 0.16882451
0.21252938 0.09651618 0.4857707 -0.14952466 -0.35807312 0.26801205 0.035740253 -0.46557716
00000000: 316d 9b3d a09a 26be 7fb4 ffbd 119d 363e
00000010: d5ad 52bd 0fec 6f3e 94bc e83e 264b aabc
00000020: c0d7 08bf d8fc 493d 539c a8bd 9ea8 9fbe
00000030: 465a 0abf 0d52 063e 634c ea3e 1b3a cc3d
00000040: 726b dc3d f26d 493f 1d15 0ebe 62b3 523e
00000050: 0a51 e43c d7d8 3ebd e027 8fbe aad5 01be
00000060: 31c9 e6be 2321 8d3d 6986 efbc 1176 79be
00000070: d542 3a3e 4286 46bf fd6b e33c 3d84 22be
00000080: d8fb 5bbf b30e e2bc 04a1 1dbf 3258 5fbf
00000090: e1c7 d4be f36a d4be 41bb 45be 89f6 3b3f
000000a0: 3b38 163f e441 05be b6ce 75bf bcf0 b53e
000000b0: c286 e13d 94f5 35bd eac4 4c3e ac7f bb3c
000000c0: a486 833d 7edf 953d 123f 86bf b796 debe
000000d0: 9700 d4be 9aed 2a3e 2417 b9bd 7b05 32bd
000000e0: 5098 2bbe 92bf 2cbc b6a2 fb3e 5a92 81be
000000f0: f0a8 fc3d 1bb8 06bf acfc 08bf dbe1 083d
00000100: 4e90 843d cc83 173e b37a 10bd 6168 c4be
00000110: a7ed 173d f8a3 15bf 749c e6be 390f fcbe
00000120: 5c57 e53d 51c2 513e 5a77 3bbf 4e2a 15bf
00000130: 4b1d cdbd ad1d a3bd a8df 803c 59e5 833d
00000140: 21b2 d33d a1a9 dc3b e2c1 08be 9eca f53e
00000150: b9e8 b5bd d3b5 943d cf72 edbe fec0 0abe
00000160: 7e2b 30bf 701c 1e3e 303b f1be 2ad3 273f
00000170: c02c 71be 50d1 b33e 5661 43be dcf8 56be
00000180: 47f3 3dbf 6ce8 f33b f0eb f93e bb47 303f
00000190: 6bfe 3cbe 5e1e 9f3d fa6a 1abe c9c2 b3be
000001a0: ba7b 28bf ff76 cc3e 5ec5 fc3e 640d 173e
000001b0: d217 c43d 7b93 373e ee6b 97be c1e8 d93e
000001c0: 1eb9 563e 3724 8b3e 2124 66bd b348 0ebf
000001d0: 939f 9c3d a4a9 1bbf 6a4f 803e bebe 7c3e
000001e0: 241c 4cbe cd1f 18bf 0822 123e 45d2 883e
000001f0: 8686 60be e84b a9bd 2461 c23e fae1 703c
00000200: b8cd 97be e0ad ae3d 5c84 a83e 37d2 003f
00000210: c1d0 47bf 7f6e 833d c762 993e dbb9 09bf
00000220: 58f1 4dbe bd0b 5cbf 1ff5 f23d c3a4 6fbd
00000230: 55b7 733b 7eb6 5bbe 18df 1fbf 68df 3fbd
00000240: 6de2 babe 579b a6bd 862c 95be bf86 ba3c
00000250: 8476 51be d99d 1cbd 684f f83d 0e8a 26bf
00000260: aa34 9ebd 553b 52bf abac 00bf f80d 46ba
00000270: 3ea1 afbe 5a82 213d 4cb5 48be cfb1 de3e
00000280: 6334 92bb dd47 493e 79e7 7a3e 3a3a 7cbe
00000290: 9aa2 bcbe e6dd b6be 3c34 fabc 16be a0be
000002a0: 216e 4ebd cdfb 6ebe e2af a9bd 0f63 423e
000002b0: 2b7b b9be 39fb 0f3f 484f a73e 71b9 0d3f
000002c0: 57fd d53e 918a c539 d68b 613f 9221 1fbd
000002d0: 785c 15bf d521 73be 8581 a9bd 5251 5ebe
000002e0: 3009 2b3e 191f 843e 1774 1b3f 92a8 b7be
000002f0: e2ab 9b3e e786 3bbe a2b7 16bf 016f 8b3e
00000300: 0951 b1be 854f 26bf 8642 903e fc97 9bbe
00000310: 2f79 3abf 0384 843e 4bfc 78bc 3219 973d
00000320: bf3a 8cbd afd2 043f 2a13 1ebe 60cf bf3d
00000330: fd18 273d cce9 87be 2cf4 08bf 4fb3 06be
00000340: 11fa 153e 60a7 52bd 3409 02be 183f 61bf
00000350: 3ba7 1d3d b8b3 c23e 8848 b23d 1099 37bf
00000360: 7808 023e 2c23 f93c ff08 333e a596 bebe
00000370: 1264 203d b52a 19bf 3cdc e4be 629a c2be
00000380: 9518 d5be 5ed1 f6be 0fd7 2a3d e738 3dbf
00000390: 3301 82bf 393a f5be 61a4 833e b49f 583e
000003a0: 2135 483b fc47 37bf b273 a6be b4a3 863e
000003b0: 6d7f f7be 25a8 223f d5ed 3b3d f829 e33d
000003c0: 3b5e bfbe ca86 393d 921b a1be fec9 9c3e
000003d0: d2aa fdbe 9bae b13d 2d28 42bf 55e0 2c3e
000003e0: 4da1 593e 46aa c53d f0b6 f83e fe1c 19be
000003f0: 5c55 b7be e038 893e 5f64 123d 2160 eebe

net.2.weight f4 [256, 256]
0.580769 -1.0967176 -0.022305483 -0.37776738 -1.385744 -0.49734575 0.37727404 -1.7900441
-0.15828405 0.44181165 -0.3197185 -0.13233373 1.3672671 0.31095827 0.06320769 -1.4399146
-0.12170756 -0.8410767 -0.18302628 -0.3802329 -0.7097084 0.026917899 -0.5067488 -1.1591917
-0.84079844 -0.77120847 -1.3436803 0.42384648 -0.3560162 -0.40316042 0.10563672 -0.2569372
0.10265026 -0.15988548 0.03475974 0.65348697 -0.22548087 -0.17549168 -0.036927555 -0.0034338953
0.34935755 0.56396365 0.17837735 -0.92039114 -0.28118816 0.8778033 -1.3350232 0.3236531
0.04326794 -0.07353697 -0.40974352 -0.4202765 -0.5981543 0.6187299 0.21828137 -1.1816794
0.067339316 -0.309952 0.2716363 -0.25695777 -0.8957799 0.0161525 0.6764839 0.88561994
0.49077344 0.23556027 0.26780286 -1.2116444 -0.33830106 -0.124874696 -0.46612558 0.9979656
-0.03684755 -0.36070874 -0.3874644 -0.3184102 -0.37399486 0.06119392 -0.10127432 -0.25100404
-0.25730202 1.433547 -0.4701433 0.41146097 -1.0489937 0.2140764 -0.17200829 -0.89396405
-0.54018945 -0.7987549 -0.058581326 -0.25989044 0.34262794 -0.36279646 0.49458104 -0.15591088
-0.06347554 -0.78007305 0.03551636 -0.39015692 -0.12982957 -0.12691787 0.065022536 0.51021546
0.32084683 -0.25253412 0.08250335 -0.15559949 -0.10118206 0.06087933 -0.97647846 -0.22291556
-0.8204232 0.025183756 0.11635925 -0.23291887 -0.48664817 -0.9935295 0.66725 0.39497992
0.8567426 -0.19286631 -0.44137108 -0.1652966 1.0865982 0.26065084 -0.08939864 -0.36938232
-0.10313629 0.11736048 0.043892965 -0.56609195 -0.123033 0.65895593 0.20871441 -1.0901287
-1.0596701 0.2257317 -0.47314414 -0.7832748 -0.7191927 0.11949761 0.330162 0.58954597
-0.83074594 -0.70880747 0.1478826 0.2263738 0.61126375 -0.7890757 0.14819813 -1.2243481
-1.5253229 -0.5430482 0.102662824 -0.61382234 0.19433497 0.35542953 -0.02307916 0.8254334
-1.4243474 0.1036451 -0.38682222 0.13706963 0.057045065 -0.41126075 -0.3084786 0.7141171
-0.40276146 -0.16884682 0.5193086 0.10938744 -0.38139316 -0.9274952 -2.0699081 -0.26911572
-0.62813985 0.67749095 0.04100658 -0.3126378 0.6782849 -0.43995023 0.4209331 -0.3008512
0.19628991 -1.9591388 -0.4367348 -0.50180465 0.06820579 -0.17269121 -0.49813467 -0.473455
-1.1520245 -0.35723048 0.2023933 0.11633234 0.1564227 -0.529795 0.10054534 0.36721992
-0.9178846 -0.80015063 0.4531406 0.4854104 -0.11895167 -0.23281658 0.12675919 0.032874774
0.47374552 -0.65087897 1.4457625 0.2851728 0.42931494 -0.10843201 0.3640536 -0.05632109
0.1266146 0.19073772 -0.23658553 -1.1082109 -0.69545907 -0.5537076 0.027397415 0.92997855
0.043688074 -0.12358948 -0.02060259 -0.2563476 -0.25903538 0.49015415 -0.045214314 0.345579
-0.3025773 -0.56630117 0.6558651 -0.16815932 -0.576623 -0.7391468 -1.0664865 0.016232466
-1.6464133 -0.8065279 0.7764519 -0.6573611 -1.0904306 0.26662531 -0.13979499 -0.37049177
0.6359082 -0.8128626 0.4013505 -0.7889012 -0.30037376 -0.11484497 -0.7548501 -0.5355643
00000000: 47ad 143f 3e61 8cbf fdb9 b6bc ba6a c1be
00000010: 0f60 b1bf 1aa4 febe 102a c13e 2a20 e5bf
00000020: 3715 22be 2335 e23e 25b2 a3be 7e82 07be
00000030: 9c02 af3f ec35 9f3e 0973 813d 1f4f b8bf
00000040: d041 f9bd cd50 57bf 3e6b 3bbe e3ad c2be
00000050: 73af 35bf ed82 dc3c 4aba 01bf 6560 94bf
00000060: 913e 57bf eb6d 45bf b7fd abbf 6802 d93e
00000070: c147 b6be 0b6b cebe 1158 d83d 468d 83be
00000080: 4d3a d23d 05b9 23be 3b60 0e3d ec4a 273f
00000090: 75e4 66be 17b4 33be 5941 17bd 340b 61bb
000000a0: fede b23e ec5f 103f 8da8 363e c19e 6bbf
000000b0: e5f7 8fbe b8b7 603f 0ae2 aabf dcb5 a53e
000000c0: b939 313d 8d9a 96bd e7c9 d1be 7b2e d7be
000000d0: a420 19bf 1565 1e3f 2785 5f3e 4541 97bf
000000e0: 32e9 893d 07b2 9ebe ea13 8b3e f88f 83be
000000f0: d551 65bf 3f52 843c 0d2e 2d3f fdb7 623f
00000100: a846 fb3e b636 713e 751d 893e 2a17 9bbf
00000110: cc35 adbe 4ebe ffbd 03a8 eebe ac7a 7f3f
00000120: 75ed 16bd d1ae b8be bc61 c6be a906 a3be
00000130: 417c bfbe 7aa6 7a3d e968 cfbd 9a83 80be
00000140: 17bd 83be 787e b73f 9fb6 f0be 03ab d23e
00000150: 6d45 86bf d836 5b3e f122 30be d4da 64bf
00000160: db49 0abf 337b 4cbf f9f2 6fbd 5c10 85be
00000170: ee6c af3e 75c0 b9be ba39 fd3e 1aa7 1fbe
00000180: 77ff 81bd deb2 47bf 9a79 113d a6c2 c7be
00000190: 0bf2 04be c2f6 01be 892a 853d 7b9d 023f
000001a0: 0946 a43e 274c 81be 84f7 a83d 7955 1fbe
000001b0: 8a38 cfbd 9b5c 793d 7efa 79bf fa43 64be
000001c0: 4107 52bf 2a4e ce3c c24d ee3d 4982 6ebe
000001d0: f329 f9be f357 7ebf e5d0 2a3f cf3a ca3e
000001e0: 7c53 5b3f bf7e 45be 64fb e1be 8343 29be
000001f0: a615 8b3f 0774 853e a216 b7bd ae1f bdbe
00000200: 1f39 d3bd b15a f03d 1cc9 333d 67eb 10bf
00000210: baf8 fbbd 56b1 283f 3bb9 553e 5689 8bbf
00000220: 45a3 87bf 3626 673e f33f f2be b384 48bf
00000230: 031d 38bf 2abb f43d fe0a a93e 7cec 163f
00000240: c4ab 54bf 6874 35bf 896e 173e 89ce 673e
00000250: c87b 1c3f dd00 4abf 40c1 173e 70b7 9cbf
00000260: c83d c3bf 3505 0bbf e340 d23d 7623 1dbf
00000270: bfff 463e dcfa b53e 8210 bdbc 9a4f 533f
00000280: 0451 b6bf e243 d43d 900d c6be fb5b 0c3e
00000290: 16a8 693d c590 d2be e8f0 9dbe 61d0 363f
000002a0: c036 cebe 2ee6 2cbe 69f1 043f 8606 e03d
000002b0: f745 c3be 5370 6dbf 6079 04c0 89c9 89be
000002c0: c6cd 20bf 0c70 2d3f 84f6 273d 1012 a0be
000002d0: 14a4 2d3f 2841 e1be 8b84 d73e 2b09 9abe
000002e0: 3900 493e 0fc5 fabf b49b dfbe 4576 00bf
000002f0: 7aaf 8b3d f7d5 30be 820b ffbe b268 f2be
00000300: 8a75 93bf eae6 b6be 3040 4f3e a63f ee3d
00000310: 462d 203e a5a0 07bf b7ea cd3d 4004 bc3e
00000320: 7cfa 6abf acd6 4cbf 0b02 e83e b687 f83e
00000330: ef9c f3bd 7867 6ebe 29cd 013e b3a7 063d
00000340: c68e f23e 01a0 26bf bf0e b93f 2b02 923e
00000350: 2bcf db3e 9a11 debd 3c65 ba3e f1b0 66bd
00000360: 42a7 013e c050 433e 7a43 72be dbd9 8dbf
00000370: 9b09 32bf c8bf 0dbf 8b70 e03c 1313 6e3f
00000380: 44f2 323d 7b1c fdbd c3c6 a8bc fe3f 83be
00000390: 49a0 84be 7cf5 fa3e a532 39bd bbef b03e
000003a0: 69eb 9abe 1df9 10bf c6e6 273f f531 2cbe
000003b0: 919d 13bf ba38 3dbf a182 88bf f3f9 843c
000003c0: acbd d2bf 9d78 4ebf 8dc5 463f d148 28bf
000003d0: 3b93 8bbf 1d83 883e 6b26 0fbe 19b1 bdbe
000003e0: e1ca 223f c317 50bf d07d cd3e 6ef5 49bf
000003f0: 97ca 99be d733 ebbd db3d 41bf be1a 09bf

net.2.bias f4 [256]
0.12995742 -0.039736383 -0.068890646 -0.12316437 -0.21188462 0.047492098 -0.13848753 -0.30568665
-0.049360257 0.282332 -0.5968691 0.019065943 -0.03135853 -0.06637823 -0.61334354 -0.039431363
0.089717284 -0.23303388 -0.04655002 0.062378965 -0.61375463 -0.036163684 -0.08662235 0.005750222
-0.19161178 -0.0027769657 -0.2611082 -0.47150254 -0.08941564 -0.059965365 0.12571931 -0.8755364
0.08700767 -0.1984061 -0.033176925 -0.12490657 0.20373595 -0.60160744 -0.009602651 -0.0028355666
-0.11599801 -0.03507445 -0.003830094 -0.040453237 -0.5177851 0.103115626 -0.7904526 -0.24746151
-0.008392609 -0.8139405 -0.24940377 0.07315351 -0.0035032823 -0.16649416 0.36497802 0.21109486
-0.19892189 -0.850685 -0.5245636 -0.023396635 -0.076997526 -0.030984798 -0.09965473 0.13739349
-0.036237143 -0.5625922 -0.13995907 0.049013022 0.1465831 -0.42387155 -0.06838974 0.17840871
-0.06061487 -0.060960017 -0.81631494 0.12148 -0.31641987 -0.3147865 -0.2206109 0.36166883
0.18782407 0.027057905 0.0037992597 -0.3611664 -0.29411188 -0.04616397 -0.050351743 0.13177034
-0.008290139 -0.961514 0.035865743 -0.28186253 0.1461189 -0.6823957 0.15859817 -0.5103843
0.01087608 -0.5349913 -0.04132685 -0.059366614 -0.073540315 -0.12482702 -0.05385633 -0.6543906
-0.1010997 -0.7364759 -0.07594645 0.118446834 -0.0215077 0.39621466 0.01173525 0.22015496
-0.4205201 -0.1887996 -0.04072938 -0.08620746 -0.348151 0.028612852 0.3647069 -0.09086552
-0.25459388 0.12079683 -0.029863115 -0.04925977 -0.081441544 0.19063875 0.012709602 -0.03966756
-0.2295106 -0.65643215 -0.04076022 0.036050208 0.1776205 0.4305961 -0.1363491 0.12731859
-0.0018162689 -0.015587749 -0.6254609 -0.06246611 -0.07800878 -0.03315236 -0.007286683 0.28628814
-0.2743245 -0.31525907 -0.16102178 -0.05871267 -0.654903 -0.012723404 -0.03792554 0.18497007
0.07883757 -0.14411128 -0.29621935 -0.06581616 -0.2007024 0.38489982 -0.35487232 -0.07013412
-0.29786405 0.023751704 -0.1819751 -0.00940665 -0.31725618 -0.21329932 0.014173066 -0.48593763
0.057071205 0.035565443 -0.7235035 -0.2866424 0.0049044634 -0.054608434 -0.92892176 -0.2629185
0.020341342 -0.46421593 -0.018406264 -0.07077787 0.515772 -0.32872748 -0.009514151 -0.35258546
-0.4683759 0.033181872 0.37914392 -0.012399641 -0.48966917 0.12961046 -0.12690835 0.2877483
-0.62351865 0.13795936 0.06481095 -0.07537503 -0.34463087 -0.05201757 -0.14277378 0.0008053895
-0.22516146 0.012713976 -0.16169232 -0.44928294 -0.035216656 -0.004206797 -0.12812524 -0.3052594
-0.68204063 -0.07236998 -0.6739384 0.021487756 -0.01963249 0.16096959 0.028539035 0.38609746
-0.06206048 -0.06638763 -0.27240473 -0.030482791 0.19591193 -0.33145073 -0.019700151 -0.6484404
0.019904213 0.0035144787 -0.042068776 -0.07142092 -0.07716135 0.08824686 -0.05476785 -0.1197868
0.18466495 -0.08759894 -0.083563685 -0.15670702 0.019501913 0.027283914 -0.16604409 -0.14030637
-0.02590195 0.5726278 0.16358124 -1.0009928 -0.8394752 -0.5759092 0.058900222 0.043533515
-0.013984762 -1.1442306 -0.2145539 -0.48032275 -0.0052240565 -0.38693106 -0.08196281 -0.026286842
00000000: 8f13 053e 9ec2 22bd 8a16 8dbd 9a3d fcbd
00000010: 48f8 58be 1387 423d adcf 0dbe f682 9cbe
00000020: fb2d 4abd d28d 903e 6acc 18bf 2e30 9c3c
00000030: cd71 00bd 4ff1 87bd 1504 1dbf c882 21bd
00000040: b2bd b73d 6fa0 6ebe 3cab 3ebd 1681 7f3d
00000050: 061f 1dbf 5f20 14bd 0f67 b1bd 5c6c bc3b
00000060: e135 44be c1fd 35bb f9af 85be c868 f1be
00000070: 8c1f b7bd 3e9e 75bd 90bc 003e 2723 60bf
00000080: 1431 b23d f82a 4bbe 87e4 07bd 04cf ffbd
00000090: 28a0 503e f202 1abf 7054 1dbc ead4 39bb
000000a0: 5d90 edbd 3aaa 0fbd 5002 7bbb 4bb2 25bd
000000b0: 908d 04bf 492e d33d 1a5b 4abf 8d66 7dbe
000000c0: 2781 09bc 685e 50bf b463 7fbe 82d1 953d
000000d0: 5397 65bb 727d 2abe 66de ba3e 4029 583e
000000e0: 2eb2 4bbe 7ec6 59bf cd49 06bf 4daa bfbc
000000f0: e1b0 9dbd d5d3 fdbc c717 ccbd e1b0 0c3e
00000100: 666d 14bd 0b06 10bf 6e51 0fbe e1c1 483d
00000110: e119 163e b105 d9be ec0f 8cbd c6b0 363e
00000120: 4c47 78bd 36b1 79bd 04fa 50bf 82ca f83d
00000130: c901 a2be b22b a1be d3e7 61be a82c b93e
00000140: f454 403e 8aa8 dd3c 00fd 783b cdea b8be
00000150: d595 96be 6e16 3dbd a13d 4ebd ceee 063e
00000160: 5dd3 07bc c825 76bf f5e7 123d 4950 90be
00000170: 31a0 153e 7cb1 2ebf 8f67 223e 8ca8 02bf
00000180: 9631 323c 31f5 08bf 5846 29bd 682a 73bd
00000190: 4e9c 96bd 4fa5 ffbd 7598 5cbd 2486 27bf
000001a0: 5c0d cfbd af89 3cbf d089 9bbd 4194 f23d
000001b0: eb30 b0bc a6dc ca3e 3545 403c 4d70 613e
000001c0: 694e d7be af54 41be dad3 26bd 898d b0bd
000001d0: d940 b2be 8065 ea3c ddba ba3e b417 babd
000001e0: 215a 82be 5464 f73d 7ea3 f4bc 9dc4 49bd
000001f0: d3ca a6bd ce36 433e ef3b 503c 747a 22bd
00000200: d404 6bbe f00b 28bf 30f4 26bd 62a9 133d
00000210: 26e2 353e 1877 dc3e 199f 0bbe ce5f 023e
00000220: df0f eeba c263 7fbc 351e 20bf 77dc 7fbd
00000230: 11c3 9fbd c5ca 07bd 21c5 eebb 5c94 923e
00000240: 4374 8cbe a369 a1be e5e2 24be b27c 70bd
00000250: b9a7 27bf d375 50bc d057 1bbd cb68 3d3e
00000260: 9875 a13d e891 13be 10aa 97be 9fca 86bd
00000270: ee84 4dbe 9711 c53e d3b1 b5be 7aa2 8fbd
00000280: a381 98be ef92 c23c ae57 3abe 5a1e 1abc
00000290: 676f a2be 236b 5abe 2636 683c d1cc f8be
000002a0: 7fc3 693d 12ad 113d 8637 39bf cbc2 92be
000002b0: 9fb5 a03b 18ad 5fbd d1cd 6dbf 419d 86be
000002c0: e3a2 a63c b6ad edbe bcc8 96bc fdf3 90bd
000002d0: a209 043f f84e a8be 3ee1 1bbc 1586 b4be
000002e0: f7ce efbe b7e9 073d 271f c23e dd27 4bbc
000002f0: ebb5 fabe 9bb8 043e 43f4 01be bf53 933e
00000300: eb9e 1fbf 3845 0d3e 9abb 843d 395e 9abd
00000310: 7573 b0be 6010 55bd 4a33 12be c620 533a
00000320: ba90 66be 484e 503c ac92 25be 6a08 e6be
00000330: 573f 10bd 2cd9 89bb 4333 03be f64a 9cbe
00000340: 379a 2ebf b636 94bd 3a87 2cbf 1707 b03c
00000350: 51d4 a0bc 36d5 243e b2ca e93c 91ae c53e
00000360: 2133 7ebd 3df6 87bd a278 8bbe 0cb7 f9bc
00000370: 239d 483e e9b3 a9be 3662 a1bc 3100 26bf
00000380: 290e a33c 2b53 663b 4f50 2cbd 2245 92bd
00000390: c506 9ebd c5ba b43d 4154 60bd c852 f5bd
000003a0: cf18 3d3e 1367 b3bd 7023 abbd ce77 20be
000003b0: 7ac2 9f3c 8482 df3c 7607 2abe 79ac 0fbe
000003c0: 5430 d4bc bc97 123f d781 273e 8820 80bf
000003d0: d9e7 56bf c96e 13bf 5c41 713d 3350 323d
000003e0: 5820 65bc 2676 92bf 04b4 5bbe ddec f5be
000003f0: 902e abbb d41b c6be 1edc a7bd 8157 d7bc

net.4.weight f4 [2, 256]
-0.86280465 0.04477352 -0.004153779 -0.91804355 -2.47779 0.08321354 0.19843039 -0.51730025
-0.03889161 0.026727317 -0.06966649 -0.0294477 -0.030853612 -0.103244565 -1.5113051 -0.0072150053
0.019759703 -0.9325836 -0.066018775 0.006558348 -0.42686665 -0.029123817 -0.01676917 -0.006975728
5.437541 -2.1514225 -0.2981719 2.6754591 -0.01857746 0.037403747 -11.888564 -1.5338331
-7.112086 3.3616068 -0.012080225 5.28696 -0.15247552 -1.1433799 3.8223696 -0.24986488
0.16079178 0.023803795 -0.005502543 -0.010263779 -1.2729403 -1.8334653 2.121761 -0.19980042
-0.16108659 -1.0441313 -0.40124965 4.2514524 0.39762366 2.8025532 -0.09694174 -0.08002381
3.9770958 -1.7370635 1.6695623 0.010900068 -0.036695022 -0.017830396 6.098559 1.2770052
0.009248305 0.039095186 -1.1727514 0.02114154 -2.6701536 1.7281564 0.053303946 11.388872
-0.03309666 0.008942568 -2.0351453 -0.06869305 2.6013408 10.830913 4.354875 -0.01249337
-0.4169858 -0.05502166 -0.015452863 -0.4629984 0.2972863 0.11882795 -3.4083295 -2.2102025
0.029676674 -2.2709134 0.019445054 0.13472855 -1.7614505 -1.5996094 0.22898619 -1.2754152
-0.025457911 1.555274 -4.20746 -0.0032487551 -0.01893044 0.016609594 -0.02114131 -3.4913054
5.425365 -1.0354432 0.00615107 4.403269 -0.028845143 0.9149406 1.1576548 -0.11727044
0.17808926 -0.03117782 -0.035213035 -0.020185892 1.518058 -0.023903796 -4.8620334 5.888535
9.773603 0.017547492 -0.83952636 -0.04383529 0.0008278681 15.956052 0.06096664 -0.036625765
0.445186 -0.51239455 -0.022519812 6.101917 -0.020163443 -0.011327319 3.3908029 -1.2615218
-0.0044175135 0.069986425 -1.474294 0.0144346375 0.012150793 0.02476164 -0.034955524 -3.0558825
0.8353109 1.5758762 -1.3631941 -4.7107487 0.87215036 -1.5235915 -0.0013794013 2.3423862
2.1016643 4.047869 4.949459 0.06601803 -0.27968255 0.0005722275 2.030327 -0.01886422
-0.6460553 0.18657622 -2.407195 -0.011398694 0.011439885 -0.030339358 0.06317543 -1.2827889
0.04352891 0.0100185275 -0.87260157 0.5294545 0.32477808 -0.043481756 -1.0598905 1.9262471
-0.012096083 -0.04433769 -0.031040272 10.238532 -0.21707492 -0.80681264 -0.01086468 -1.2257618
3.6970677 -0.0071203792 0.54399085 -0.031317376 -3.4898596 -0.0023277046 1.3853116 -8.051505
0.49661085 -0.21888575 -12.77595 0.15238562 -0.8418916 -0.0351967 0.6607386 -0.025797384
3.575706 0.0032287247 -0.42708647 0.06986494 -0.029517695 0.0047773803 -0.88639146 1.1235247
-1.2355112 -0.030987196 -0.0022736092 -2.1556056 -0.034816477 11.409762 -0.0042129285 0.05122994
2.7336183 0.5743376 -0.77982724 0.14339697 4.046164 -0.088514954 -0.019861842 0.8443565
-0.007092695 -0.015208073 0.021529093 -0.0073814048 0.0059087332 -12.639958 -0.014999596 0.029952884
0.063922465 -0.030250182 10.6812315 -0.06233958 -0.009482159 0.062301848 1.4381695 0.5129026
-1.12794 0.12829885 -0.018365385 0.5714864 0.46441406 0.9865509 -7.792317 -0.03424375
0.007420498 0.8463423 0.7993433 -0.63528234 -0.0018447122 -1.1076694 -0.3603822 -0.029066034
00000000: c4e0 5cbf 7064 373d 6c1c 88bb e704 6bbf
00000010: 1d94 1ec0 dc6b aa3d 5631 4b3e ca6d 04bf
00000020: cf4c 1fbd 3ff3 da3c 4ead 8ebd 4e3c f1bc
00000030: b7c0 fcbc e371 d3bd 7272 c1bf da6b ecbb
00000040: 1adf a13c ccbd 6ebf da34 87bd 69e7 d63b
00000050: 448e dabe 1295 eebc 805f 89bc a694 e4bb
00000060: 5600 ae40 e8b0 09c0 fda9 98be b93a 2b40
00000070: c22f 98bc ac34 193d 8f37 3ec1 a554 c4bf
00000080: 3596 e3c0 9124 5740 23ec 45bc c72e a940
00000090: 8b22 1cbe 465a 92bf b4a1 7440 94dc 7fbe
000000a0: 9aa6 243e 2d00 c33c ad4e b4bb 6929 28bc
000000b0: b5ef a2bf feae eabf efca 0740 7b98 4cbe
000000c0: e2f3 24be 18a6 85bf 9870 cdbe e60b 8840
000000d0: 5495 cb3e 085d 3340 6489 c6bd 86e3 a3bd
000000e0: bd88 7e40 1958 debf 38b4 d53f 3396 323c
000000f0: 854d 16bd 0d11 92bc 6527 c340 e874 a33f
00000100: 3486 173c 4622 203d b81c 96bf 0631 ad3c
00000110: cce3 2ac0 3b34 dd3f 3d55 5a3d d238 3641
00000120: 5d90 07bd d983 123c d23f 02c0 f1ae 8cbd
00000130: 5e7c 2640 6b4b 2d41 235b 8b40 feb0 4cbc
00000140: 2a7f d5be 645e 61bd 012e 7dbc 200e edbe
00000150: e935 983e 115c f33d 1222 5ac0 f573 0dc0
00000160: 7f1c f33c a556 11c0 3c4b 9f3c 48f6 093e
00000170: 3677 e1bf 00c0 ccbf 5b7b 6a3e ce40 a3bf
00000180: 1c8d d0bc 3813 c73f 83a3 86c0 11e9 54bb
00000190: 0314 9bbc d810 883c 8a30 adbc 8c71 5fc0
000001a0: 979c ad40 6789 84bf ea8e c93b 94e7 8c40
000001b0: a64c ecbc 8c39 6a3f 082e 943f 7c2b f0bd
000001c0: 085d 363e a168 ffbc 8b3b 10bd e25c a5bc
000001d0: b94f c23f e5d1 c3bc c795 9bc0 e16e bc40
000001e0: ae60 1c41 c2bf 8f3c 33eb 56bf a28c 33bd
000001f0: 4a05 593a fd4b 7f41 28b8 793d e604 16bd
00000200: 6bef e33e 4a2c 03bf 787b b8bc e742 c340
00000210: ce2d a5bc 3896 39bc ea02 5940 8c79 a1bf
00000220: cac0 90bb 0b55 8f3d aab5 bcbf 427f 6c3c
00000230: 1f14 473c ecd8 ca3c 862d 0fbd 9493 43c0
00000240: efd6 553f 50b6 c93f 257d aebf 74be 96c0
00000250: 3f45 5f3f 0c05 c3bf 07cd b4ba a8e9 1540
00000260: ab81 0640 2588 8140 f861 9e40 7634 873d
00000270: 8d32 8fbe 8a01 163a e1f0 0140 2389 9abc
00000280: e163 25bf d60d 3f3e 7c0f 1ac0 96c1 3abc
00000290: 5b6e 3b3c 3f8a f8bc 1f62 813d 6d32 a4bf
000002a0: 5f4b 323d c024 243c d162 5fbf 558a 073f
000002b0: 5049 a63e ed19 32bd 7eaa 87bf 448f f63f
000002c0: a62e 46bc 709b 35bd 2b48 febc 07d1 2341
000002d0: e348 5ebe 468b 4ebf c501 32bc c3e5 9cbf
000002e0: c29c 6c40 1252 e9bb fc42 0b3f a646 00bd
000002f0: dc59 5fc0 678c 18bb e451 b13f f7d2 00c1
00000300: c743 fe3e 9623 60be 4b6a 4cc1 fa0a 1c3e
00000310: 3586 57bf 6a2a 10bd 2a26 293f 0955 d3bc
00000320: 5ed8 6440 0399 533b 14ab dabe 5a15 8f3d
00000330: 18cf f1bc 928b 9c3b 8dea 62bf a8cf 8f3f
00000340: 3b25 9ebf dcd8 fdbc d500 15bb 71f5 09c0
00000350: b99b 0ebd 638e 3641 9b0c 8abb 7cd6 513d
00000360: 9af3 2e40 ca07 133f c2a2 47bf a8d6 123e
00000370: 2d7a 8140 5447 b5bd 4db5 a2bc bf27 583f
00000380: d769 e8bb 482b 79bc c85d b03c b6df f1bb
00000390: 0c9e c13b 453d 4ac1 dec0 75bc c05f f53c
000003a0: c8e9 823d 3bcf f7bc 53e6 2a41 ca57 7fbd
000003b0: 0f5b 1bbc 3930 7f3d f015 b83f 964d 033f
000003c0: 5760 90bf c660 033e 0173 96bc ef4c 123f
000003d0: aec7 ed3e 9a8e 7c3f a95a f9c0 2d43 0cbd
000003e0: a627 f33b e4a9 583f c3a1 4c3f dda1 22bf
000003f0: 45ca f1ba 1cc8 8dbf 0484 b8be e41b eebc

net.4.bias f4 [2]
-0.49454916 -0.47850728
00000000: 8c35 fdbe e8fe f4be
