manually_saved_runs/no_offset_ddpg_0/critic.pt (torch, 277455 bytes, 5 tensors)

net.0.weight f4 [256, 10]
00000000: 1b22 1d3f 159e 80be bb21 55be b51c 493d
00000010: 7d27 c2be c016 f83e a19d 17bf 7731 5d3e
00000020: 6b21 3cbd 206e 343c 8f90 0e3f 167b cdbe
00000030: f882 f13d 7031 6fbf 9bf2 463e ab77 f43c
00000040: e32c 41bf d724 dabc bcee aaba dac7 b6bc
00000050: 9487 c63e 792a 88bf 25aa 103c e98f b33d
00000060: f4ce 833e 5513 db3d b9ca 5cbf f1d7 bd3e
00000070: a090 a53c 976b 6c3e d3de 52be d53e 33be
00000080: 92e6 d5bd 5295 08bf 90ad 8c3e 8d45 2f3f
00000090: 0c0c 4e3e 6114 09bf e52b e7bc 23d9 1bbe
000000a0: 6da7 9c3e 4ffc 60be 6998 4c3d 63ff 74bf
000000b0: 16bf 3c3e 642d 6bbd d927 80bd 27ab 6f3e
000000c0: b680 f4bd cd39 72bd d28a ecbe 8c85 673e
000000d0: 9105 65bf 530f 3ebd def9 393f 4a07 55bd
000000e0: 1b63 c83e fe2a e3be a082 76bd 054b 9ebc
000000f0: b434 91be 3bc3 3a3d 2e31 af3e cd48 273d
00000100: ab1e e53e ec2a 713e 8962 7fbc 2b41 dfbd
00000110: 85c9 0bbe 6638 d3bd 0993 123f fb40 b5be
00000120: cef5 3bbe e2d2 13be a91c d43e 69f9 b3bd
00000130: 28b7 503d 63e7 debd d3be 0f3d 642e 2a3d
00000140: 6312 ea3f 911b c5be 6df9 0b3f 03d1 2bbe
00000150: d3b3 39bf 56ca 4dbe 9a84 5b3d ed8d 6c3d
00000160: 769f 6bbb 4198 d63b 226e a0bf f5d0 d23d
00000170: 74b8 ccbe fbaa 4a3e cd80 623d 33fe 96be
00000180: c3d9 4ebf 9e5c fbbe 0d31 013c e27f 413c
00000190: 2308 33bd 23d9 a73d 15c0 213f a295 973e
000001a0: 8f77 493e cb75 cd3c 4424 1d3f 8470 debe
000001b0: dd32 a1bd bf96 24be 1c69 533f f8d1 11be
000001c0: 6064 c83e a89b 51be 8c12 dabe 2767 023e
000001d0: 7dc1 003e 7105 b5bc b52e 233d c7f4 88bd
000001e0: c867 e23e eecf afbe 7cdb 043f dc73 07bf
000001f0: a21c 6bbf f34c 20bf 0776 3dbf e4d2 333f
00000200: 9b9a 8ebc e7fa 3d39 e1a6 6f3d 22df be3e
00000210: 7d41 d83d 5359 543e 9a08 72bf 045f 28be
00000220: bb40 d13c 8d8a 023f ae69 c43d 5a96 56bd
00000230: 3250 603f 89fe 4fbd 4377 b33e 56ef 2dbf
00000240: fb16 743f ed04 993e 2e71 91be b2c0 07bf
00000250: eb40 6dbc 981e 4fbc 6be7 8c3d 4c27 743e
00000260: ba2a 4c3f f8f4 4a3d 9207 b5bf 12ba fe3e
00000270: d2a9 52be 79e6 40bf aca5 bfbb d49b 94bb
00000280: c057 c7bd cd7b cd3e 8ad5 093c 65ae dcbe
00000290: 39c4 df3e 5974 81bb 8207 9c3e 0b7f cabe
000002a0: 7329 de3e a74c f4bb d618 0abf fabe 72c0
000002b0: 6ba0 873d 5704 953e 2e54 8e3e 9235 f23d
000002c0: 3b27 ed3e 6584 863e 84bc ae3c 4ac8 f5bc
000002d0: 96fc e83e 58e7 a7bf 73e9 a83f 22e9 bf3f
000002e0: eafb 55be 9ced 983e 6820 d0bc 01e1 153c
000002f0: 52a5 8f3c 85ab 053c db17 903e 1c81 d13d
00000300: 31c3 d53e fb51 8d3f d0fc 1ebf 4a5f 563f
00000310: 1bf8 c4bd 84e0 9a3d 83bf 25bc 232f 20bc
00000320: be99 793e 6404 e0bd b17e 733d 36d3 a23f
00000330: 53bf 72be 8509 383f b5e8 9cbf 35bd 0b3f
00000340: 1e59 46bc d6b4 a93a e036 b5bd 7f39 debe
00000350: 76d3 3c3e ba19 2d3f 524c bd3e 7b9c 353e
00000360: 540d a7bc 7ec6 863e b3aa 413c 4d8a 4739
00000370: 4a60 853c 307d cbbd 472a ac3e e483 97be
00000380: 98e1 5dbf 216d f4be 77ed 12bd 2288 4fbe
00000390: da54 6b3d e5c2 2e3d 0e1b d83e 5f96 07c0
000003a0: e4d6 25bf 2460 2c3f 6f24 3e3f 2259 0e3f
000003b0: 8f50 e2be 4019 4c3d c2a1 8e3c c34b c2bc
000003c0: e34b 97be 9d3c 4bbf 5c83 88bf e8bb 8f3f
000003d0: 5013 223e d3aa 47bf eac2 78bd d350 90bc
000003e0: dbbe 443c 997e 9c3b c009 263d e59f c6bf
000003f0: bdf3 b1bb 5ccb acbf 3f7b 1d3f bdf8 873e
0.61380166 -0.25120607 -0.20813648 0.049099643 -0.37920752 0.48454857 -0.592249 0.216009
-0.045930307 0.011012584 0.5568933 -0.4013297 0.117925584 -0.9343481 0.19428484 0.029842218
-0.75459117 -0.026628895 -0.0013041119 -0.022312094 0.38775313 -1.0637962 0.008829628 0.08767683
0.2574383 0.10697047 -0.8624683 0.37078813 0.020210564 0.23087917 -0.20592813 -0.17504437
-0.104443684 -0.53352845 0.27476168 0.684655 0.20121783 -0.5354672 -0.028219173 -0.1521955
0.30596486 -0.21971248 0.049950037 -0.9570219 0.18432269 -0.057416335 -0.062576 0.23405133
-0.11938612 -0.059137154 -0.46199661 0.22609538 -0.8946162 -0.046401333 0.7264689 -0.052008905
0.3913811 -0.44368738 -0.060183167 -0.019322881 -0.28360522 0.045596343 0.3421721 0.040840913
0.4474996 0.2355153 -0.015587457 -0.10901102 -0.13651092 -0.103134915 0.5725561 -0.3540114
-0.18355486 -0.14435914 0.41428116 -0.087878056 0.05095592 -0.10883977 0.035094094 0.041548148
1.8286861 -0.38497594 0.5467747 -0.1677895 -0.72540015 -0.20096716 0.053593256 0.05775254
-0.00359532 0.006548912 -1.253361 0.10293762 -0.39984477 0.19791786 0.055298615 -0.29490814
-0.8080103 -0.490941 0.00788523 0.011810275 -0.04370893 0.081957124 0.6318372 0.29606348
0.19674514 0.025080582 0.6138346 -0.43445218 -0.078710295 -0.1607313 0.8258226 -0.14240253
0.3913908 -0.20469534 -0.42592275 0.12734662 0.1257381 -0.022097321 0.039839465 -0.066873126
0.44219804 -0.34338325 0.51897407 -0.5291116 -0.91840565 -0.62617415 -0.7400822 0.7024367
-0.017407706 0.00018117913 0.058508758 0.37279612 0.10559366 0.207372 -0.94544375 -0.16442496
0.025543561 0.5099266 0.09590469 -0.05238948 0.8762237 -0.050779853 0.35051927 -0.6794332
0.95347565 0.2988657 -0.28406662 -0.53028405 -0.01448081 -0.012641571 0.06880077 0.23843116
0.79752696 0.049550027 -1.4142935 0.49751335 -0.20572594 -0.75351673 -0.005848607 -0.0045351777
-0.09733534 0.40133515 0.008412728 -0.43101802 0.43704394 -0.0039506373 0.30474478 -0.3955005
0.43390998 -0.0074554267 -0.53944147 -3.7929063 0.06622394 0.29104874 0.277986 0.11826624
0.46318993 0.26272884 0.021330126 -0.030002732 0.45505208 -1.3117476 1.3196243 1.4993021
-0.20896879 0.29868782 -0.025406078 0.009147883 0.017534886 0.008158569 0.281432 0.10229704
0.41750482 1.1040643 -0.6210451 0.8373915 -0.09617635 0.07562354 -0.010116461 -0.009776863
0.24375054 -0.109383374 0.059446994 1.2720706 -0.23705797 0.71889526 -1.2258517 0.5458558
-0.012106208 0.001294757 -0.08848357 -0.4340324 0.18440041 0.6761738 0.3697229 0.17735474
-0.020392098 0.26323313 0.011820483 0.0001902964 0.016281266 -0.09935987 0.33626005 -0.29592812
-0.86672354 -0.4773951 -0.035870995 -0.20266774 0.057453968 0.042666335 0.4220814 -2.118553
-0.6478102 0.673342 0.74274343 0.55604756 -0.44202086 0.049828768 0.017411117 -0.023717767
-0.29550084 -0.79389364 -1.0665088 1.122922 0.1582768 -0.7799503 -0.06073276 -0.017616665
0.012008394 0.004775834 0.040536642 -1.5517546 -0.005430667 -1.349956 0.61516184 0.2655696

net.0.bias f4 [256]
00000000: 0438 d73e b912 f63e 57e7 c2bd 2047 69bf
00000010: b529 753e 0172 863e 501f 1e3e 17d4 093e
00000020: a806 4bbe e636 d6be 4246 5a3f d756 143f
00000030: b8df f1be 929d 82be f153 ef3c af03 15be
00000040: 92e1 79be 4152 0ebf 132a 3cbd 9b0c a1bd
00000050: cb31 d3be c5f3 673e 448b 8ebf e9ed 69bf
00000060: a958 113c fa29 fbbe cf5c e13d a0d6 e8be
00000070: 7ab9 483f ac7b 98be ab66 c93e b841 0dbe
00000080: 2685 79bc 30e1 3cbf 86c7 423d 8be5 aa3e
00000090: ec4c d03d ae0f 70bf 74eb 6ebf 1040 76bd
000000a0: b7d2 983e 6b4d 91be f73e ba3e 00c9 3f3b
000000b0: 608e 0a3f 55a4 ee3e df39 75bd 066b 14bf
000000c0: 95da d03e 0fff 103f e7a1 1c3f 416a 093f
000000d0: 0fe8 7ebf d0b4 27bc 16c5 e43e 34d0 33bf
000000e0: a693 85bf a8e9 573d 96f5 e0be e8db 743e
000000f0: 2c09 33bf fbcc edbe 7155 cd3d 66aa b83e
00000100: 6afd 5cbf 9fcb 8dbf 38fb b9bf dec4 10be
00000110: ab90 a33e 4ddf 11bc b5ad c4be 32a9 ab3e
00000120: 547a 5fbf c475 f23e f580 403f 9ac2 3abf
00000130: 3caa f33d 11bf d6be a5be 17bd e315 a93e
00000140: 892a 88bf e70a 1dbf df47 95bf 672c 17bf
00000150: 3e52 043f 2315 1abf f67a 40bf 4c30 f3be
00000160: efd0 393f 005c e4bd 9eb9 103f fceb 253f
00000170: 0de2 0cbc 2e1e 94be b0e0 053e 3e7e 5abf
00000180: 79c7 52be 546b e43c ea95 6c3f 9527 593e
00000190: ce23 8d3d db6a f63e 202e f6bd 384c 1bbf
000001a0: 64ad ec3e b7b5 5f3e 766c f83e 8aab af3d
000001b0: 72be 363e 9682 f2be 774b a2bf 05c9 b4bb
000001c0: cc97 b53e f500 053f 431d 11be 1034 16bf
000001d0: f62a 363e 34c0 f53e fa7a e93e fa42 4bbf
000001e0: e213 8d3c 926f 3b3f 3cc0 683d b65d 82be
000001f0: 1f51 99be 0ebb 8abe 4ae2 f83e bf4b 313f
00000200: 6b49 563f 78d4 913e cee4 a4be a831 0bbb
00000210: a841 ce3e 715a fdbe a1cf 46be 937c 08bf
00000220: c675 de3e d346 323e e920 a33e fe6c 97be
00000230: 02d3 313f e3cc 71be c668 f7be 7f0a c23c
00000240: 159f 793f 72f7 1d3c 667e 83bf d193 29ba
00000250: c334 9c3e 71cc dabe ef9a 83bf eca1 8d3e
00000260: aa2a d23e 3f76 b7be 13b7 c1be 41e0 b7be
00000270: d158 d93e 761e 37bd 2c5f 62bf 41ad 7ebf
00000280: 0ae8 3dbf 052d 53bd 09f0 99bb 7cf9 67bf
00000290: 8cfa 5d3c 0049 3e3f f43a 29bf 6549 513e
000002a0: 8881 d63e 67a8 203e f5db 303e 5749 51bf
000002b0: 5439 2a3f a8dc 083f a22d 0f3e 90e7 103f
000002c0: bf3e f13e 99d9 03bf 790d 943e 2adc 4dbf
000002d0: c6d1 94be d2c4 08bf 478e 4dbd c262 183e
000002e0: ed14 033f e936 823e 4c14 303d f567 053f
000002f0: d647 6fbe 647f 7c3f 1fc3 4c3f cc43 4e3b
00000300: a9c4 98be 38ba c2be 037b b63d 11e7 bbbe
00000310: e272 38bf 0050 0dbf 0d7d 133f dcf2 ed3e
00000320: 6545 0fbf 282f 413f 6bf4 3cbf bfa0 533d
00000330: 004c 0ebf b0e1 90be 3100 833d b544 ef3e
00000340: 0374 1b3d d2e4 e6bd a673 d2bf e027 9bbe
00000350: 5e27 a53f a5d7 4ebe 4db5 ff3e 21a6 16bf
00000360: 8c95 1c3f 2df0 cb3d 53ba 023e 0845 353d
00000370: edcd e6be aba1 c1ba ac8e c03e b349 343d
00000380: 41b8 d13e a63f 7dbf 8eff f33e 45d9 0c3f
00000390: 6995 a03c 7dab bd3e 39c5 123f e087 90bf
000003a0: 6e10 64bf 18d9 0c3f a245 3b3e 81dc 42be
000003b0: 71e4 8fbe 414d b4bc 1f2d aabe ffa2 a93e
000003c0: 0964 3c3e 00ff 93be fd53 2bbe 4b71 d8be
000003d0: a643 c1ba 919a 4a3f d77a fd3d f47a 7dbf
000003e0: f65e fb3d 4c56 61bf 6b59 0a3f 80c8 15bf
000003f0: 4ed4 a83e 7b8d 1fbe 2d67 ed3d 94a0 d93e
0.42034924 0.4806116 -0.09516781 -0.91124153 0.23941691 0.26258853 0.15441632 0.13459812
-0.19826758 -0.4183876 0.85263455 0.5794501 -0.47240996 -0.25510842 0.029214831 -0.14552186
-0.24402454 -0.5559426 -0.045938563 -0.078637324 -0.41248927 0.22651584 -1.113625 -0.9137865
0.008871236 -0.49055463 0.1100403 -0.45476246 0.78408015 -0.29781854 0.39336142 -0.13794601
-0.015229499 -0.7378111 0.04755356 0.33378252 0.10170922 -0.93773925 -0.9332802 -0.06011969
0.29848263 -0.28379378 0.36376163 0.0029264092 0.54123497 0.4660975 -0.059869643 -0.57975805
0.40791765 0.5663919 0.61184543 0.53677756 -0.99572843 -0.01023598 0.44681615 -0.7023957
-1.0435684 0.052713066 -0.43937367 0.23912013 -0.6993587 -0.4644545 0.10026062 0.36067504
-0.8632418 -1.1077765 -1.4529791 -0.14137599 0.3194631 -0.008903337 -0.38413778 0.33527523
-0.8729603 0.47355473 0.7519677 -0.7295319 0.11897704 -0.41942647 -0.037047047 0.3302451
-1.0637981 -0.6134476 -1.1662558 -0.5905213 0.5168799 -0.601885 -0.75187624 -0.47497785
0.7258443 -0.1115036 0.5653323 0.6481321 -0.008598817 -0.28929275 0.13073993 -0.8534888
-0.20583905 0.02788321 0.9241625 0.21206506 0.06891595 0.481284 -0.120205164 -0.60663176
0.46226037 0.21846662 0.4852025 0.0857764 0.17846087 -0.47365254 -1.267928 -0.0055171275
0.35467374 0.51954585 -0.14171319 -0.5867319 0.17789826 0.47998202 0.45601636 -0.79399073
0.017221395 0.7321712 0.056823954 -0.2546212 -0.29944703 -0.27095836 0.48610145 0.69256204
0.83705777 0.28482413 -0.32205814 -0.0021239314 0.40284467 -0.49483064 -0.19415142 -0.53315085
0.4344923 0.1740983 0.31861046 -0.29575342 0.694626 -0.23613314 -0.48322123 0.023686646
0.97508365 0.009641515 -1.0272949 -0.0006468865 0.30509004 -0.427341 -1.0281657 0.276626
0.41048175 -0.35832402 -0.37834987 -0.3591328 0.42450574 -0.044706784 -0.8842647 -0.99483114
-0.7418219 -0.051556606 -0.004697804 -0.9061506 0.013548505 0.7433014 -0.6610558 0.20438154
0.418957 0.1568924 0.17271407 -0.8175253 0.66493726 0.53461695 0.13982251 0.56603336
0.47118184 -0.515039 0.2891653 -0.8041407 -0.29066294 -0.53425324 -0.050184514 0.14881423
0.51203805 0.25432518 0.042988107 0.5211175 -0.23367247 0.9863188 0.7998523 0.0031473516
-0.2983754 -0.380327 0.089101814 -0.36699727 -0.720503 -0.55200195 0.5761269 0.4647435
-0.5596526 0.7546258 -0.7381045 0.05166697 -0.55584717 -0.28297186 0.06396521 0.46732107
0.037952434 -0.11274113 -1.6441543 -0.3030386 1.2902639 -0.2019945 0.4994301 -0.5884724
0.6116569 0.09957919 0.1276639 0.044255286 -0.45078984 -0.0014772912 0.3760885 0.044015598
0.40960887 -0.98925245 0.4765591 0.55019027 0.019602494 0.37044898 0.5733219 -1.1291466
-0.8908757 0.5501876 0.18288282 -0.19029428 -0.28103974 -0.022009494 -0.3323755 0.3313217
0.18397535 -0.28905487 -0.16731258 -0.42273936 -0.0014744892 0.791421 0.123769455 -0.99015737
0.12273972 -0.88022304 0.5404269 -0.58509064 0.32974476 -0.15581314 0.11591945 0.42505324

net.2.weight f4 [256, 256]
00000000: b12f 7f3e af4b 3f3d 388c 073f 05f8 583e
00000010: c4f6 22be 83cb 2ebd 1bb9 fa3e 22e4 873e
00000020: c078 1dbf 4c9e 8b3f bc5f 5fbf 9eef f4bf
00000030: 92e7 043f 1737 833e f844 1bbe 4894 883e
00000040: fb3d 08bf f397 8e3f b40b b4bf 125c 4ebe
00000050: ac3b cbbd 6a3b fabd a42a 903e 2c87 e33e
00000060: fd61 a23b 3efd 443e 5aab 9f3e 7c79 ab3f
00000070: d41b 943e e14e dc3e 15fc 693e d458 bb3c
00000080: d77e 703e ccb8 1abf cc6c c23d 26b4 e23e
00000090: 6f56 073e cccf 2d3f 88ab c73e fde5 aa3e
000000a0: ce69 103f 2d45 323f 1327 f6be c318 4e3b
000000b0: 1933 13bf a94c c9be c248 9f3e 5b52 203d
000000c0: c053 593e 3be7 50bf fc98 a53b 4576 0aba
000000d0: 54a2 08bd c142 f3bf 2961 adbf 56d0 d0bf
000000e0: 54d6 7cbe 9c86 bcbe c067 a33e e993 23bc
000000f0: 1eea d2be 8b88 da3d 6f88 8ebe f84b 2d3e
00000100: c50c 443e c237 dd3e 6836 1a3f a721 843f
00000110: f41a 25be 2265 ea3c e5ab 473e 0d41 973d
00000120: 6a51 0e3f d292 993e bc6d 19bf 6a76 053f
00000130: 3c8d 363f a60d 853f 5982 1a3f bf2b 24bd
00000140: 0066 d13e 7639 9cbe aec4 c83e fd0b 8b3d
00000150: 7a18 8ebe a66c 6bbf 3d4c 3f3e 11f4 6cbf
00000160: ca96 32bf 5b79 27bf 0840 67be 8cb0 aa3d
00000170: 73f7 e3bf 7842 1a3f 8461 3b3e 3b08 513d
00000180: e43c 213f aaab ccbd 66bc 71bf 42e0 853e
00000190: 5c60 99be 3a89 32c0 6c35 9cbf 54f5 cebe
000001a0: f66f 82bd 3e2c 903e 84e9 2dbf 380a ccbf
000001b0: ed28 31be ffe7 1c3e 9ff1 c63c 352f 423f
000001c0: bfc3 483c 0ec6 5abd b991 8c3e 6406 363e
000001d0: 69bf b3bf 05ff 8f3d 866b 16c0 7828 d6be
000001e0: 57bb debf 82af 0bbd 2edf 303f 40ce 983e
000001f0: b1e7 113f b221 ed3e 7df3 cabe 2beb 8bbc
00000200: 7baa 1f3f 6c38 593e 4ed8 823d dc8f 863d
00000210: 9b08 603e c2b3 6b3d 616e 9e3e 79d6 513e
00000220: 0944 3bbf 88b0 d13e 32d7 aabe c3ec 75bf
00000230: 5a59 babf 9b6d 923d 0ba8 093f 8269 a53e
00000240: dcee 71be 7d68 313e 7deb 97be e36a 983d
00000250: b309 d4be b93e 303f 010a df3e de81 dfbe
00000260: e85a d33d d4da 843f efbb 273f 4c89 163f
00000270: 815b d0be aefd 043f 3391 9b3e 2ff5 cf3e
00000280: 2aa6 37bf ff69 f93e dbea d9bf f70e 8b3e
00000290: 74d2 f7bc ffa5 0c3e 5db7 453f ce91 31bf
000002a0: 2898 d13e b9fd ba3e 8cec cabd 4c26 14c0
000002b0: d35f dcbf e7f9 c83e 8483 80bf 734b ec3e
000002c0: 9cc4 543e d139 183f eb91 c93e 630d fc3d
000002d0: 1cfb 66be 2664 c83e 4dee 1fbe 651f f23d
000002e0: 9bfd 963e d4f7 cfbd e60e e1be 12ab 3e3e
000002f0: a49b 94bd 6309 11bf 5af9 b33d 0a10 063e
00000300: a206 643f b120 85be 712c e43e 53b3 afbe
00000310: cd7f 233f fca4 f23e 6257 3ebf 10f6 ebbf
00000320: b1e7 3e3f b59f d4bf 6ece 393e 570a 193f
00000330: 1962 183f 3e30 9cbf 502a 993e dd6c 9f3e
00000340: cda1 0dbe 71b2 cf3d d3ab 9e3f bd7e 3d3e
00000350: 4678 94be 05fc c23e 60b9 893f 925d a0be
00000360: 4734 ce3e 0a10 43be cee3 d8bf b135 873d
00000370: 6451 ea3e dcad 42be 07b5 713e 0774 b23e
00000380: f55f 91bf 2fc9 473f f6cc 6e3d f918 dabe
00000390: fa98 bbbe aa10 113e 38d1 9c3d 1a46 a63f
000003a0: 729a 0d3f e9f7 a3bd 69e6 f63d 5d3a 633f
000003b0: da40 12bf 6d13 b8bf 96e7 773e 24ed 58bc
000003c0: 0cab 9b3e c8fc fa3e 695d 82bd 48ec f13e
000003d0: b46a 82bd b49d 793d fa3c 8bbf b9a0 0b3f
000003e0: 7bd1 1e3e 9b31 86be 2dc6 46c0 0d54 383f
000003f0: d171 0abf c7b2 3dbf 412f 203d a474 0f3b
0.24920537 0.046703037 0.5294833 0.21188362 -0.15914446 -0.042674553 0.4896935 0.2654124
-0.61512375 1.0907683 -0.87255454 -1.9135625 0.5191585 0.25627968 -0.15163028 0.2667563
-0.53219575 1.1140121 -1.4066072 -0.2015231 -0.09923491 -0.122183636 0.28157532 0.44439065
0.004955529 0.19237229 0.31185418 1.3396449 0.2892748 0.4302893 0.22850068 0.022869505
0.23485886 -0.6043823 0.094934076 0.44278067 0.13216566 0.678952 0.38998055 0.33378592
0.56411445 0.69636804 -0.48076686 0.0031447865 -0.57499844 -0.393163 0.31110197 0.03914104
0.21223354 -0.8160283 0.0050536375 -0.0005281906 -0.033357933 -1.9004747 -1.3545276 -1.6313579
-0.24691135 -0.3682145 0.31915092 -0.009983995 -0.41194242 0.10670575 -0.27838466 0.16923511
0.19145496 0.43206602 0.6023927 1.032277 -0.16123563 0.028612677 0.19499166 0.07385454
0.5559298 0.29994828 -0.59933066 0.5213381 0.71309257 1.039479 0.60355145 -0.040080782
0.40898132 -0.3051259 0.39212555 0.06789396 -0.2775305 -0.9196266 0.18681426 -0.92559916
-0.69761336 -0.6541955 -0.2258302 0.08334455 -1.780989 0.60257673 0.18298918 0.05103324
0.62983537 -0.0999368 -0.944281 0.26147658 -0.2995633 -2.7896256 -1.2203803 -0.40421546
-0.06369011 0.28158754 -0.6793444 -1.5940619 -0.17300768 0.15322874 0.024285136 0.7585328
0.012253701 -0.053411536 0.27454928 0.17775875 -1.4042789 0.07031063 -2.3503127 -0.4182775
-1.7400922 -0.034102924 0.69090545 0.29844856 0.5699416 0.4631477 -0.39638892 -0.01707991
0.6236951 0.2121293 0.06388913 0.06570408 0.21878283 0.057544477 0.30943587 0.20491971
-0.7315069 0.40954995 -0.33367306 -0.96064395 -1.4558518 0.07149812 0.5377204 0.3230706
-0.23626274 0.17325015 -0.2967185 0.07442262 -0.4141365 0.6884571 0.4356232 -0.43653768
0.10320073 1.0379281 0.6552114 0.5880325 -0.40694812 0.51949584 0.30384216 0.40616748
-0.7173792 0.4871368 -1.7024797 0.27159855 -0.030251719 0.13735197 0.77232915 -0.69363105
0.40936399 0.365217 -0.09908399 -2.3148375 -1.7216743 0.3925316 -1.0040135 0.46151313
0.20778126 0.5946322 0.3936914 0.12307241 -0.22556728 0.39138907 -0.15618248 0.11822394
0.2949036 -0.10154691 -0.4395668 0.18619946 -0.072562486 -0.5665495 0.087877944 0.13092056
0.8907262 -0.26001504 0.44565156 -0.343165 0.63866884 0.47391498 -0.74352086 -1.8434467
0.74572283 -1.6611239 0.18145153 0.597814 0.59524685 -1.2202222 0.29915094 0.31137744
-0.13831253 0.10141457 1.2396187 0.18505378 -0.2899801 0.380829 1.0759697 -0.31321388
0.4027426 -0.19049087 -1.694452 0.06602038 0.4576522 -0.19011635 0.23604213 0.34854147
-1.1357409 0.78041357 0.058300935 -0.42597178 -0.3664015 0.14166513 0.07657093 1.2990143
0.5531379 -0.080062695 0.12055666 0.8876093 -0.57130206 -1.4380928 0.24209437 -0.0132401325
0.30403936 0.49020982 -0.06365473 0.4725058 -0.06368008 0.060941413 -1.0877984 0.5454212
0.15509598 -0.2620972 -3.1058457 0.7200325 -0.5407992 -0.7410092 0.039107565 0.0021889592

net.2.bias f4 [256]
00000000: 4c8c 2fbf 51dc fc3e 11f4 70bd 9c4a 1a3e
00000010: a4d1 b63d 5389 02bd 45c2 053e c80a 0f3e
00000020: 5de6 513e fe7f 513e dfe0 08be 3a56 133f
00000030: c2f7 153d a261 b53b 205e 0d3f 70b0 acbd
00000040: ee34 13bd 4e51 7d3e 494c b0bc 1ce3 79bd
00000050: f995 f6bc 644c 2bbe f096 443b c281 943e
00000060: e381 eb3c 7986 ebbb 61d1 bbbc f1ea a13e
00000070: c8d0 debd 937f a3bc 4c05 233e 0de2 9e3d
00000080: eee6 303e 10a9 06bf 4ca0 113e be71 20bc
00000090: d739 97bb d4a1 9cbe ea09 103c 9b4c ab3d
000000a0: bc70 3a3f 251b 993d c8a9 883e 178c 30bd
000000b0: a661 16bf 2fb5 84bd 14f2 9ebd b2d4 7bbd
000000c0: 63ff dfbb 4689 243e 5b2f 50bd 16fb a4bd
000000d0: abbd a33d d8e8 113e 54f5 b83e e404 aa3c
000000e0: 2b60 fb3c ca8d c33d 1ec0 133f a4d0 4dbd
000000f0: 4711 f23e 0aaa a2bc eeb9 da3e 56a2 223e
00000100: ddce 433c b859 5e3e 8d8f a1bd f1dd 243d
00000110: 16e3 f43e f472 6c3e 0dff 013f a712 bd3c
00000120: 4e56 70bd 5aa6 89bf 96c9 ca3d 7b56 103d
00000130: f705 8f3d a47c 1e3f 5108 04bd b8b1 073f
00000140: 3ad1 013f 9630 583e 4431 5f3c f640 bfbc
00000150: 0bd0 0abc e242 0d3e ec29 973d 325d 6a3b
00000160: 48ac ffbe 9024 1c3f d892 153d f13e 953d
00000170: 9a17 01bc a90e 043f 8302 62bd 8bca 7ebd
00000180: 56ba 42bc ffd8 9b3e bd38 123f bc62 053f
00000190: d047 e63e d4f8 9cbc 9a2e 4fba 20b2 bbbb
000001a0: 9983 103d 672f 8e3e 1aa4 a9ba ffaa 21bd
000001b0: 56f6 debc 57f7 fc3c 9ab2 113e 0806 a5bd
000001c0: a535 983d a15f f73e 1f61 143f b964 183e
000001d0: b431 8dbd a67b 733e 4eae d13e 1dfb 3f3e
000001e0: 9c07 683d a62f 9bbd 053d a83e faa1 fb3d
000001f0: d39b 0cbe 7155 203b e937 84bd 42a8 fc3d
00000200: b4aa 083f 983d 3f3e d905 96be 1909 1c3f
00000210: 1a00 e63e 3347 48bd e75e f1bc b2df 093f
00000220: 0f2b b63c 4b64 05bd 89df bf3e 060c d23b
00000230: 6493 633e 430e 1cbe e1bc 0b3f 6746 32bd
00000240: 29c2 c73c 0191 1e3e 0ff7 063e 20b0 65bd
00000250: ac6b 94bd c11d bdbc 4901 bb3e a2db 173e
00000260: a936 25bd 53ee bebd 2c99 a93e a266 34bd
00000270: 742c 19bd 09ba 413e ccec 123d e3a8 673e
00000280: 6203 303d 14cd 283d 0927 54be cd93 ddbc
00000290: 598e 683c 2b7d 273e 276e 93bd 846e b33d
000002a0: e1e3 45bd 69c9 9bb9 0cdb c3bc bf7d 0b3f
000002b0: a719 6a3d 7548 7fbd a2b4 c73c 6665 01bd
000002c0: 1531 88bc 93bf 483d 83af 90bd c73b 9b3a
000002d0: 4f8e 133e 1f70 6b3e 1df4 883e 842b 383e
000002e0: 496d e6bc cc86 a63e adc2 8a3d a2cd 1bbe
000002f0: f2ee e23e 76d1 49bd 92a8 363e d6a2 3dbd
00000300: db1e 473c 6657 fcbe b472 e93e 9b50 413d
00000310: 5097 44bd fe31 993e 013e 5fbe e0c8 7b3e
00000320: 765c 4bbd 9da1 463e b49a a3bd 1107 bbbd
00000330: 5a05 043f 94fd 62bd a988 8dbd 3588 41bf
00000340: 499f cb3c 25f9 293e a595 b63d 4279 eb3d
00000350: 9ff4 bf3d 46e9 243c 8757 933e 8472 883e
00000360: 4602 653d b76b f2ba e41a dbba ecb5 dfba
00000370: 329a b83d 2909 573d 0b6d 103d 981e 563e
00000380: e46d 053e 919d a4bd ee88 4c3e e01a a53e
00000390: 5fac 7bbd 8f8d 37bd f73c 02be a2e5 303e
000003a0: 510d f53c 25ae 763e 26b2 fb3e 155c 1b3f
000003b0: b1ea 043f f1bc d13c af36 8bbb 213e 9dbb
000003c0: e882 8f3e 5bf6 c13c 86cb 8ebd f6c4 15be
000003d0: a4f2 e6bc 61ee cabc 38d2 533e 409c 61bc
000003e0: b979 253b b633 c0bc a82c 093e 459a b83c
000003f0: 5bae 75bc 047f 203e 5e4e 4b3e 5220 3ebe
-0.6857345 0.49386838 -0.05882651 0.15067524 0.089267045 -0.031869244 0.13062389 0.13968956
0.20498033 0.20458981 -0.13367032 0.57553446 0.036613233 0.0055353204 0.5522175 -0.0843209
-0.03593915 0.24738047 -0.02152075 -0.061007604 -0.03010081 -0.1672836 0.0029997192 0.29005247
0.028748458 -0.0071876612 -0.022926988 0.3162456 -0.108796656 -0.019958293 0.1591999 0.077579595
0.17275593 -0.5260172 0.14221305 -0.009792743 -0.0046150493 -0.30592215 0.008791426 0.08364221
0.7282827 0.074758805 0.26692033 -0.04310235 -0.5874275 -0.064798705 -0.077610165 -0.06148214
-0.0068358644 0.1606799 -0.05082641 -0.08055703 0.07995161 0.14248979 0.3612467 0.020754285
0.030685505 0.095485285 0.5771502 -0.050247803 0.47278807 -0.019856472 0.42719978 0.15882239
0.0119511755 0.21713912 -0.07888708 0.040250722 0.47829503 0.23090726 0.507798 0.023080183
-0.058676057 -1.0753891 0.09901731 0.035238724 0.069835596 0.61908937 -0.032234494 0.5300555
0.5070988 0.21112284 0.013622586 -0.023346405 -0.008472453 0.13795045 0.07381043 0.0035761115
-0.49936128 0.6099329 0.036516994 0.07287396 -0.007879162 0.5158487 -0.055178177 -0.06220488
-0.011885246 0.30438992 0.57117826 0.5210378 0.44976664 -0.01916162 -0.00079033675 -0.0057280213
0.03528175 0.2777054 -0.0012942583 -0.039469715 -0.027217072 0.03087966 0.14228287 -0.08057791
0.07432107 0.48315147 0.57960695 0.14882173 -0.06894246 0.23777637 0.40953296 0.18748136
0.056647882 -0.075774476 0.32859054 0.12286754 -0.13731317 0.002446499 -0.064559765 0.1233678
0.5338547 0.1867584 -0.29301336 0.6095138 0.44921952 -0.048896026 -0.029464198 0.53856957
0.022237329 -0.03256635 0.3747523 0.0064101247 0.22224194 -0.15239815 0.5458508 -0.043524172
0.024384575 0.15485002 0.13180183 -0.05607617 -0.07247099 -0.023085477 0.36524418 0.14829877
-0.04033533 -0.093228005 0.33124673 -0.04404319 -0.03739591 0.18918623 0.03587036 0.22623019
0.042971976 0.041211203 -0.20718016 -0.027048016 0.014194095 0.16356342 -0.07198744 0.087613136
-0.048313025 -0.00029713966 -0.02390816 0.5448875 0.05715337 -0.06232496 0.024378125 -0.03159084
-0.016624967 0.049010824 -0.07064726 0.0011843377 0.14409755 0.2299199 0.26748744 0.1798535
-0.028128283 0.32524717 0.06775413 -0.15215161 0.44322926 -0.049272023 0.17837742 -0.04629787
0.012153353 -0.4928543 0.45595324 0.047196012 -0.047995865 0.29920954 -0.21800996 0.24588346
-0.049648724 0.19397588 -0.07988492 -0.09132207 0.51570666 -0.055417612 -0.069108315 -0.7559846
0.024856227 0.16598947 0.08915261 0.114977375 0.0937283 0.010065382 0.28777716 0.26649868
0.05591037 -0.0018495236 -0.0016716388 -0.0017067767 0.090137854 0.05249897 0.03526024 0.20910108
0.13030201 -0.08037866 0.1997411 0.32247066 -0.061443683 -0.044812735 -0.12718569 0.17275098
0.029913576 0.24089868 0.49159354 0.6068738 0.5192061 0.02560279 -0.004248462 -0.004798666
0.2802956 0.023677042 -0.06972413 -0.14625916 -0.028191872 -0.024771871 0.20685661 -0.013770163
0.0025249554 -0.023462158 0.13395941 0.022534499 -0.014995183 0.15673453 0.19854113 -0.18567017

net.4.weight f4 [1, 256]
00000000: 5223 993f 4ee5 593f 6371 763c eb77 9abe
00000010: f63e 34bb 2da6 e2bb 8a9b 67bf ff00 c3bd
00000020: b683 1dbe 4314 a7bf 8f8f fa3f 88b9 4c3f
00000030: dd67 1ebb a255 1e3d 1cdb 4b3f e45c 7f3c
00000040: e0cc 89bb 0b8c 87bf 05a0 b63c 569e 173c
00000050: 6720 283d a546 87be 7515 243b 3e62 f1be
00000060: f736 3fbf fbdd 5a3c 1749 833b d709 84bf
00000070: 030f 1140 4e4f e43a 8a20 d5be 15ec a13b
00000080: 8277 21bf c118 1140 1a3e 8abe 5bb4 803a
00000090: b1ed 5c3c f4a6 993f 2469 92bb ef9c 923b
000000a0: fcc9 da3f 6707 103f 111b d5be 4c13 87ba
000000b0: 5a21 1140 5501 8bba 4db5 213d 29c8 1b3f
000000c0: 79d1 063b dad2 c2be 6ced f83c a65c 443c
000000d0: c2ef 14bf 72a5 8cbe 1f55 6bbf 763f 193b
000000e0: 38c4 783c 3e07 853f 1128 bdbf afad 51bc
000000f0: 721d 5fbf 2f61 a8ba 5360 f5be 04b4 39bf
00000100: 2af7 bb3c c825 49bf 6c11 c03b 0c5c beba
00000110: 7424 493f e43f 9abf 775d 8c3f c940 1c3d
00000120: 411c 27bf d1d9 d33f 7b9b 77bb 5074 073d
00000130: a46a 2c3a 8695 8f3f 2ed1 d0bd 8cd6 6b3f
00000140: 055c 5a3f ad6f 96bd ef88 b33c fabb ca3a
00000150: 8548 7dbc ab87 79bf 8b51 cd39 baf4 023c
00000160: 89b7 573f b183 8d3f a598 ccbe 9887 dd3b
00000170: ecf8 05bc 389a 383f 750c cebb 9bdb 0040
00000180: 3627 64bd a8e9 53bf 1318 8f3f 3a99 55bf
00000190: 9fc2 683f 969d 013c 81b9 903b f427 b43d
000001a0: d30a 293d 3118 05bf 6c71 f53c 171f bf3b
000001b0: 38e7 9b3f 8520 ebba 2c56 74bf 6701 db3c
000001c0: ab0e d2bc 7a31 493f 30a0 883f 810e 90be
000001d0: 1fc9 c23c 5cf2 0240 62e4 6f3f 4e45 8fbf
000001e0: 0f55 97bf 6d05 12bd 2e74 fabe 5874 8abe
000001f0: 88a0 eebb d8b7 8dbc 3138 143d 9249 11bc
00000200: 9ae1 603f a11c fabf ebee 0f40 48a0 813f
00000210: 3ac3 323f b9c8 003d 4fa3 0cbb 14aa 743f
00000220: e716 5b3b 30ac a93a 8a62 913f 70c1 6aba
00000230: 022d 7ac0 fd7a 7e3f ac4c 7f3f 31d0 353d
00000240: 862c 75bf cb41 fcbf dca1 f3bf 441d f53f
00000250: 83db c43c fdcd 683c 2295 4abf 9b22 0840
00000260: f86c bfbb 5c42 f83f e6a5 38bf 727f 493d
00000270: 7da5 9cbb 6a63 46bd 75de 66ba f6d8 c0bf
00000280: ace2 2d3d 93f2 3c3f 4284 8d3f 2145 bb3f
00000290: 51bc 19bb 2c7f 7abf b844 0e40 fbee 6bbd
000002a0: 9e7d a9bc 6e48 51bd 36bc 643b e0d9 883f
000002b0: a5b0 7f3b 381e b03c a79b cb3b 260f 5f3c
000002c0: 3351 b5bc 8da2 08bf 01a1 243d 2c08 ab3c
000002d0: b531 48be 1c84 1840 a9a5 f9be 8e0c 7ebf
000002e0: e4b3 cc3c 91ed 2dc0 9021 75bb 70ce 1abe
000002f0: b7a6 443f 3c93 c63c 25f5 0440 2323 36bd
00000300: a236 1cbd 3e46 1740 d30f 7a3f ced0 173f
00000310: d7a7 7ac0 6df5 27c0 5676 61bf f947 01c0
00000320: 352a c53c 230d 43c0 bbd3 bf3c f868 dcbb
00000330: 9ef1 753f c6c4 3a40 eff9 623a 7d86 b93f
00000340: c3d3 86bb 428a 25bf 1c1d 9fbb 669f b6be
00000350: 9b2b f2be b787 a53b 0dd9 51bf 6f14 56be
00000360: 20a5 85bf 23b2 a93b eb35 713c 8194 f0bb
00000370: 9733 ffbf 9779 753c 55b2 b7be 7682 8abf
00000380: a685 fdbe dd84 8eba 53f0 b7be 1a5e bbbe
00000390: bb30 01c0 b858 2638 0d46 2b3f cc87 dbbe
000003a0: 5a85 82bb 4b57 03bf 9c90 3e3f d533 7b3f
000003b0: 8d76 483f d8e7 b6bb 3354 4540 69c8 d4bf
000003c0: caf0 10bf ffc3 083d 650c 193c 6ea9 fcbf
000003d0: 74d3 0b3c efc3 70bb 24e5 1640 c48d 013a
000003e0: 9515 1bbc 5b1e 583e c87f fabf 58e3 5d3b
000003f0: c41e 5cba e096 8dbf cee2 8abf 1ec3 753e
1.1963904 0.85115516 0.015041682 -0.30169615 -0.0027503348 -0.0069167824 -0.9047171 -0.09521674
-0.15382275 -1.3053058 1.9575061 0.799706 -0.0024170794 0.038655885 0.7963121 0.015586112
-0.004205331 -1.0589613 0.0222931 0.009254059 0.041046526 -0.26421085 0.0025037203 -0.47145265
-0.74693245 0.013358588 0.0040065157 -1.0315503 2.2665412 0.0017418654 -0.41626388 0.0049414732
-0.6307298 2.2671359 -0.27000505 0.0009819375 0.013484404 1.2004075 -0.0044681 0.0044742743
1.7092891 0.56261295 -0.41622213 -0.0010305434 2.2676606 -0.0010605255 0.039479543 0.60852295
0.0020571633 -0.38051492 0.03038665 0.01198498 -0.5817834 -0.27469975 -0.9192676 0.0023383773
0.015183501 1.0392835 -1.4777852 -0.012797757 -0.87154305 -0.0012846346 -0.47925052 -0.7254031
0.022945005 -0.78573275 0.005861452 -0.0014523282 0.7857125 -1.2050748 1.0966023 0.03814772
-0.6527749 1.6550847 -0.0037781883 0.03306991 0.000657717 1.1217506 -0.10196148 0.9212425
0.8529666 -0.07345519 0.021915881 0.0015467398 -0.015459185 -0.9747264 0.000391614 0.007992918
0.8426443 1.1055814 -0.3996021 0.006760549 -0.008177023 0.7211032 -0.006288106 2.0134037
-0.055701457 -0.82778406 1.1179222 -0.8343693 0.9092197 0.007911107 0.004416645 0.08796683
0.04127009 -0.5199004 0.02996131 0.0058325636 1.2179937 -0.0017938769 -0.9544399 0.026734067
-0.02564176 0.7859112 1.0673885 -0.28136066 0.023777543 2.0460424 0.9370786 -1.1193025
-1.1822833 -0.035649706 -0.48916763 -0.27041888 -0.0072823204 -0.017299578 0.0361864 -0.008867638
0.8784424 -1.9539987 2.2489574 1.0127039 0.6982914 0.031441424 -0.0021459644 0.9557202
0.00334304 0.0012944993 1.1358197 -0.0008955216 -3.908997 0.99406415 0.99726367 0.044388
-0.9577106 -1.9707578 -1.903377 1.9149556 0.024030453 0.014209268 -0.7913381 2.1271122
-0.0058418475 1.9395251 -0.7212814 0.049193807 -0.00478047 -0.048434652 -0.00088069524 -1.5066211
0.0424525 0.7380764 1.1055987 1.4630471 -0.0023458193 -0.978503 2.2229443 -0.057600956
-0.020689782 -0.051094465 0.0034902222 1.069149 0.00390152 0.021498784 0.0062136236 0.0136144515
-0.022133445 -0.5337303 0.040192608 0.02087792 -0.19550212 2.3830633 -0.487592 -0.99237907
0.024988122 -2.717625 -0.0037404038 -0.15117812 0.76816887 0.024240129 2.0774624 -0.044467103
-0.03813804 2.3636622 0.97680396 0.59302986 -3.9164941 -2.6243546 -0.8807119 -2.0200179
0.024067977 -3.0476768 0.02341639 -0.0067263804 0.96071804 2.91826 0.0008658459 1.4494168
-0.0041145994 -0.6466409 -0.004855765 -0.35668486 -0.47298893 0.005051579 -0.8197182 -0.20906232
-1.0441017 0.0051787063 0.014722328 -0.007341922 -1.9937619 0.014982603 -0.35878244 -1.0821064
-0.49516028 -0.0010873337 -0.3592554 -0.3659523 -2.0185993 3.966011e-05 0.66903764 -0.42877042
-0.003983182 -0.51305073 0.74439406 0.98125964 0.78305894 -0.005581837 3.083264 -1.662366
-0.56617415 0.03339004 0.009341334 -1.9739206 0.008534301 -0.003673788 2.3577356 0.0004942084
-0.009465595 0.2110533 -1.9570246 0.0033857431 -0.00083969184 -1.1061668 -1.0850465 0.24000213
