manually_saved_runs/no_offset_ddpg_0/target_critic.pt (torch, 277831 bytes, 5 tensors)

net.0.weight f4 [256, 10]
00000000: ea57 1d3f 5657 7cbe 57ed 55be e51b 3e3d
00000010: de1c c0be 6d8a f53e 3cbf 16bf a97d 5b3e
00000020: 420f 30bd e74b 613c 04fe 0d3f 06ef cdbe
00000030: 2ad3 ef3d 3e1f 6fbf fc05 4b3e db99 e33c
00000040: c93d 41bf 47a6 ccbc 06d7 23b9 6876 c7bc
00000050: 1112 c73e ed8d 87bf 7e98 cc3b 9c7a aa3d
00000060: 54d8 853e 7128 d43d 221f 5ebf c7c5 c03e
00000070: f17e b43c 3f73 663e e97b 56be 1722 36be
00000080: a1b4 d4bd d640 08bf 4ec4 8b3e 1b6f 2f3f
00000090: 118c 553e a161 0abf 583a ddbc 4fb5 1ebe
000000a0: 9b8f 973e 374a 61be 03de 403d 1d70 74bf
000000b0: 96b3 373e 5f35 63bd 9eaa 76bd c13c 6f3e
000000c0: 0b1d ebbd b81f 7cbd 39bf ecbe 22cf 673e
000000d0: bbdc 65bf d628 33bd 870f 393f 0e1f 62bd
000000e0: 831a c63e 1d5b e6be 4713 87bd 49c4 b0bc
000000f0: 3100 92be 70c5 4c3d 6e8d a93e a291 1f3d
00000100: 6b5c e63e 650f 6e3e 5027 9ebc ff36 e7bd
00000110: 3f34 14be a4a7 e0bd 54ba 113f b40f b6be
00000120: 8003 43be 036f 11be 3af3 d53e 1d4c b9bd
00000130: 78c4 403d ece8 e3bd 2939 133d 3599 463d
00000140: 27e8 e93f 15b5 c5be c461 0d3f d5ea 29be
00000150: 3e94 3abf 53ea 4fbe 9363 5c3d f78f 7a3d
00000160: d65c bdbb 7e8d f13b 348b a1bf 3cef cb3d
00000170: 4df5 cbbe 386b 4a3e 84a9 543d 81b4 96be
00000180: 6790 4dbf 06e0 f7be 3720 2a3c f408 283c
00000190: 69ab 3dbd a88e a93d a813 203f 6186 963e
000001a0: 6dd4 4d3e c45e da3c c205 1d3f c6af ddbe
000001b0: 397b a2bd 0cfb 26be a720 533f 1f6f 14be
000001c0: e9d3 cb3e 51fc 4dbe 3d13 dcbe bb56 043e
000001d0: a4b4 033e 6ce1 c5bc 0b10 333d f472 8abd
000001e0: 6dca df3e 2456 b3be cced 063f ea06 07bf
000001f0: 2887 6abf 163e 20bf c7df 3cbf 1036 343f
00000200: 8cb5 62bc 89e8 943b 55f5 763d 6991 c23e
00000210: c971 d73d 9627 523e aeef 72bf 191d 29be
00000220: 6ef5 d83c c276 023f bf80 c83d 8bdb 46bd
00000230: 472b 613f 57d7 49bd 88fd b33e 144e 2ebf
00000240: 5a5c 723f a9ec 973e 7da1 90be a94f 08bf
00000250: e414 82bc eac1 50bc ebfa 813d 6383 733e
00000260: 728a 4b3f fd9b 4a3d ff29 b3bf 3063 033f
00000270: 690b 5cbe 0124 40bf cee0 e9bb aa84 e9bb
00000280: 0c7d c9bd 5f30 cf3e 8e41 583c c8a9 dcbe
00000290: 9d5e e03e 65bb 1ebb 7b91 9d3e 216a c8be
000002a0: 5e2f e03e 7086 82ba d11d 0abf 397a 72c0
000002b0: 72a7 823d def3 943e 49bd 8c3e 4511 f73d
000002c0: 2bdf ed3e e0d2 863e 8ac0 b33c 7ee4 fabc
000002d0: 9c75 e73e ea0c a7bf 66fb a83f a84d c03f
000002e0: 9ea0 55be ac62 973e 634e d4bc 918c 203c
000002f0: f30b 943c 75e0 e13a 03ba 8a3e a4b2 bc3d
00000300: a772 d23e 7470 8c3f 576a 1ebf 5957 583f
00000310: 9844 b8bd 95bb ab3d d07e 52bb 23bc 43bb
00000320: 2b99 813e 6ee8 d8bd 7e4b 773d 511b a33f
00000330: de41 72be 5865 373f 89e6 9cbf 2ce9 0a3f
00000340: 6494 20bc d9a9 cc39 8cf0 b7bd 67cb dcbe
00000350: 109f 393e 47bd 2c3f 4ce8 c03e 8706 353e
00000360: b9c7 9abc 4f92 883e b7ba 2a3c 1f92 c4b7
00000370: f53d b53c cd86 d6bd e1b3 ad3e 6b74 93be
00000380: 3ad0 5dbf cf2c f1be b9a8 45bd a487 4fbe
00000390: 5746 533d 9666 303d b937 d93e 3f37 07c0
000003a0: ea1f 25bf e949 2c3f 885a 3e3f a150 0f3f
000003b0: 4b50 e2be 8ffb 573d a17f cb3c b1d3 bebc
000003c0: c369 95be 75cf 49bf 7397 88bf be6c 8f3f
000003d0: a5e2 253e 4b1b 48bf 54d4 6bbd cdcb 3abc
000003e0: 1212 7d3c b141 aaba 1009 3d3d ff05 c7bf
000003f0: 3247 13bc 68d7 acbf 73ef 1c3f bcf4 853e
0.6146227 -0.24642691 -0.20891319 0.04641332 -0.37522024 0.47957173 -0.5888555 0.21434654
-0.0429833 0.013751007 0.5546572 -0.40221423 0.11710198 -0.93407047 0.19826502 0.027783325
-0.754849 -0.024981631 -0.00015624994 -0.024348453 0.3888097 -1.0590187 0.0062437644 0.08324167
0.26141608 0.10359276 -0.86766255 0.37650892 0.022033187 0.225049 -0.20945705 -0.17786442
-0.10386015 -0.5322393 0.27298206 0.6852891 0.20854212 -0.5405522 -0.02700536 -0.15498851
0.2960175 -0.22000967 0.047086727 -0.9548357 0.179396 -0.05547082 -0.060221307 0.2336302
-0.11480149 -0.061553687 -0.4623964 0.22637609 -0.8978993 -0.043740116 0.7228932 -0.055205397
0.38692102 -0.4499139 -0.06595474 -0.021577971 -0.2851577 0.04999298 0.33115715 0.038957246
0.44992384 0.2324806 -0.019305855 -0.112897865 -0.14473055 -0.10969475 0.5692494 -0.35558856
-0.19044304 -0.14202504 0.4178713 -0.090477206 0.047062367 -0.11128411 0.035943184 0.048485953
1.8273972 -0.38614717 0.55227304 -0.16593488 -0.7288245 -0.20304231 0.0538059 0.06117245
-0.005778889 0.0073716035 -1.2620606 0.0995774 -0.39835587 0.19767463 0.051919475 -0.2943459
-0.80298465 -0.48413104 0.010383657 0.010256041 -0.046306048 0.08279163 0.62529993 0.29399398
0.20100565 0.026656516 0.6133691 -0.43298167 -0.07933659 -0.16306704 0.824717 -0.14495514
0.39810112 -0.20115782 -0.42983428 0.1292371 0.12861878 -0.024155341 0.04371647 -0.06760207
0.43709126 -0.35026658 0.527066 -0.52744925 -0.9161248 -0.62594736 -0.7377896 0.7039499
-0.013837229 0.004544322 0.06029256 0.38001564 0.1051975 0.20522913 -0.9489697 -0.16515006
0.026484217 0.5096246 0.09790181 -0.048549216 0.8795666 -0.04927763 0.35154366 -0.6808789
0.9467217 0.29672745 -0.28248206 -0.5324655 -0.015879102 -0.012741545 0.06346687 0.23780589
0.79508126 0.04946517 -1.3997191 0.51323223 -0.21488728 -0.7505494 -0.0071373945 -0.0071264105
-0.09838304 0.40466592 0.013199223 -0.43098283 0.43822184 -0.0024220583 0.30775055 -0.3914347
0.43786138 -0.0009958278 -0.53951746 -3.7887099 0.06379594 0.29092306 0.27488163 0.12063841
0.46459326 0.2633276 0.021942396 -0.030626532 0.45206916 -1.3050816 1.3201721 1.5023699
-0.20862052 0.29567468 -0.025916284 0.009799139 0.018072104 0.0017233031 0.2709504 0.092137605
0.41103098 1.0971818 -0.6188101 0.8450828 -0.08997458 0.08385388 -0.0032119043 -0.0029866777
0.2531217 -0.105912074 0.06037473 1.2742711 -0.23657939 0.71639013 -1.2257854 0.5426204
-0.009801004 0.00039036458 -0.089814276 -0.43123934 0.18127084 0.67476314 0.37677228 0.17678271
-0.018894063 0.26674125 0.010420493 -2.3433064e-05 0.02212427 -0.1047493 0.339263 -0.28799757
-0.86645854 -0.471045 -0.04825661 -0.20266587 0.051580753 0.043066584 0.42425326 -2.112747
-0.6450182 0.6730028 0.7435689 0.55982405 -0.44201884 0.05273014 0.024841132 -0.023294302
-0.29182252 -0.7883218 -1.0671219 1.120506 0.1619974 -0.78166646 -0.05757554 -0.011401129
0.015446203 -0.0012989548 0.04615122 -1.5548705 -0.008989142 -1.3503237 0.6130287 0.2616328

net.0.bias f4 [256]
00000000: a5cb da3e 2bb5 f63e 79fe b4bd d076 68bf
00000010: a540 743e ff5d 843e 0b38 193e ffed 093e
00000020: 34df 46be 376d d3be fa7a 5a3f 8868 143f
00000030: c760 f2be 0f96 81be 2e5e 003d f961 17be
00000040: 0c1e 77be 00ea 0dbf 25a2 37bd 0f7e 97bd
00000050: 29e6 d4be 5051 693e 85bc 8ebf ecca 69bf
00000060: a415 493c 0680 fabe 60d8 d13d ead1 e7be
00000070: aef7 483f a18b 9abe 0d34 ca3e b247 09be
00000080: c3c1 7fbc 2330 3dbf d085 3d3d bf16 ab3e
00000090: 8a94 cd3d 17aa 70bf b075 6ebf 9029 8fbd
000000a0: ecf5 963e ec27 90be dc95 ba3e b6fc 593b
000000b0: 23f9 0a3f 42ac ec3e d4a6 7ebd ed81 14bf
000000c0: 9225 d13e 6579 113f ab5f 1c3f 7b85 093f
000000d0: 7bf8 7dbf 2d7b 30bc 7003 e53e 3dbc 33bf
000000e0: 8557 85bf af76 533d 1343 e2be 8a59 763e
000000f0: 798f 33bf 6bef f1be e509 cd3d 23a7 b93e
00000100: 9fb7 5abf 7b92 8dbf a19a b8bf 2961 0fbe
00000110: c3fb a23e b64b 7bbb 3c81 c4be 24d3 ac3e
00000120: 15c0 5dbf 0224 f33e 9dc9 403f e787 3abf
00000130: 0aee f63d 9206 d7be 9e95 1dbd 59cf a53e
00000140: a772 88bf a7aa 1cbf b0b6 94bf b139 17bf
00000150: 30b1 053f 6bd2 19bf 9d79 41bf 8b9f f3be
00000160: 1be2 393f 74cb dbbd 9d2d 113f e37e 263f
00000170: 3f9f 11bc 5099 96be fba7 053e 63a8 5abf
00000180: 57b5 55be ee45 dd3c 23d1 6c3f dc90 543e
00000190: f998 873d 72a3 f63e 4119 f6bd b6dc 1abf
000001a0: 0d67 ec3e 809c 643e 1903 fa3e dea7 aa3d
000001b0: 1021 373e 1c74 efbe 8593 a1bf 5f85 04bc
000001c0: 5a0a b73e 36d0 053f d760 12be 6b9f 15bf
000001d0: e138 383e 457b f53e ae6a ea3e 23fe 4abf
000001e0: 0086 973c 4b24 3c3f 4a45 623d 2969 83be
000001f0: a3a2 9cbe cc3b 8bbe 7299 f93e 06fd 303f
00000200: 4064 563f 8068 943e cf21 a6be ae78 24bb
00000210: 79a8 cd3e 7b55 ffbe def6 48be d482 08bf
00000220: 15b6 df3e c44f 2f3e 5285 a43e 1b96 94be
00000230: 0335 323f f28d 6dbe 0d3a f6be 78f8 c33c
00000240: 2101 7a3f 60a8 133c b0ad 82bf 7130 49bb
00000250: c307 9c3e 16e3 ddbe fb50 83bf ec6a 8d3e
00000260: 667a d13e 0b60 b8be 6f30 bfbe 4a89 b9be
00000270: 9bc4 d93e 457c 2ebd 1f5f 62bf 9f51 7ebf
00000280: a6ea 3cbf a4df 55bd 04f8 92bb 3559 67bf
00000290: 9005 8a3c f8a1 3e3f 7dc2 29bf 1c42 543e
000002a0: eb3a d83e 4b20 203e 328d 313e d3e3 4ebf
000002b0: 753e 2b3f a66c 093f 0e85 0e3e 4c21 113f
000002c0: 5837 f03e 2b4d 03bf 4653 923e 881a 4fbf
000002d0: 156b 94be 8778 07bf a8a2 5cbd f5bd 1f3e
000002e0: 6542 033f cefc 823e 0b5c 3f3d 21d8 053f
000002f0: 0b2c 6bbe c212 7d3f 4bd9 4c3f 28a3 163b
00000300: 27c4 97be b059 c3be dbcc af3d 0c32 c1be
00000310: 464a 38bf 7ce7 0cbf cb89 133f 4182 ee3e
00000320: 4c8e 0ebf e223 413f 3a9d 3cbf 1977 4f3d
00000330: 7064 0dbf 8a03 94be 6d04 8d3d b097 ee3e
00000340: 031d 173d 3b6d eebd e0f6 d1bf f9d6 9abe
00000350: 4f5f a53f 278d 50be 82b3 ff3e 7f37 17bf
00000360: 4984 1c3f bce6 c63d 1586 043e ba3d 143d
00000370: f51a e4be 9342 32bb 2128 c03e 5d58 363d
00000380: 6741 d23e 0d64 7dbf a196 f53e ef02 0d3f
00000390: 8a91 553c ba09 bd3e 876f 133f 3e8c 90bf
000003a0: b6cd 64bf d4fc 0d3f 7b74 3c3e 3c0f 3fbe
000003b0: e0dd 92be 1f66 c7bc 8c35 aabe 1612 ab3e
000003c0: a84f 3b3e fde8 95be 05b4 2abe 8d76 d8be
000003d0: 4e9e ef3a c07e 4a3f 9e0f fb3d dee7 7cbf
000003e0: c617 f73d ff10 61bf 71e4 0a3f fc93 15bf
000003f0: 2b8e a73e 9ea5 1abe 44f7 e93d 7ac9 d93e
0.42733493 0.48185095 -0.08837599 -0.90806293 0.23852785 0.25852963 0.14962785 0.13469695
-0.19421083 -0.41294262 0.853439 0.57972 -0.4733946 -0.25309798 0.031339817 -0.14783467
-0.24132556 -0.5543518 -0.044832367 -0.07397091 -0.41581848 0.22784925 -1.1151282 -0.9132526
0.012273226 -0.489258 0.102463484 -0.4527734 0.7850293 -0.30184653 0.39492837 -0.13406256
-0.015610161 -0.73901576 0.04627019 0.3341579 0.10038097 -0.94009537 -0.93148327 -0.06990349
0.29484499 -0.28155458 0.3644246 0.00332622 0.542864 0.46225172 -0.06217082 -0.5801075
0.40848976 0.5682586 0.6108348 0.537193 -0.99207276 -0.010771555 0.44729185 -0.70209104
-1.0417334 0.051626857 -0.441918 0.24057594 -0.70140797 -0.47252974 0.10011653 0.36260328
-0.85436434 -1.1060327 -1.4422189 -0.14001907 0.31832704 -0.0038344688 -0.38379848 0.33754838
-0.8662122 0.4748841 0.7530764 -0.7286362 0.12057121 -0.419972 -0.038472764 0.32384756
-1.0659989 -0.61197895 -1.1618252 -0.59072405 0.5222349 -0.600867 -0.7557619 -0.4758266
0.72610635 -0.10732165 0.56710225 0.65037364 -0.008888065 -0.29413843 0.1305236 -0.8541319
-0.20869957 0.027010884 0.9250662 0.20758384 0.06620974 0.48171574 -0.120165356 -0.6049303
0.46172372 0.22325325 0.48830488 0.083327994 0.17883706 -0.46768272 -1.2623144 -0.008088439
0.35750085 0.5227083 -0.14294754 -0.5844638 0.17990448 0.4794561 0.45784515 -0.7929403
0.018496513 0.7349288 0.05524186 -0.25666168 -0.30592832 -0.2719406 0.48749882 0.69136083
0.8374672 0.28985977 -0.3244767 -0.0025096345 0.40167597 -0.49869904 -0.19625422 -0.5332463
0.43693605 0.17120272 0.32132965 -0.2902077 0.6961214 -0.23198679 -0.48091164 0.02392219
0.9765797 0.009012312 -1.0209255 -0.003069904 0.30474672 -0.43337315 -1.0259088 0.27620637
0.40913695 -0.36010775 -0.3734164 -0.36237556 0.4253281 -0.04259898 -0.88426393 -0.99343294
-0.73795545 -0.052215233 -0.004485132 -0.90370494 0.016848356 0.74465895 -0.6631239 0.20728344
0.4223245 0.15637319 0.17339018 -0.8081638 0.66892177 0.5368141 0.13917944 0.5669143
0.46917224 -0.51289624 0.28579158 -0.8089986 -0.28987947 -0.52918285 -0.05386606 0.15599807
0.51273185 0.255835 0.04671864 0.5228291 -0.2296602 0.9885675 0.8001906 0.0022985432
-0.2964184 -0.38154364 0.08583995 -0.37733495 -0.7198833 -0.5504072 0.5763213 0.4658375
-0.5568588 0.7544538 -0.7367741 0.05065069 -0.5523138 -0.2890895 0.0688561 0.46600103
0.036892902 -0.11641928 -1.6403465 -0.30242136 1.2919711 -0.20366345 0.4994164 -0.59069055
0.6113935 0.09711978 0.12941773 0.03619168 -0.44551817 -0.0027200326 0.37530616 0.044517864
0.41065523 -0.9898079 0.47966483 0.550826 0.0130351875 0.36921483 0.5759205 -1.1292799
-0.8937639 0.5546391 0.18403809 -0.18658155 -0.28684902 -0.024340687 -0.33243978 0.33412236
0.18292105 -0.29279318 -0.16670235 -0.42277947 0.0018281431 0.79099655 0.12258838 -0.987913
0.12065081 -0.8791656 0.54254824 -0.5842893 0.32725653 -0.1510224 0.11424115 0.42536527

net.2.weight f4 [256, 256]
00000000: 10bc 803e fd12 403d 376f 073f 651d 5a3e
00000010: c627 22be 41b2 32bd d2e0 fa3e 6c53 863e
00000020: 1177 1dbf 3284 8b3f 55be 5ebf 8941 f4bf
00000030: 0dc6 043f 84be 823e e12e 1bbe 3f97 883e
00000040: 41bc 08bf 93e2 8e3f 7c08 b4bf 32cf 4bbe
00000050: 1458 c6bd 0ffb f8bd ad2c 903e db89 e33e
00000060: 9175 7c3b a0b1 453e 5b5b a03e 9ce8 ab3f
00000070: c849 933e 1422 dc3e 54bc 683e fa8f c63c
00000080: 7ae8 6f3e efb7 1abf 916a bd3d cb94 e13e
00000090: 4ab1 043e 7bde 2d3f 54d0 c53e 70df ab3e
000000a0: 6407 103f da3f 313f 0eef f5be 2dc6 553b
000000b0: 17d1 12bf 3fca c9be 2bd2 9d3e c124 213d
000000c0: 5a71 563e 3a77 51bf e106 ea3b a5cc 0abb
000000d0: f3cf 09bd 53f2 f1bf 8c5a adbf 6219 d1bf
000000e0: 5ebe 7cbe 1511 bbbe f967 a53e cace 23bc
000000f0: e498 d3be d12d df3d 1e91 8cbe 480c 2b3e
00000100: 320a 443e 162d dd3e a295 1a3f fb9a 843f
00000110: 0ce7 23be 8d29 da3c 773c 493e 07ce 923d
00000120: 8e9f 0d3f 4840 9b3e 4c38 19bf 9594 053f
00000130: 6f07 363f 694e 853f 184a 1a3f 6d53 26bd
00000140: 1c68 d13e c036 9cbe d698 c93e 03fd 883d
00000150: 8017 8fbe 393c 6bbf 3d4f 3f3e fcf2 6cbf
00000160: b101 32bf 3ce1 26bf 48d2 65be 0a07 a83d
00000170: 8616 e4bf 81fa 193f 29bf 383e 90f8 523d
00000180: fb5d 213f 5f4a ccbd ad89 71bf 6b01 873e
00000190: 1834 96be d56f 32c0 0fb6 9bbf 72dc cebe
000001a0: b208 74bd 6fdb 903e 14a3 2dbf 63c9 cbbf
000001b0: edc4 36be 6854 163e 4bf4 c63c 8f60 423f
000001c0: 802c 6d3c 670f 5fbd 4788 8b3e f309 363e
000001d0: c7ba b3bf 3bd8 8d3d 021a 16c0 f926 d6be
000001e0: 3bc3 debf 6af3 0ebd a206 323f edee 993e
000001f0: 97b2 113f 2d3a ed3e b724 cbbe 12fe a0bc
00000200: ba35 203f 3948 563e 61f2 813d 5ec2 8f3d
00000210: 2fa9 5e3e 9809 7c3d f373 9d3e 242f 523e
00000220: c6cc 3bbf 6be9 d13e 3d00 aabe 279f 74bf
00000230: 44c0 b9bf d7b0 923d b98b 093f 5d78 a43e
00000240: 62a5 70be fd0b 343e 2e48 97be e824 9a3d
00000250: 93ea d4be c092 2f3f deed de3e efcb e3be
00000260: 4d8e cf3d 58ca 853f 598c 283f f401 163f
00000270: 1fad cfbe 9f74 053f c88e 9b3e 9f2a cd3e
00000280: 2eaa 37bf 52dd f93e a39c d8bf ef85 8c3e
00000290: 52dc ecbc 0567 0c3e 292f 453f dbea 30bf
000002a0: f797 d03e efe2 ba3e 944f cdbd 9523 14c0
000002b0: 7c15 dcbf 4800 cb3e a73f 80bf 0f07 ed3e
000002c0: e177 573e 5814 183f 4845 c93e 14d3 fb3d
000002d0: 9a07 67be 6b7c c83e 893f 21be 16d7 ea3d
000002e0: 041b 983e 4201 cdbd 224b debe bdf4 403e
000002f0: 2589 a5bd 1a6f 10bf 5d47 b43d 4118 0a3e
00000300: 37e0 633f 9aa8 86be 2907 e43e 8cd0 b0be
00000310: 6d31 233f 2cd2 f33e db46 3ebf 7fe1 ebbf
00000320: 8236 3e3f c05c d4bf 664d 2f3e 72e0 183f
00000330: c5b7 183f d732 9cbf 1eb0 983e 0008 9f3e
00000340: 8b05 0ebe a5f6 cf3d 6711 9f3f 0ac9 403e
00000350: 2a27 94be 0cb4 c33e 15cb 893f 14ee a0be
00000360: beed cd3e 65c4 42be 1be6 d8bf cb79 8d3d
00000370: e8a5 eb3e 6829 46be 78c5 723e c8e2 b33e
00000380: 5830 91bf 8b95 473f dfbf 733d b027 d9be
00000390: e1ef b9be 0b55 133e c870 9c3d 0145 a63f
000003a0: 6198 0d3f 985c a2bd 0323 f13d 7ea3 633f
000003b0: 7a3d 12bf c974 b8bf e6bf 793e 9927 75bc
000003c0: c90d 9c3e 1d80 f83e 8090 86bd 5d50 f33e
000003d0: a1fa 7ebd 119b 793d 1c6c 8bbf ead6 0b3f
000003e0: 14e6 1e3e dd35 86be 1539 46c0 f97d 373f
000003f0: 5b33 0bbf 90b1 3cbf ed54 2d3d 8005 073a
0.2514348 0.04689311 0.52904075 0.21300276 -0.15835485 -0.043627027 0.4899965 0.2623552
-0.61509806 1.0899718 -0.87009174 -1.90825 0.518647 0.25535977 -0.15154602 0.26677892
-0.5341225 1.1162895 -1.4065089 -0.19903257 -0.09684768 -0.121572606 0.28159085 0.44441113
0.0038522223 0.1930604 0.313197 1.3430362 0.28767228 0.4299475 0.22728091 0.024238575
0.23428527 -0.6043691 0.092488416 0.44058833 0.12958255 0.67917603 0.38635504 0.33568907
0.5626128 0.69238055 -0.48033947 0.0032619343 -0.57350296 -0.39412114 0.30824408 0.039341692
0.20941678 -0.8182255 0.0071419333 -0.0021179107 -0.03364558 -1.8902076 -1.3543258 -1.6335871
-0.24681994 -0.3653647 0.32305887 -0.009998033 -0.41327584 0.10897411 -0.27454466 0.16703904
0.19144514 0.4319846 0.6038457 1.0359796 -0.16006106 0.026631141 0.19651972 0.07168203
0.55321586 0.3032248 -0.5985153 0.52179843 0.7110509 1.0414554 0.6026931 -0.040606905
0.40899742 -0.3051052 0.39374417 0.06688883 -0.27947617 -0.9188877 0.18682571 -0.92558265
-0.6953383 -0.6518743 -0.22443497 0.082044676 -1.7819374 0.60147864 0.18041672 0.05150658
0.6303403 -0.09975123 -0.943507 0.2636827 -0.2933662 -2.7880757 -1.2164935 -0.4040256
-0.059578605 0.28292415 -0.6782696 -1.5920833 -0.17848559 0.14680636 0.02428641 0.75928587
0.014475942 -0.05445805 0.2725241 0.17777233 -1.4041375 0.06926008 -2.3453374 -0.4182661
-1.740333 -0.034900106 0.6954137 0.30065098 0.5691313 0.46333447 -0.3967645 -0.0196524
0.6258198 0.20925988 0.06345058 0.070194945 0.21744226 0.061532587 0.30752525 0.20525795
-0.73359334 0.40998396 -0.33203307 -0.9555535 -1.45118 0.07162636 0.53728825 0.3212308
-0.23500589 0.17582698 -0.29547256 0.075265706 -0.41585216 0.685833 0.43540853 -0.44491526
0.101345636 1.0452375 0.65839154 0.5859673 -0.40561768 0.52131075 0.3038237 0.4007158
-0.7174405 0.48801666 -1.6922802 0.27445933 -0.02891365 0.13711174 0.77025086 -0.6910836
0.4074094 0.36501262 -0.10024944 -2.3146718 -1.7194057 0.39648652 -1.0019425 0.46294448
0.21041824 0.5940604 0.3931067 0.12296119 -0.22561494 0.39157423 -0.15746893 0.11466806
0.2970811 -0.100100055 -0.43416697 0.1884336 -0.08082799 -0.5641953 0.08802674 0.13485815
0.89014 -0.26300508 0.44536713 -0.3453411 0.6374729 0.47621286 -0.74326867 -1.8428191
0.7430192 -1.6590805 0.17119369 0.59717476 0.5965541 -1.2203015 0.29821867 0.3106079
-0.13869302 0.101544656 1.2427186 0.1882669 -0.2893613 0.38223302 1.0765101 -0.3143164
0.40220445 -0.19020231 -1.6945223 0.06907996 0.46025014 -0.19351733 0.23708141 0.35133958
-1.1342878 0.7796256 0.059509154 -0.42413092 -0.36315826 0.1438791 0.07638699 1.2989808
0.55310637 -0.07927817 0.11774256 0.88921344 -0.57125056 -1.441064 0.2438961 -0.014963054
0.30479267 0.48535243 -0.0657053 0.4752225 -0.062250737 0.0609389 -1.0892367 0.5462481
0.15517455 -0.2621297 -3.097234 0.71676594 -0.5437524 -0.7370844 0.04231732 0.0005150661

net.2.bias f4 [256]
00000000: 9951 2fbf 7c0f fd3e 70f2 70bd 3b74 1a3e
00000010: 56d3 b63d 7388 02bd 5531 053e 5795 0f3e
00000020: 6291 523e 4756 523e a50f 0abe 6843 133f
00000030: 12f9 153d 2564 b53b c85f 0d3f a6ad acbd
00000040: 2132 13bd c2e5 7d3e 714b b0bc 87e3 79bd
00000050: dd93 f6bc 2d4a 2bbe b99a 443b 2274 953e
00000060: daf3 dd3c cb83 ebbb b3d0 bbbc d64b a23e
00000070: 8573 dabd 0e7e a3bc 832f 203e 42e6 9e3d
00000080: a415 303e e735 06bf 092c 123e cc70 20bc
00000090: 6439 97bb 94eb 9ebe 6d0d 103c 50f3 ae3d
000000a0: 6c56 3a3f dbcd 983d e4fe 883e f189 30bd
000000b0: e946 17bf 24b3 84bd fbf1 9ebd 8bf1 77bd
000000c0: 89fe dfbb 804f 263e 9c2f 50bd f8f8 a4bd
000000d0: c67a a33d c465 123e 0bff b83e f305 aa3c
000000e0: 5862 fb3c 6217 c73d 9fef 133f 3ace 4dbd
000000f0: 488f f23e 36a7 a2bc 99e3 da3e 36ff 243e
00000100: 99cf 433c 2f84 5e3e f58d a1bd 87e1 243d
00000110: fbf9 f43e c2fb 6b3e da2d 023f eb14 bd3c
00000120: 2f56 70bd dbab 89bf afcc ca3d a557 103d
00000130: b407 8f3d 1089 1e3f 4407 04bd 969a 073f
00000140: 5ffa 013f 8a72 583e 6833 5f3c 9e3f bfbc
00000150: aacd 0abc 597b 0f3e ab2d 973d 9c5c 363c
00000160: cfa8 ffbe f634 1c3f 8d30 113d 7941 953d
00000170: 5915 01bc 6d08 043f 2b02 62bd 567b 68bd
00000180: 41ba 42bc 03c2 9c3e 5130 123f 8556 053f
00000190: 3d6f e63e 29f6 9cbc cb2d 4fba dbed 2e3b
000001a0: 8586 103d ace5 8c3e 4ca4 a9ba 4da9 21bd
000001b0: 1c9b e1bc 99f8 fc3c f6c6 143e b004 a5bd
000001c0: 4c37 983d 36a1 f73e 175b 143f 6f1a 183e
000001d0: 0c2f 8dbd 5b87 733e a130 d13e 26ed 3f3e
000001e0: 18f5 743d 1f2d 9bbd 5d77 a83e a03d fa3d
000001f0: 9b9a 0cbe 5b59 203b 2436 84bd 79aa fc3d
00000200: d5a8 083f 47f2 383e 3e91 95be 25e4 1b3f
00000210: 2e89 e53e 3d44 48bd e85b f1bc d1fc 093f
00000220: 452f b63c ed62 05bd 3d22 c03e 1510 d23b
00000230: e48e 623e 294a 1ebe 2fd3 0b3f 5b43 32bd
00000240: 54c3 c73c 9b03 193e b057 043e ccd3 62bd
00000250: a26a 94bd bc1c bdbc 942d bc3e a8de 163e
00000260: 9033 25bd ad24 bbbd f09f a93e 3d66 34bd
00000270: 7e29 19bd 1e13 423e b7ef 123d f5cc 673e
00000280: 2005 303d 5f83 363d 3711 52be 2c5b d6bc
00000290: e091 683c dd95 273e c4b7 94bd cc39 b23d
000002a0: dbe2 45bd 60c9 9bb9 52db c3bc 4f90 0b3f
000002b0: 691c 6a3d 7446 7fbd 9cb7 c73c 7a63 01bd
000002c0: c72d 88bc 95b7 553d 97ad 90bd be3c 9b3a
000002d0: 1a29 0d3e d963 6c3e 7b6d 843e 5846 3b3e
000002e0: 176b e6bc 74f1 a63e d9c5 8a3d 278f 1cbe
000002f0: 2a06 e33e c7ce 49bd e95b 383e 8da1 3dbd
00000300: 2c23 473c a38b fbbe 3c66 e93e eada 4b3d
00000310: d380 3dbd b364 983e 016e 5bbe c9b6 763e
00000320: 5059 4bbd ad17 473e 6799 a3bd 9205 bbbd
00000330: a7f3 033f f6fd 54bd e488 8dbd 48fa 40bf
00000340: 87a3 cb3c 04d6 283e be98 b63d 420d ea3d
00000350: a7b5 bf3d 3fed 243c f0a4 943e 573f 883e
00000360: 10c3 6a3d 7169 f2ba f10f dbba 51b4 dfba
00000370: ac1a c23d 710d 573d ad00 033d ff2c 4e3e
00000380: 5456 063e 379b a4bd 9928 4c3e 3338 a53e
00000390: c0ce 80bd ef8a 37bd 5cb8 02be bc84 293e
000003a0: b2ad 013d 19b6 753e 3f0e fc3e a25a 1b3f
000003b0: fb04 053f 0cbe d13c 409e 07bc 7028 09bc
000003c0: 62c8 8f3e d7fa c13c 35c9 8ebd 3a6a 17be
000003d0: e7ef e6bc f0eb cabc b41f 563e 9b9c 61bc
000003e0: c77d 253b 2c05 9cbc a208 0a3e 5f9c b83c
000003f0: 64ad 75bc f6e7 1f3e 9da9 4d3e 8d1e 3ebe
-0.68483883 0.49425876 -0.058824956 0.15083401 0.08927028 -0.03186841 0.130071 0.14021812
0.20563272 0.20540725 -0.1348253 0.5752473 0.036614485 0.00553562 0.55224276 -0.08431558
-0.03593648 0.24794677 -0.021520348 -0.061008003 -0.030099804 -0.16727515 0.0029999448 0.29190165
0.027093817 -0.007187342 -0.022926664 0.31698483 -0.10666565 -0.019957568 0.15643124 0.07758762
0.17195755 -0.52426 0.1427461 -0.009792518 -0.004614996 -0.31039107 0.008792263 0.08542502
0.7278812 0.07461139 0.26756966 -0.0431003 -0.59092575 -0.06479481 -0.07760998 -0.060533088
-0.006835763 0.16241264 -0.050826654 -0.080552995 0.079824015 0.14296633 0.36132082 0.02075479
0.030686542 0.09721257 0.5778751 -0.0502455 0.4737494 -0.019855123 0.42751768 0.1611298
0.011951351 0.21730112 -0.07888404 0.040254142 0.4784697 0.23045257 0.50851214 0.023081264
-0.05867594 -1.0755571 0.099023215 0.035239834 0.06983891 0.6192789 -0.03223349 0.52970254
0.5077266 0.21137443 0.013623096 -0.023345765 -0.008471886 0.14011897 0.07381757 0.011130478
-0.49933478 0.6101831 0.035446692 0.072878785 -0.007878625 0.51575357 -0.05517785 -0.056758247
-0.011885227 0.3061677 0.57104975 0.52085143 0.45006743 -0.019160347 -0.0007903247 0.0026692066
0.035284538 0.27518976 -0.0012942641 -0.0394681 -0.027539782 0.03088026 0.14529023 -0.08057535
0.07432422 0.48365182 0.5795149 0.14853834 -0.06893739 0.23782103 0.40857413 0.18742809
0.059804052 -0.075769655 0.32903567 0.12218785 -0.13730852 0.0024467323 -0.06455639 0.123372026
0.5338262 0.18061171 -0.29212373 0.60894996 0.44831222 -0.048893202 -0.02946277 0.5390139
0.022239337 -0.032565046 0.37526122 0.0064106085 0.22124821 -0.15457977 0.54619116 -0.043521266
0.024385132 0.14942782 0.12924075 -0.055377766 -0.07246901 -0.02308499 0.36753523 0.14733374
-0.040332377 -0.09137855 0.33129835 -0.044042815 -0.037393086 0.18952605 0.03587314 0.22636779
0.042973638 0.04455888 -0.2051438 -0.026166521 0.014194936 0.16365762 -0.07261613 0.0870243
-0.04831205 -0.0002971394 -0.023908291 0.5451707 0.057156 -0.06232305 0.024379544 -0.03158901
-0.01662339 0.05217703 -0.0706436 0.0011843664 0.1378521 0.23084964 0.25864777 0.18288553
-0.028127236 0.3260609 0.06776018 -0.15288983 0.4434064 -0.049269464 0.18003811 -0.046296645
0.012154382 -0.49129972 0.4558581 0.04976932 -0.046265434 0.29764327 -0.21428682 0.24093165
-0.049645722 0.19442625 -0.079882436 -0.09131922 0.5154366 -0.05200001 -0.069108754 -0.753819
0.02485825 0.1648789 0.08915852 0.1142831 0.09360819 0.0100663295 0.29032087 0.26610824
0.057314932 -0.0018494559 -0.0016713125 -0.0017067288 0.094777435 0.052503053 0.031983066 0.20134352
0.13118869 -0.080374174 0.19937362 0.3226944 -0.062894344 -0.04481023 -0.1276564 0.1655454
0.03165979 0.23995246 0.4922962 0.6068517 0.51960725 0.025603317 -0.008277476 -0.008371457
0.28082567 0.02367918 -0.06971971 -0.14786616 -0.028190566 -0.024770707 0.20910531 -0.013770248
0.002525197 -0.019045435 0.13479856 0.022535501 -0.014994953 0.1561583 0.20084234 -0.18566342

net.4.weight f4 [1, 256]
00000000: da13 993f 1ae6 593f 9b74 763c 9b9f 9abe
00000010: 2d3f 34bb 3ca6 e2bb 17fb 66bf f8fe bebd
00000020: c356 1bbe a024 a7bf b1eb f93f 60bc 4c3f
00000030: 5a65 1ebb a159 1e3d 14ce 4b3f e35d 7f3c
00000040: d9cb 89bb 965f 87bf 76a4 b63c 0c9b 173c
00000050: 9121 283d 4e47 87be 6616 243b 98c4 f0be
00000060: 7f38 3dbf ece1 5a3c db47 833b 40f2 83bf
00000070: f8e9 1040 ec53 e43a 314f d4be b5eb a13b
00000080: a380 1fbf 9a7c 1140 8c70 89be b1b3 803a
00000090: 46f1 5c3c 52ff 993f e76a 92bb d1bf bc3b
000000a0: d6c7 da3f 867a 103f 173a d5be 9e10 87ba
000000b0: 491f 1140 7200 8bba ecb8 213d e981 1b3f
000000c0: 1dd2 063b e22a c3be 56f1 f83c 2160 443c
000000d0: b630 14bf 4e9e 8cbe ef75 6bbf 063d 193b
000000e0: 5dc6 783c b165 843f 8c52 bdbf 6cae 51bc
000000f0: c656 5fbf fa63 a8ba 1c71 f5be 997b 39bf
00000100: aafb bb3c 25ac 48bf 8e12 c03b 0c5d beba
00000110: ee15 493f c669 99bf de5f 8c3f 7742 1c3d
00000120: c11f 27bf 5610 d43f 9599 77bb 2e76 073d
00000130: 5667 2c3a 4096 8f3f acd3 d0bd e6c0 6b3f
00000140: dd63 5a3f 7db1 94bd 7b8b b33c 0fbd ca3a
00000150: a14a 7dbc 8d3b 79bf 2155 cd39 56bd 963b
00000160: d4b9 573f 9988 8d3f 3ec4 cabe b785 dd3b
00000170: 5ef7 05bc 7478 383f ba0c cebb 5203 0140
00000180: f428 64bd 69e1 53bf 9f1f 8f3f fb72 55bf
00000190: e2c0 683f 119e 013c 4fb9 903b 2042 b73d
000001a0: f20b 293d 633d 04bf cb72 f53c 5d20 bf3b
000001b0: 14de 9b3f 2222 ebba eb98 74bf 1405 db3c
000001c0: 1510 d2bc cf2a 493f 519c 883f 84bf 8fbe
000001d0: e0c9 c23c 4901 0340 f3c8 6f3f ddf6 8ebf
000001e0: d6ad 97bf 3f09 12bd d066 fabe b831 89be
000001f0: aea0 eebb c4b7 8dbc c13b 143d d749 11bc
00000200: 2fe2 603f 4930 f9bf f6fe 0f40 2cb2 813f
00000210: f88e 323f 20cb 003d 52a6 0cbb 1cb0 743f
00000220: 9c18 5b3b 03b0 a93a cd6c 913f 62c4 6aba
00000230: 8421 7ac0 1df4 7d3f 7d43 7f3f 85d1 353d
00000240: 6230 75bf ecc1 fbbf f01a f3bf 8e48 f43f
00000250: 22dd c43c 60d0 683c f396 4abf 8b04 0840
00000260: 966a bfbb c583 f83f 38bb 38bf a680 493d
00000270: 08a8 9cbb eb1b 43bd 46e0 66ba 8e05 c0bf
00000280: 26e6 2d3d 5ea1 3b3f 3bb1 8d3f ee43 bb3f
00000290: edbd 19bb ad49 7abf f95a 0e40 1beb 6cbd
000002a0: 2381 a9bc c44c 51bd 7db9 643b bde4 883f
000002b0: d3b3 7f3b 7820 b03c b89b cb3b 4010 5f3c
000002c0: 8454 b5bc 0bc6 06bf 06a3 243d ac0b ab3c
000002d0: dfba 41be 478f 1840 1d94 f9be 03b9 7bbf
000002e0: f8b4 cc3c b00f 2ec0 c320 75bb f2f6 06be
000002f0: 708e 443f 8b96 c63c 7ab8 0440 7527 36bd
00000300: a73a 1cbd 6411 1740 5a0e 7a3f 9f60 173f
00000310: b100 7bc0 eecd 27c0 b0fc 60bf 3324 01c0
00000320: 422b c53c 1bcd 42c0 f5d7 bf3c 8e68 dcbb
00000330: 51fe 753f a0a3 3a40 2bfc 623a e39b b93f
00000340: 1ed2 86bb b831 26bf f31c 9fbb d20f b6be
00000350: de1c f3be 9885 a53b 3549 51bf 2427 55be
00000360: 8bc8 84bf ebb3 a93b bf38 713c af94 f0bb
00000370: 95c4 febf 9b7a 753c d4a4 b5be 2bfd 88bf
00000380: 52ca fdbe e582 8eba c955 b7be 4757 bbbe
00000390: 671a 01c0 705c 2638 d55e 2b3f 5421 d8be
000003a0: 7e70 74bb 05a8 02bf c178 3e3f b831 7b3f
000003b0: 515f 483f dfe6 b6bb 726d 4540 6257 d4bf
000003c0: 2d63 10bf 1fc6 083d 3e0a 193c 0f6b fcbf
000003d0: 62d3 0b3c 90c3 70bb 9de7 1640 8a8a 013a
000003e0: af15 1bbc d2cd 5f3e e9f0 f9bf 5fe7 5d3b
000003f0: 561e 5cba 2b24 8dbf fd67 8abf d3c4 753e
1.1959183 0.8511673 0.015042449 -0.30199894 -0.0027503476 -0.0069167893 -0.9022688 -0.09325975
-0.15169816 -1.3058052 1.9525052 0.7997494 -0.0024169297 0.038659696 0.79611325 0.015586349
-0.0042052087 -1.0576046 0.022295218 0.009253275 0.041047636 -0.2642159 0.0025037765 -0.4702499
-0.7391433 0.013359528 0.0040063686 -1.0308304 2.2642803 0.001742003 -0.41466668 0.0049414285
-0.6230566 2.27323 -0.2684368 0.0009819177 0.013485258 1.2031043 -0.00446831 0.005760171
1.7092235 0.56436956 -0.41645882 -0.0010304635 2.2675345 -0.0010604991 0.039482996 0.607451
0.0020572015 -0.38118654 0.030388515 0.01198581 -0.57886827 -0.27464527 -0.9197683 0.002338232
0.015184012 1.0343534 -1.4790816 -0.012797933 -0.8724178 -0.0012847178 -0.47937858 -0.7245422
0.022947151 -0.7838767 0.005861587 -0.001452358 0.7854909 -1.1985404 1.0966756 0.038149323
-0.6528283 1.6567485 -0.003778075 0.03307169 0.00065766776 1.1217728 -0.10196623 0.92091215
0.8530863 -0.07260416 0.021917095 0.0015467721 -0.015459687 -0.9735649 0.00039164073 0.0046002073
0.84267926 1.1057311 -0.39602846 0.006760325 -0.008176653 0.72058797 -0.006288138 2.0158277
-0.05570312 -0.82765824 1.1181525 -0.8337857 0.90919316 0.007911221 0.0044166218 0.08948159
0.041271158 -0.5165617 0.029961964 0.0058327154 1.2177148 -0.001793925 -0.95545834 0.02673582
-0.025642434 0.78580946 1.0672704 -0.28075802 0.023777902 2.0469534 0.93666 -1.1169087
-1.1849926 -0.03565335 -0.48906565 -0.26795745 -0.007282338 -0.01729954 0.0361898 -0.008867702
0.8784513 -1.946786 2.2499366 1.0132499 0.69749403 0.031443715 -0.002146144 0.9558122
0.0033431416 0.0012946132 1.1361328 -0.0008955655 -3.9082956 0.9920061 0.99712354 0.044389267
-0.9577695 -1.9668555 -1.8992596 1.9084642 0.024031226 0.014209837 -0.7913658 2.1252773
-0.0058415635 1.9415213 -0.72160673 0.049194954 -0.004780773 -0.047634047 -0.0008807223 -1.5001695
0.042455815 0.732931 1.1069711 1.4630105 -0.0023459152 -0.9776867 2.2243025 -0.0578414
-0.02069146 -0.0510986 0.0034900599 1.0694805 0.0039017096 0.021499857 0.0062136315 0.013614714
-0.022135027 -0.5264594 0.040194534 0.020879589 -0.18918942 2.383745 -0.48745814 -0.9832918
0.024988636 -2.7197075 -0.003740356 -0.1318014 0.7677984 0.024241706 2.0737596 -0.044471223
-0.038141873 2.3604364 0.9767815 0.5913181 -3.9219172 -2.621944 -0.8788557 -2.0178344
0.024068478 -3.0437686 0.023418406 -0.006726331 0.9609118 2.9162369 0.0008658792 1.4500698
-0.0041144034 -0.64919615 -0.004855746 -0.35558945 -0.4748296 0.005051326 -0.8175233 -0.20815712
-1.0373701 0.0051789186 0.014723002 -0.007341943 -1.9903742 0.014982845 -0.35477316 -1.0702261
-0.4956842 -0.001087275 -0.35807636 -0.36590025 -2.0172365 3.9663573e-05 0.6694158 -0.42212927
-0.0037298496 -0.5103763 0.74403006 0.9812274 0.7827044 -0.005581721 3.084805 -1.6589167
-0.5640133 0.033392068 0.009340821 -1.9720172 0.008534284 -0.0036737658 2.3578866 0.00049416034
-0.009465619 0.21855858 -1.9526645 0.0033859832 -0.00083968544 -1.1026663 -1.0812985 0.24000864
