manually_saved_runs/no_offset_ddpg_0/target_actor.pt (torch, 276799 bytes, 6 tensors)

net.0.weight f4 [256, 8]
000000 ee 3b 5c 3f 0e d2 fd bf 78 a6 35 bf cb ef ef bd
       0.86028945 -1.9829729 -0.70957136 -0.11715659
000010 05 8a 45 3f b6 9b 10 3f 9a 69 28 3d 34 de 04 be
       0.77163726 0.56487596 0.041116334 -0.12975389
000020 28 05 54 bf 6b 23 ad 3e db 96 b1 bf 08 52 69 bd
       -0.8282037 0.33816084 -1.3874162 -0.056962997
000030 60 2e 6c 3f 8c c8 00 3f 21 41 de 3d c1 d9 bc 3e
       0.9225826 0.5030601 0.10852266 0.36884883
000040 08 be 79 bf 95 61 c2 be 97 4c 30 bf 14 e2 89 bf
       -0.9755559 -0.37965074 -0.68866867 -1.0772119
000050 10 b5 8a 3f 05 07 87 3f a3 83 bd be ec 22 70 bf
       1.0836506 1.0549017 -0.37014493 -0.93803287
000060 52 8d 70 bf 0d c4 32 3e a5 4a 0e 39 94 8d 3e 3f
       -0.9396564 0.174576 0.00013569983 0.7443478
000070 14 30 93 3f 1f a9 17 bf 5f 8d 17 bf 13 15 b1 3e
       1.1499047 -0.59242433 -0.5920009 0.3458639
000080 0d dc 63 bf 03 0f d6 be dc bb db be 32 ac 9f bd
       -0.89007646 -0.41808328 -0.42916763 -0.077965155
000090 ef 00 87 bf dc e1 e2 3e 7d c6 72 bf cf 6b 3f bf
       -1.054716 0.44312942 -0.9483412 -0.7477388
0000a0 40 db 15 3f d7 b3 56 bf 4f e5 aa bf c3 f2 31 40
       0.58537674 -0.83868164 -1.335123 2.780442
0000b0 e7 f8 d7 3e d7 32 5c be b3 9f f3 3d ed 24 ba bf
       0.42182085 -0.21503769 0.118956946 -1.4542519
0000c0 13 d6 dd bf 09 d7 79 be 16 4e fb 3f 02 38 28 40
       -1.7330955 -0.24398436 1.9633205 2.6284184
0000d0 ae b9 7e bd ac b9 38 3e b5 19 00 bf 08 3e e1 3e
       -0.062188797 0.18039578 -0.50039226 0.4399264
0000e0 1f b5 e6 be dc 0f 10 bf 73 41 83 bf f0 5e 8f 3f
       -0.4506006 -0.562742 -1.0254349 1.1200848
0000f0 8f cb 91 3e 8d 07 3c 3f 15 d8 54 bf 4c 4f 4d bf
       0.28475615 0.7344902 -0.83142215 -0.8019912
000100 55 00 16 3c 54 ef 24 bf 3e 5b e2 3f b6 19 6f bf
       0.009155353 -0.64427686 1.7684095 -0.93398607
000110 2c 95 98 3e b7 e8 2b bf 6d a6 78 3e 34 12 0d 3f
       0.2980131 -0.6715197 0.24282236 0.551059
000120 99 91 51 bc 64 de dc bf 55 f3 8d be 25 f0 ac bf
       -0.012791061 -1.7255368 -0.2772471 -1.3510786
000130 95 68 76 3e 6c 18 79 be 4d e5 25 3e 56 3f a1 bc
       0.24063332 -0.24325722 0.16200753 -0.019683521
000140 29 82 23 be d3 ce 09 bf 0a 6e f6 3e 9c d7 f3 3f
       -0.15967621 -0.53831214 0.48130828 1.9050174
000150 b5 85 3b bf da 6d d4 bf 4e 17 6f bf 1c a3 9f bf
       -0.73250896 -1.6596024 -0.93394935 -1.2471652
000160 63 e3 b0 3f 02 3c d1 3e 3c 01 a7 be 19 03 1a 3f
       1.3819393 0.40866095 -0.3261813 0.60160977
000170 8f 77 a7 3e 2d 53 c7 be 8c 0d c8 bf 2e 2d bb be
       0.32708403 -0.38930646 -1.5629134 -0.36557907
000180 97 ca 9a bf 37 e1 0f 3f 37 47 16 be cf 3e 5f 3f
       -1.2093076 0.56203026 -0.14675604 0.87205213
000190 6a dd ce bf f4 27 16 bf 47 4f d3 3d eb a4 3f 3f
       -1.616132 -0.58654714 0.10317855 0.7486102
0001a0 20 c5 a0 3e b0 4b c4 be dc af 5f 3d a0 f8 64 bf
       0.31400394 -0.38338995 0.054611072 -0.8944187
0001b0 d3 40 ac bd 54 15 a4 3f b9 3d 64 bf 31 36 7b 3c
       -0.08410802 1.2819009 -0.8915668 0.015332744
0001c0 98 88 75 3f c9 50 18 3e 48 ab 53 bf 4f a2 cd 3e
       0.9591155 0.14874567 -0.8268323 0.40162894
0001d0 f6 7e 79 3f 29 2a d9 bb 73 cf 39 bf b2 b9 10 bf
       0.9745935 -0.0066273403 -0.7258217 -0.5653335
0001e0 d6 a7 d8 bf c8 10 21 be b2 61 7d bf ee 0c 3e 3f
       -1.692622 -0.15729058 -0.98977196 0.7423848
0001f0 ee fe 13 3f ba d2 19 3e 16 c6 43 3e 9f f6 0b 3e
       0.57810867 0.15021792 0.19118533 0.13668297
000200 d9 2b a4 bf ce 3b b3 be 97 e6 13 3f af 1c 44 bf
       -1.2825881 -0.35006565 0.5777373 -0.7660627
000210 f1 20 8e bf 31 db 26 bf 80 db 05 3f bf 24 74 3e
       -1.1103803 -0.6517821 0.52288055 0.23842143
000220 a7 18 29 bf 4e 8e 0f 3f 62 46 f7 3e cc a8 2e 3f
       -0.6605324 0.56076515 0.48295885 0.68226314
000230 19 e9 97 bf 95 a2 fc be b9 68 ca 3e 0d 5d 75 3e
       -1.1868011 -0.4934279 0.39533022 0.23961277
000240 01 7b 31 3e 1a fb 4e bf 00 f7 cf 3f 3f c6 59 3f
       0.17332079 -0.808519 1.6247253 0.85068125
000250 20 67 5d 3f 86 4e e2 3e 1f 0f 96 3d db 26 6e 3d
       0.8648548 0.44200534 0.07327103 0.058142524
000260 16 b3 71 bf b4 43 b8 3d 80 7c e7 bd 12 f5 05 bf
       -0.9441389 0.08997288 -0.11303043 -0.5232707
000270 c2 46 b8 3e 29 be ff be fd 76 c5 be 3c b7 59 bd
       0.35991484 -0.49949768 -0.38567343 -0.05315326
000280 37 ea a0 be 66 3d 2a be ae ae 1a 3f 7a 0d 48 40
       -0.31428692 -0.16624984 0.6042279 3.1258225
000290 e2 a0 85 be 49 a9 3b bf 66 72 bf bf f3 8e a8 bf
       -0.26099306 -0.73305184 -1.4956787 -1.3168625
0002a0 f2 e2 04 c0 b0 3a b2 3e 47 25 66 be 18 f2 c2 bd
       -2.0763516 0.348104 -0.22475158 -0.09518832
0002b0 3c 2f 5b bc 5b 78 21 3f 65 14 8f bf 59 1c 46 be
       -0.013377961 0.6307427 -1.1178099 -0.19346751
0002c0 42 b4 c1 be 59 57 14 3f e2 bf f0 bf be 58 c2 3e
       -0.37832838 0.5794578 -1.8808558 0.3795833
0002d0 2b de f6 3f cd 36 4f bc 59 59 af bf c6 ef 64 bf
       1.928655 -0.012647343 -1.3699142 -0.89428365
0002e0 ab f4 ba bf 79 a5 c6 3d 4f 1b 2e be ad 4b 07 bf
       -1.4605917 0.0969953 -0.17002605 -0.5284985
0002f0 9d 6c 1d 3f 71 f4 69 be 10 05 bb bc 6e e3 1b bf
       0.61493856 -0.22847153 -0.022829562 -0.60893905
000300 18 0c 71 3f 96 29 97 3e 76 69 82 3f 5e d5 8e 3f
       0.9415908 0.29523915 1.0188434 1.1158864
000310 fe 8f c9 bf d1 a5 f8 be 60 c2 1f bf 45 ff bc be
       -1.5747068 -0.48564008 -0.6240597 -0.36913505
000320 70 b3 3d 3f 58 cd 5f be 6c b3 04 3e 74 13 6e 40
       0.74101925 -0.21855676 0.12959069 3.7199373
000330 78 48 ea bf b3 95 52 3e f1 9a 32 3f 6c 1d de be
       -1.8303366 0.20564918 0.6976767 -0.43381822
000340 ee 28 e2 be 17 66 a2 be af 66 ad 3f fc 4d 5a 3e
       -0.44171852 -0.31718513 1.3546962 0.21318811
000350 b2 78 a7 bf 07 08 21 3f 8e d3 8e 3d a4 f6 ab be
       -1.3083708 0.62902874 0.069739446 -0.3358661
000360 25 f4 8a be 85 e3 3e 3e 56 41 88 3f fc 63 1a 3e
       -0.27139392 0.1864148 1.0644939 0.15077204
000370 af 61 39 3f dc 59 20 3f 73 00 0c 3e e2 7a 9d 3e
       0.7241468 0.62637115 0.13672046 0.30757815
000380 b8 61 f2 bd ac a4 11 bf 43 cf af 3f 25 35 2a 3e
       -0.118350446 -0.56891894 1.3735126 0.16621836
000390 c8 05 a4 3d d4 49 69 be e8 e1 84 bf ae 4a b0 bf
       0.08008915 -0.2278207 -1.0381441 -1.377279
0003a0 13 8e a5 bd b8 e6 d4 3e bc a7 05 bf 99 a0 0e 3f
       -0.08083739 0.41582274 -0.5220907 0.557138
0003b0 70 ae b2 3f 3c 9f a6 3e 2b cd d8 be 09 57 c4 3e
       1.3959484 0.3254336 -0.4234403 0.38347653
0003c0 58 ae ac be 50 cd 25 bf 6a 80 36 3e ba f8 64 bf
       -0.33726764 -0.64766407 0.17822424 -0.89442027
0003d0 72 3e 25 3f ea f7 4f 3e f6 a4 84 be cb 8d 6d 3e
       0.6454841 0.20309415 -0.25907105 0.23198621
0003e0 c4 89 46 3d f0 0e e0 bf be 2c d0 bd d0 63 d0 bf
       0.048471227 -1.7504559 -0.10164784 -1.628046
0003f0 20 ed b3 3e 71 d7 7c be c3 ce 46 3e aa 2b be 3d
       0.3514185 -0.2469156 0.19414811 0.09285672

net.0.bias f4 [256]
000000 cb 24 8d 3d 01 b0 2c be 8c 2d e1 bd 5f 10 3e 3e
       0.06891783 -0.16864015 -0.109950155 0.18560933
000010 66 b4 62 bd d0 25 73 3e 44 3d e4 3e a3 18 b1 bc
       -0.055347823 0.23744893 0.44577992 -0.021618193
000020 37 4e 0b bf 3b 60 43 3d 56 a4 a1 bd 17 eb 9a be
       -0.5441622 0.047699194 -0.07892673 -0.30257484
000030 ec 59 0b bf 00 a1 00 3e df 61 e7 3e a4 13 d2 3d
       -0.54434085 0.12561417 0.45191857 0.102576524
000040 db 50 c1 3d a9 9f 47 3f 20 58 09 be 5f 98 4c 3e
       0.0943925 0.77978 -0.13412523 0.1998
000050 95 12 00 3d e8 fd 39 bd 1c 1a 8f be 27 f5 f5 bd
       0.03126772 -0.04540816 -0.27949607 -0.1200965
000060 2f f0 e6 be 89 ef 7c 3d 46 91 c4 bc a8 e8 84 be
       -0.4510512 0.061751876 -0.023995053 -0.25958753
000070 e1 05 3b 3e 62 91 44 bf 2d f5 04 3d 31 2f 1d be
       0.18263961 -0.76784337 0.03246038 -0.15350033
000080 b7 f0 5d bf 19 65 3f bc 5a a3 1d bf 6d f8 5f bf
       -0.86695427 -0.011681818 -0.6157738 -0.8748844
000090 35 07 da be 59 18 d4 be e5 00 52 be d4 f8 3c 3f
       -0.42583624 -0.41424826 -0.20508154 0.7381718
0000a0 e2 61 16 3f 5c df 03 be 0e b6 76 bf 83 74 ba 3e
       0.5874311 -0.12878174 -0.96371543 0.36417016
0000b0 37 80 01 3e 4b 6d 47 bd 6f 2a 50 3e 39 25 db 3c
       0.12646566 -0.048688214 0.20328687 0.026751148
0000c0 dd 3d 8c 3d 37 32 8e 3d 59 96 87 bf 1c 5e d8 be
       0.06847737 0.069431715 -1.0592757 -0.422593
0000d0 19 cf d8 be 5d b2 2c 3e 83 be b8 bd 35 c6 4f bd
       -0.42345503 0.16864915 -0.09020712 -0.050726134
0000e0 dd 69 27 be 78 c4 2c bb 7b c7 fa 3e 1e 4a 7e be
       -0.16348977 -0.0026362222 0.48980317 -0.24832961
0000f0 6b 78 08 3e 23 e6 09 bf a8 91 09 bf 48 bc e0 3c
       0.13327186 -0.53866786 -0.5373788 0.02743353
000100 b7 35 8d 3d 7e 2f 16 3e c0 e1 f4 bc 2d 5a c4 be
       0.06895011 0.14666554 -0.029892802 -0.3835005
000110 d8 76 ef 3c ed 9d 14 bf 35 aa e5 be 7f 54 ff be
       0.029231474 -0.58053476 -0.4485642 -0.49869153
000120 ee 17 f1 3d 57 e4 54 3e e9 1a 3b bf 5e bd 15 bf
       0.11772142 0.2079023 -0.73087937 -0.58492076
000130 d8 19 c1 bd 70 e2 b3 bd ee 88 de 3c b2 27 95 3d
       -0.094287574 -0.08783424 0.027164903 0.07282962
000140 2c 27 d8 3d b6 87 2d 3b f2 59 08 be 9e f3 ee 3e
       0.105543464 0.0026478595 -0.13315561 0.4667024
000150 20 37 ab bd 62 70 87 3d 42 6d ec be fe eb 04 be
       -0.08360124 0.06613232 -0.46177107 -0.12980649
000160 c2 b4 32 bf 58 87 17 3e 7e 43 f7 be d0 99 26 3f
       -0.69807065 0.14797723 -0.4829368 0.6507845
000170 ed 44 70 be fb 3a b5 3e 8f 67 42 be 36 a6 57 be
       -0.23463793 0.3539656 -0.18984817 -0.21059498
000180 52 fd 3d bf 65 9e 13 3c 0c 37 f8 3e b1 cc 2f 3f
       -0.7421466 0.009009932 0.48479497 0.6867171
000190 dd 05 33 be 6f 78 a3 3d 82 9e 1c be d4 e2 b6 be
       -0.17482705 0.07981955 -0.15294841 -0.3571993
0001a0 8b 04 27 bf e6 4d cc 3e 9d 4d fc 3e 99 84 13 3e
       -0.6524131 0.39903182 0.49277964 0.1440605
0001b0 51 24 ca 3d b7 45 34 3e 8a 10 93 be bc be de 3e
       0.09870208 0.17604719 -0.28723556 0.43504894
0001c0 78 ba 44 3e f7 56 8b 3e 48 25 95 bd d1 97 13 bf
       0.19211757 0.27214786 -0.072825015 -0.5765353
0001d0 ba 34 9a 3d dc 3d 1d bf 8e 80 81 3e fe 24 7f 3e
       0.07529588 -0.61422515 0.25293392 0.24916455
0001e0 da d7 42 be 71 f9 16 bf 00 b0 11 3e bd 20 83 3e
       -0.19027653 -0.5897437 0.14227295 0.25610915
0001f0 ea 5e 5f be bc 47 98 bd 9e a4 c4 3e 30 26 81 3c
       -0.2181355 -0.07435557 0.38406843 0.01576528
000200 75 f6 99 be 28 17 c8 3d e5 78 ab 3e 53 b7 fa 3e
       -0.30070844 0.09770042 0.33490673 0.4896799
000210 a6 ad 4b bf 3e 20 61 3d 3a d7 9e 3e 09 70 09 bf
       -0.7956184 0.05496239 0.3102358 -0.5368658
000220 88 db 51 be 03 7c 5c bf 24 2d f9 3d 7e 31 7f bd
       -0.20493901 -0.86126727 0.12166813 -0.06230306
000230 23 ae 0f 3c 50 4e 5c be 67 7e 1f bf ad 1c 42 bd
       0.008769545 -0.21514249 -0.6230225 -0.04739063
000240 d4 ad b8 be 37 eb 8d bd 05 15 9e be 7c 04 c7 3c
       -0.3607012 -0.06929629 -0.30875412 0.02429413
000250 cf 90 4f be a1 e5 ef bc 1b 4a fb 3d 47 7c 25 bf
       -0.20270084 -0.0292843 0.12269994 -0.6464276
000260 7f 77 8c bd 2c cb 51 bf 51 d3 ff be a0 ce a6 3b
       -0.068587296 -0.8195064 -0.4996591 0.0050905496
000270 8f 1c ad be 3d 2e 51 3d de 72 4f be d3 e7 db 3e
       -0.3381085 0.051069487 -0.20258662 0.42950305
000280 86 2c dc 39 d7 63 49 3e af db 80 3e 41 ab 78 be
       0.00041994842 0.19666992 0.25167605 -0.24284078
000290 5d ae b8 be ec 93 b4 be 1e dd af bc 84 62 99 be
       -0.3607053 -0.35269105 -0.021467742 -0.29957974
0002a0 1e 21 4c bd 91 71 6f be 8a 7f 8f bd 36 a7 46 3e
       -0.04983627 -0.23383166 -0.07006748 0.19399723
0002b0 67 25 be be b5 86 0f 3f e9 a6 a7 3e 46 9e 0e 3f
       -0.3713791 0.5606492 0.3274453 0.55710256
0002c0 eb b3 de 3e cb 81 0c 3c 28 ca 61 3f 22 3b 51 bd
       0.43496642 0.008575867 0.8819909 -0.051081784
0002d0 0a e0 17 bf 2a 41 6e be 73 35 b6 bd f6 00 5b be
       -0.5932623 -0.23267046 -0.088969134 -0.21387085
0002e0 53 53 30 3e 11 61 82 3e 00 95 1d 3f f7 62 bb be
       0.17219286 0.2546468 0.6155548 -0.36598942
0002f0 95 85 9d 3e 47 d8 37 be de a5 14 bf d6 a7 8f 3e
       0.30765978 -0.17953597 -0.58065593 0.28057736
000300 15 3f b4 be e4 f6 26 bf ea a9 8e 3e f9 24 a5 be
       -0.35204378 -0.65220475 0.2786401 -0.3225477
000310 03 cf 3d bf 8c e0 82 3e 71 1e 8c bc 15 a4 a5 3d
       -0.74144 0.2556194 -0.01710436 0.08087937
000320 28 e1 5e bd 91 db 03 3f 44 8e 22 be ad d3 de 3d
       -0.054413944 0.51506907 -0.15874583 0.10880218
000330 a1 4c 3a 3d 43 7c 8a be c6 fd 03 bf c4 86 02 be
       0.045483235 -0.2704793 -0.515591 -0.12746722
000340 0d 94 1c 3e ad a9 59 bd 93 9b 04 be fe 0d 63 bf
       0.15290852 -0.05314033 -0.12949972 -0.88693225
000350 f5 72 3e 3d 71 a9 c3 3e 01 75 a4 3d e7 bb 3a bf
       0.04649635 0.3821521 0.08030129 -0.72942966
000360 15 f7 ef 3d d1 60 e2 3c cc 9e 26 3e e3 1c bc be
       0.11717049 0.027634056 0.16271514 -0.3674079
000370 14 3c 41 3d 6d b2 16 bf a6 21 e3 be f1 c4 c7 be
       0.047176436 -0.58866006 -0.4436161 -0.39017442
000380 42 f5 d7 be 82 44 f4 be c7 37 0a 3d 75 4e 3d bf
       -0.42179304 -0.47708517 0.0337446 -0.7394784
000390 56 41 83 bf 0a 49 f3 be 64 c1 80 3e 6a ca 55 3e
       -1.0254314 -0.47516662 0.25147545 0.20877996
0003a0 f1 28 97 bb 34 c5 37 bf c8 41 a6 be 6f 76 84 3e
       -0.004613035 -0.71785283 -0.32472062 0.25871608
0003b0 0c 1a fa be 9a e8 27 3f e9 f3 48 3d c6 69 df 3d
       -0.48847997 0.65589297 0.049060736 0.109088466
0003c0 90 23 c1 be 1d 3b 32 3d 57 a0 a1 be c4 8a 95 3e
       -0.37722445 0.043513406 -0.31567642 0.29207432
0003d0 61 2b 02 bf 7e 3c bf 3d 68 70 41 bf 9d 1f 1f 3e
       -0.5084744 0.0933771 -0.75562143 0.15539403
0003e0 d6 f9 63 3e b5 de c6 3d 04 59 fb 3e 89 7c 24 be
       0.22263274 0.09710447 0.4909135 -0.16063131
0003f0 c4 3f b9 be f2 dc 8d 3e 2f 26 23 3d 2a 34 ef be
       -0.36181462 0.2770763 0.039831337 -0.46719486

net.2.weight f4 [256, 256]
000000 7f 5e 14 3f 3a 8a 8e bf 7b f0 b6 bc 0d 39 cb be
       0.5795669 -1.1135933 -0.022331467 -0.39691964
000010 e2 5c b1 bf 20 3f fa be 7c 13 b6 3e fe b4 e4 bf
       -1.385647 -0.48876286 0.3556174 -1.7867734
000020 97 14 2e be 78 31 df 3e 89 00 9e be d9 e2 ff bd
       -0.17000042 0.4359243 -0.30859783 -0.1249444
000030 0a 93 ac 3f ef a9 95 3e ce 64 88 3d ec bb ba bf
       1.3482373 0.29231212 0.06659852 -1.4588599
000040 ce 5f 0f be cf 62 5c bf a5 8c 37 be 16 04 ca be
       -0.1400139 -0.8608827 -0.17924745 -0.39456242
000050 fb aa 32 bf 7b a1 ad 3b 71 f8 00 bf d1 62 94 bf
       -0.69792145 0.005298791 -0.5037909 -1.1592656
000060 79 2f 57 bf c3 4a 43 bf c5 01 ac bf ca 64 d0 3e
       -0.8405681 -0.7628595 -1.343804 0.40701896
000070 94 1e b6 be 07 7c ce be d0 94 b0 3d 9c e2 83 be
       -0.35570204 -0.40329 0.08622134 -0.25758827
000080 cb 25 d1 3d bf a6 2e be 3c ae 0e 3d ba 4a 27 3f
       0.102122866 -0.17055796 0.03483413 0.653484
000090 16 e8 66 be 3b 70 35 be 1a 98 01 bd a2 a0 14 bb
       -0.22549471 -0.17718594 -0.031639196 -0.0022678752
0000a0 b1 ef a9 3e b1 65 0c 3f 03 a2 36 3e 50 4d 6a bf
       0.33190683 0.5484267 0.1783524 -0.9152422
0000b0 50 54 8c be 42 54 5d 3f 94 11 ab bf c1 a8 9c 3e
       -0.27408075 0.8645669 -1.336474 0.305975
0000c0 73 ca 57 3d 84 51 84 bd e4 43 cf be fc 05 d7 be
       0.052683305 -0.0646086 -0.40481484 -0.41996753
0000d0 13 0e 19 bf f7 aa 19 3f 05 f0 4d 3e 78 fc 96 bf
       -0.597871 0.60026497 0.20111091 -1.1795797
0000e0 45 e9 84 3d 9c a6 9f be 30 0a 81 3e 73 96 86 be
       0.06489805 -0.311818 0.25203085 -0.2628666
0000f0 36 7c 66 bf cc e5 84 3a a5 26 29 3f c0 4f 60 3f
       -0.9003328 0.0010139286 0.6607459 0.8762169
000100 f4 85 f1 3e ec b1 62 3e a9 65 82 3e 11 b2 9a bf
       0.4717251 0.22138184 0.25468186 -1.2085592
000110 28 b5 b5 be aa 5b fe bd 11 9f ee be f6 16 7b 3f
       -0.35489774 -0.12419827 -0.46605733 0.9808191
000120 bb b8 14 bd 1c fb bf be 74 ec c5 be f6 04 a3 be
       -0.036308985 -0.3749627 -0.38656962 -0.31839722
000130 34 0d c0 be d8 38 8d 3d e1 64 f7 bd cf a7 7a be
       -0.37510073 0.06895608 -0.12079788 -0.24478076
000140 61 58 87 be 3a 3b b5 3f d7 b7 f0 be fa 5f c8 3e
       -0.26434615 1.41587 -0.4701526 0.39135724
000150 f4 7c 87 bf 18 fe 61 3e 13 3c 2c be 8b 30 65 bf
       -1.0585008 0.22069585 -0.16819791 -0.89527196
000160 d9 48 0a bf 48 7e 4c bf 93 00 7f bd 33 9a 8f be
       -0.54017407 -0.7988019 -0.062256407 -0.28047332
000170 59 84 a9 3e df 49 c3 be 65 25 00 3f 94 1a 30 be
       0.33108786 -0.38142297 0.5005706 -0.17197639
000180 59 5d 86 bd 0c 4b 4c bf 27 d8 c9 3c c6 6c cf be
       -0.065607734 -0.7980201 0.024639202 -0.40512675
000190 72 44 07 be fc 42 fa bd 9e ab 7b 3d cb 58 fd 3e
       -0.13209704 -0.122198075 0.061442964 0.49481806
0001a0 87 b5 a3 3e c6 04 8a be ee c6 ba 3d 7c c3 34 be
       0.31974432 -0.26956767 0.09119974 -0.17652696
0001b0 65 38 eb bd fe 17 87 3d ee 47 7e bf 8a c2 74 be
       -0.11485366 0.06596373 -0.99328506 -0.23902336
0001c0 97 fd 4f bf ca 4c 4b 3c 6e a2 00 3e 33 ca 78 be
       -0.8124632 0.012408445 0.12561962 -0.24295883
0001d0 bd e8 f6 be 83 d7 7c bf f9 8c 26 3f 00 4d c0 3e
       -0.4822444 -0.98766345 0.6505886 0.37558746
0001e0 b6 a8 57 3f 5c 67 45 be d5 74 e4 be 0e fb 20 be
       0.8424181 -0.1927771 -0.44620386 -0.1572077
0001f0 e6 e3 8b 3f 74 76 85 3e 0b 25 d4 bd 7a c7 c2 be
       1.0928924 0.26066935 -0.10358628 -0.38042814
000200 76 4f df bd 31 62 da 3d e4 b9 42 3d d2 c0 15 bf
       -0.10903828 0.1066326 0.04754056 -0.58497345
000210 c9 f6 fb bd 2c ac 29 3f 69 7a 44 3e 2a 89 8b bf
       -0.1230293 0.6627834 0.19187321 -1.0901234
000220 05 82 89 bf bf 09 66 3e e6 8a f2 be 0b 6e 46 bf
       -1.0742804 0.22464655 -0.47371596 -0.7751166
000230 87 c2 3c bf f1 08 d8 3d e4 11 a9 3e 2f 01 14 3f
       -0.73734325 0.105485804 0.33021462 0.57814306
000240 2a 38 59 bf 73 8e 38 bf 30 78 00 3e 10 68 5a 3e
       -0.84851325 -0.7209236 0.12545848 0.21328759
000250 21 99 19 3f 2b ce 4c bf 9e 78 03 3e 11 ff 9b bf
       0.5999928 -0.8000209 0.1283898 -1.2187215
000260 8d 6d c4 bf 41 08 0b bf 24 bd d0 3d 6e 2b 20 bf
       -1.5345932 -0.5430947 0.10192326 -0.6256627
000270 74 bf 46 3e 8a 62 b0 3e db 7e e2 bc 2b 78 4e 3f
       0.19408971 0.3445018 -0.02764838 0.8065211
000280 1d 9b b5 bf 80 43 e1 3d ca b8 c5 be f7 f9 12 3e
       -1.4187962 0.10999203 -0.38617545 0.14353167
000290 65 92 44 3d 26 aa d8 be e4 f2 a6 be 0e a7 32 3f
       0.047991175 -0.42317313 -0.32607186 0.69786155
0002a0 b7 ae cc be 4c e3 37 be e6 df 01 3f 0c 68 bb 3d
       -0.39977047 -0.179578 0.50732267 0.09150705
0002b0 e3 c3 be be 19 77 6b bf ec 56 04 c0 6e cb 85 be
       -0.37258825 -0.91978604 -2.0678053 -0.26131767
0002c0 dd 01 1f bf 69 88 2a 3f 42 29 b5 3c 92 a8 a8 be
       -0.6211222 0.66614395 0.0221144 -0.3294111
0002d0 bf a3 2d 3f 43 ca e0 be f8 c3 da 3e bb c6 99 be
       0.6782798 -0.43904313 0.42727637 -0.30034432
0002e0 72 ca 51 3e f4 34 fa bf 57 fe e9 be 71 17 05 bf
       0.20487383 -1.954741 -0.45701858 -0.51988894
0002f0 15 f0 5e 3d 33 7c 30 be 31 cb 01 bf ba 1a fc be
       0.05442818 -0.17234878 -0.5070067 -0.4923914
000300 42 5c 93 bf f0 d2 b7 be 70 cc 3a 3e 40 14 fb 3d
       -1.151253 -0.3590312 0.18242049 0.12259722
000310 e3 96 20 3e bf 15 09 bf 75 b2 b5 3d 08 c8 bf 3e
       0.15682559 -0.53548807 0.088719286 0.374573
000320 fa fe 6a bf 80 4b 4a bf 4e 4f df 3e fd 9a f4 3e
       -0.91795313 -0.79021454 0.43615192 0.47774497
000330 ac 7d 09 be 4d 9b 78 be 70 b2 fa 3d 71 82 10 3d
       -0.13426846 -0.24277993 0.122410655 0.03528065
000340 eb 8e e8 3e c0 a2 26 bf e9 b2 b8 3f 57 05 92 3e
       0.45421538 -0.65092087 1.4429599 0.285197
000350 ca ec d6 3e 50 e5 02 be 5b 7f be 3e 33 d0 8f bd
       0.4197753 -0.12782788 0.3720654 -0.07022133
000360 c5 0b d7 3d b1 4e 43 3e 1e 86 81 be 29 72 8e bf
       0.10500292 0.19072987 -0.25297636 -1.1128589
000370 f1 d2 35 bf f9 28 0f bf 5f b9 e0 3c 18 0f 69 3f
       -0.71024996 -0.55921894 0.027432142 0.91038656
000380 54 28 33 3d b3 20 fd bd d7 4f 05 bd db de 83 be
       0.04373963 -0.123597525 -0.032546844 -0.25755963
000390 9c 9f 84 be 96 eb f0 3e 50 53 7b bd b1 64 ad 3e
       -0.25903022 0.47054738 -0.06135875 0.33865884
0003a0 53 25 a3 be cf f7 10 bf 34 ed 22 3f 83 c7 32 be
       -0.31864414 -0.56628126 0.63643193 -0.1745892
0003b0 2e 12 17 bf 99 e1 41 bf 80 93 8a bf ca 86 93 bb
       -0.59012115 -0.7573486 -1.0826263 -0.004502152
0003c0 7d d6 d1 bf 1a 7a 4e bf 04 62 48 3f ba 61 28 bf
       -1.6393582 -0.8065506 0.7827456 -0.6577412
0003d0 44 dd 8a bf 9b d8 8b 3e 97 3d 18 be 48 59 c4 be
       -1.0848775 0.27313694 -0.14867245 -0.38349366
0003e0 59 80 20 3f 7a c9 4f bf 6f f7 c7 3e 9d da 4d bf
       0.62695843 -0.81166804 0.39055964 -0.804117
0003f0 a4 5c 99 be 6d 35 f2 bd 64 1d 41 bf 0a fa 0c bf
       -0.29953492 -0.118265964 -0.7543547 -0.5506903

net.2.bias f4 [256]
000000 56 ea e4 3d 8e c2 22 bd b4 13 8d bd 19 3d fc bd
       0.111775085 -0.039736323 -0.06888524 -0.12316341
000010 a3 f9 58 be a7 d9 2a 3d 34 cf 0d be 6a ed 9d be
       -0.21188979 0.041711476 -0.13848573 -0.30845195
000020 87 2c 4a bd 9d 5f 97 3e 6d e4 16 bf d7 32 9c 3c
       -0.04935887 0.29565135 -0.589423 0.019067211
000030 4c 4b e6 bc 2e f3 87 bd 1e 62 1b bf 3d 82 21 bd
       -0.028112076 -0.0663818 -0.6069659 -0.039430846
000040 ed b9 be 3d ae a0 6e be 2d ab 3e bd f3 84 7f 3d
       0.09312806 -0.23303482 -0.046549965 0.06238265
000050 39 1d 1d bf 69 20 14 bd b2 64 b1 bd da 70 bc 3b
       -0.61372715 -0.03616372 -0.08661784 0.0057507576
000060 37 72 47 be ca c4 ed b9 25 ad 85 be 57 af f0 be
       -0.19477163 -0.00045350782 -0.2610866 -0.47008774
000070 8f 1d b7 bd c4 9d 75 bd 68 bf 00 3e d2 32 62 bf
       -0.08941185 -0.05996491 0.12573016 -0.88358796
000080 ba 33 b2 3d 70 2a 4b be 8f e3 07 bd 2c cf ff bd
       0.08701272 -0.19840407 -0.033176 -0.12490687
000090 e4 a0 50 3e 43 56 18 bf 25 48 01 bc e1 d4 39 bb
       0.20373875 -0.59506625 -0.007890736 -0.0028355645
0000a0 3d 8f ed bd de a7 0f bd b0 00 7b bb 90 b0 25 bd
       -0.11599586 -0.0350722 -0.003829997 -0.040451586
0000b0 14 8c 04 bf 26 31 d3 3d 88 52 49 bf 75 83 81 be
       -0.5177624 0.10312109 -0.7864156 -0.25295606
0000c0 c3 9e 73 bc 00 51 52 bf cc 61 7f be 02 d2 95 3d
       -0.014869395 -0.82154846 -0.2493965 0.073154464
0000d0 3e 94 65 bb 2e 1b 33 be 8b 61 b9 3e 6c 03 60 3e
       -0.0035030986 -0.17490837 0.36207232 0.21876305
0000e0 cf aa 4b be f7 94 5b bf a4 a7 04 bf 16 a9 bf bc
       -0.19889377 -0.8577418 -0.518183 -0.023396056
0000f0 c2 ad 9d bd 5b d3 fd bc 21 89 cf bd fa 76 15 3e
       -0.07699157 -0.030984571 -0.10133577 0.14596167
000100 a2 6a 14 bd 4e 46 0f bf 05 4e 0f be ce e2 77 3d
       -0.036234505 -0.5596665 -0.13994606 0.060519032
000110 f3 d6 1b 3e 99 65 d5 be fb 0d 8c bd 16 b4 36 3e
       0.15218715 -0.41679075 -0.06838604 0.17842135
000120 76 45 78 bd bf b0 79 bd 64 60 53 bf 2d ce f8 3d
       -0.060613118 -0.060959574 -0.82568955 0.121487
000130 23 37 a5 be bb 31 a3 be 96 2e 55 be 7d 03 bc 3e
       -0.32268628 -0.3187388 -0.20818552 0.3672141
000140 f7 54 40 3e c7 ac dd 3c e8 d3 d0 bb 04 e1 ba be
       0.18782412 0.027059926 -0.0063729174 -0.36499798
000150 54 95 96 be ec 14 3d bd 88 e7 37 bd b8 15 0b 3e
       -0.29410803 -0.04616253 -0.04489854 0.13582504
000160 07 d0 07 bc 7c 26 76 bf 8a 0a 02 3d 84 d2 90 be
       -0.008289344 -0.9615247 0.031748332 -0.2828561
000170 22 a3 15 3e b2 4e 2f bf 5a 79 24 3e b3 a7 02 bf
       0.14613011 -0.68479455 0.16061917 -0.5103714
000180 ba 33 32 3c 72 9e 07 bf 8b 46 29 bd da 28 73 bd
       0.01087659 -0.52976143 -0.04132704 -0.05936513
000190 3c 99 96 bd c1 0c 03 be 6f 97 5c bd 52 85 27 bf
       -0.07353446 -0.12797834 -0.053855356 -0.65437806
0001a0 a3 0a cf bd 4c 88 3c bf f8 86 9b bd 50 98 f2 3d
       -0.10109451 -0.7364547 -0.075941026 0.118454576
0001b0 19 30 b0 bc 33 e9 c9 3e f0 15 16 3c 50 5b 4f 3e
       -0.02150731 0.3943573 0.009160504 0.20249677
0001c0 b5 ef d4 be 74 0a 42 be a1 d1 26 bd d9 8d b0 bd
       -0.41589132 -0.189493 -0.04072726 -0.08620805
0001d0 73 3f b2 be a1 66 ea 3c 41 bf ba 3e 4a 17 ba bd
       -0.34814033 0.02861339 0.3647404 -0.09086473
0001e0 92 59 82 be 91 ae 01 3e c3 a3 f4 bc 0f c3 49 bd
       -0.25458962 0.12664248 -0.029863244 -0.049258288
0001f0 d1 c9 a6 bd 28 3b 43 3e 3b 3f 50 3c 56 78 22 bd
       -0.08143962 0.19065535 0.012710388 -0.039665543
000200 ef 74 6b be 22 0a 28 bf e1 f0 26 bd 38 ab 13 3d
       -0.22993825 -0.6564046 -0.040757064 0.03605196
000210 d5 fa 4b 3e 72 54 d7 3e 27 e6 06 be 60 c8 07 3e
       0.19919904 0.42056614 -0.13173734 0.13260031
000220 25 10 ee ba cc 61 7f bc 10 f8 1f bf e4 da 7f bd
       -0.001816277 -0.015587281 -0.6248789 -0.06246461
000230 03 c1 9f bd 37 c8 07 bd d6 c3 ee bb df 95 92 3e
       -0.07800486 -0.033149924 -0.007286529 0.28629968
000240 1a 5b 90 be 12 0d 9d be 9f 28 2b be ac dd 80 bd
       -0.28194505 -0.30674034 -0.16714714 -0.062922806
000250 45 4d 2a bf ec 75 50 bc 18 58 1b bd 98 89 46 3e
       -0.66524154 -0.012723427 -0.03792581 0.19388425
000260 7b f7 a0 3d e1 8f 13 be e0 5d 9c be 4e ca 86 bd
       0.07859703 -0.14410354 -0.3054037 -0.06581555
000270 5a 0b 4b be 3e 7e cc 3e 46 b2 b5 be 0e a0 8f bd
       -0.19828549 0.39940065 -0.35487574 -0.0701295
000280 85 81 98 be 18 97 c2 3c ca 55 3a be af 1b 1a bc
       -0.29786316 0.023753688 -0.18196788 -0.009406014
000290 7a b7 a4 be e1 f5 55 be 07 38 68 3c ab 93 f4 be
       -0.32171232 -0.20894577 0.014173514 -0.47768912
0002a0 12 4e 56 3d 66 af 11 3d 0f b0 3b bf d8 c0 92 be
       0.052320547 0.035567664 -0.7331552 -0.28662753
0002b0 1b b7 a0 3b 81 ac 5f bd 6d 00 6d bf 55 9f 86 be
       0.0049046404 -0.054607872 -0.92578775 -0.26293436
0002c0 a8 a6 a6 3c 73 8e f0 be 1c c8 96 bc 1f cc 87 bd
       0.02034314 -0.4698368 -0.018405966 -0.0663073
0002d0 4a f1 04 3f 77 05 a9 be d0 e0 1b bc 41 db b4 be
       0.5193068 -0.33011982 -0.009514049 -0.35323527
0002e0 77 cd ef be 5e eb 07 3d b4 ad c6 3e 88 26 4b bc
       -0.46836445 0.033183448 0.388044 -0.012399323
0002f0 78 b6 fa be f3 ba 04 3e 3f 32 01 be a1 ec 96 3e
       -0.48967338 0.1296194 -0.12616824 0.2947741
000300 db 9d 1f bf 13 29 08 3e 67 80 86 3d 17 5e 9a bd
       -0.62350243 0.13296919 0.065674596 -0.075374775
000310 81 72 b0 be 79 fa 54 bd 50 30 12 be 86 21 53 3a
       -0.3446236 -0.05199668 -0.14276242 0.00080540066
000320 09 bd 6b be c3 52 50 3c 50 91 25 be 87 05 e6 be
       -0.2302133 0.012715044 -0.16168714 -0.44926092
000330 4e 3c 10 bd 91 d7 89 bb 83 ea 07 be bf eb 92 be
       -0.03521376 -0.0042066057 -0.13273053 -0.28695485
000340 8e 1e 2e bf f2 33 94 bd d7 8d 2b bf ca 14 c7 3c
       -0.6801537 -0.0723647 -0.67013305 0.024301905
000350 74 d2 a0 bc cf d5 24 3e 49 ce e9 3c 00 26 c8 3e
       -0.019631602 0.16097187 0.028540747 0.39091492
000360 1b 31 7e bd 2f f3 87 bd a2 75 8b be a7 b4 f9 bc
       -0.06205855 -0.066381805 -0.27238184 -0.03048165
000370 fe 0e 4b 3e 0c 98 a7 be 15 5f a1 bc 75 fc 25 bf
       0.19829938 -0.3273319 -0.019698659 -0.64838344
000380 bb 6c 00 3d 8e 57 66 3b e6 4f 2c bd d8 43 92 bd
       0.031353693 0.0035147402 -0.042068385 -0.071418464
000390 b2 03 9e bd 2c bc b4 3d 7a 54 60 bd 8b 53 f5 bd
       -0.077155486 0.088249534 -0.054768063 -0.11978825
0003a0 bb 1c 3d 3e 6c 64 b3 bd 1d 23 ab bd de 63 1a be
       0.18467991 -0.08759388 -0.08356307 -0.15077159
0003b0 ea c4 9f 3c 70 85 df 3c f4 05 2a be c6 ab 0f be
       0.019503076 0.027285308 -0.16603833 -0.1403037
0003c0 5a 99 ba bc 53 be 10 3f e0 9a 2d 3e 08 33 7f bf
       -0.022778202 0.5654041 0.16953611 -0.9968724
0003d0 62 e6 56 bf b9 6c 13 bf 77 44 71 3d fa 52 32 3d
       -0.83945286 -0.5758777 0.058903184 0.043536164
0003e0 0e 1f 65 bc a0 76 92 bf f6 b0 5b be 6c de f5 be
       -0.013984455 -1.1442451 -0.21454224 -0.48021257
0003f0 d5 2e ab bb 8c 19 c6 be e4 5e a6 bd aa 57 d7 bc
       -0.0052240887 -0.38691366 -0.08123568 -0.026286919

net.4.weight f4 [2, 256]
000000 b0 9d 57 bf df 63 37 3d 3f 1a 88 bb ca 06 6b bf
       -0.8422499 0.04477298 -0.0041535194 -0.91807234
000010 3a 94 1e c0 bf e0 d0 3d 3f 32 4b 3e 8a c5 05 bf
       -2.477797 0.10199117 0.19843386 -0.52254546
000020 d3 4b 1f bd ad 31 e9 3c e2 50 b5 bd 8f 40 f1 bc
       -0.03889067 0.02846607 -0.08853318 -0.02944973
000030 ae 71 0f bd a7 6f d3 bd 7b 50 c1 bf 2b 6e ec bb
       -0.035020523 -0.1032403 -1.5102686 -0.0072152815
000040 7b 07 e4 3c ed bf 6e bf ae 37 87 bd 62 e6 d6 3b
       0.027835598 -0.93261606 -0.06602417 0.0065582255
000050 e4 8f da be dd 98 ee bc 78 5e 89 bc 54 96 e4 bb
       -0.42687905 -0.029125625 -0.016768679 -0.0069759283
000060 93 ed ad 40 8a fc 09 c0 7c ac 98 be 51 4a 2b 40
       5.4352508 -2.1560388 -0.29819095 2.676411
000070 64 33 98 bc 35 35 19 3d e4 39 3e c1 23 1b c4 bf
       -0.018579192 0.037404258 -11.889133 -1.5320781
000080 85 94 e3 c0 c9 28 57 40 93 ee 45 bc 02 33 a9 40
       -7.11188 3.3618643 -0.012080806 5.2874765
000090 37 23 1c be 71 51 92 bf dc e4 74 40 cb de 7f be
       -0.15247808 -1.1431104 3.8264685 -0.24987333
0000a0 d6 aa 24 3e 78 04 c3 3c cd 4e b4 bb 62 29 28 bc
       0.16080794 0.023805842 -0.005502558 -0.010263773
0000b0 6d f1 a2 bf da b0 ea bf 0e da 07 40 20 68 3d be
       -1.2729927 -1.8335221 2.122684 -0.18496752
0000c0 0e ca 27 be d7 d2 84 bf 7a 70 cd be 86 0e 88 40
       -0.16385671 -1.0376843 -0.40124875 4.251773
0000d0 cf 97 cb 3e f9 7b 33 40 12 eb d4 bd 32 72 66 bd
       0.39764258 2.8044417 -0.103963986 -0.05626125
0000e0 0b 87 7e 40 cf 6e de bf da 05 d7 3f 4a 99 32 3c
       3.9769924 -1.7377566 1.6798661 0.010900805
0000f0 1b 4b 16 bd 10 11 92 bc 6f 04 c3 40 69 1a a4 3f
       -0.03669272 -0.017830402 6.094291 1.282056
000100 83 87 17 3c 34 12 c7 3c 22 20 96 bf 01 91 aa 3c
       0.009248617 0.024300672 -1.1728556 0.020821096
000110 66 08 2b c0 cd 7f dd 3f 34 59 5a 3d fd 3a 36 41
       -2.6723876 1.7304627 0.053307727 11.389401
000120 86 91 07 bd 58 82 12 3c c9 ce 01 c0 0a b2 8c bd
       -0.033097766 0.008942209 -2.0282462 -0.06869896
000130 51 b7 26 40 84 42 2d 41 c3 40 8b 40 7b 34 df ba
       2.6049387 10.828739 4.3516555 -0.001702919
000140 e8 82 d5 be 02 62 61 bd 02 38 bd bc 29 94 e1 be
       -0.41701436 -0.05502511 -0.023097996 -0.4405835
000150 65 33 98 3e a2 5b f3 3d 62 f8 59 c0 c4 a1 0d c0
       0.2972671 0.11882712 -3.405785 -2.2129984
000160 22 1d f3 3c 76 59 11 c0 d7 82 e5 3c 2f 23 01 3e
       0.029676978 -2.2710853 0.02801649 0.12611078
000170 72 79 e1 bf 2d 92 cc bf ec 7c 62 3e 75 43 a3 bf
       -1.7615187 -1.5982109 0.22117966 -1.2754961
000180 43 91 d0 bc a7 0d c7 3f 25 a7 86 c0 8f ea 54 bb
       -0.025459891 1.5551041 -4.2079034 -0.003248844
000190 ae 15 9b bc d1 6a 91 3c 76 32 ad bc d0 75 5f c0
       -0.018931236 0.01775113 -0.021142226 -3.4915657
0001a0 d6 9f ad 40 13 8c 84 bf 5f 8c c9 3b ba e8 8c 40
       5.425761 -1.0355247 0.0061507667 4.403409
0001b0 eb 4e ec bc c3 f9 6f 3f 58 2f 95 3f 32 bd d9 bd
       -0.028846225 0.9374048 1.1655073 -0.10631789
0001c0 d5 cb 49 3e 8f 59 01 bd 4d 3c 10 bd 87 5e a5 bc
       0.19706662 -0.03157955 -0.035213757 -0.020186676
0001d0 c7 50 c2 3f 9a cf c3 bc 97 96 9b c0 da 70 bc 40
       1.5180901 -0.023902703 -4.8621325 5.888776
0001e0 b7 61 1c 41 3e 55 b0 3c 31 ee 56 bf 63 8f 33 bd
       9.773856 0.021525022 -0.839572 -0.043837916
0001f0 5c 05 59 3a 43 4e 7f 41 8f b8 79 3d b2 08 16 bd
       0.00082786917 15.956607 0.060967024 -0.036629386
000200 e0 26 e3 3e 6a 30 03 bf 1f 7d b8 bc e0 46 c3 40
       0.44365597 -0.5124575 -0.0225206 6.1024017
000210 65 83 08 bc da 92 9d 3b ef 7b 59 40 8d 7e a1 bf
       -0.008332108 0.004808766 3.3981893 -1.2616745
000220 06 c5 90 bb d4 55 8f 3d d1 0c bd bf cc 7d 6c 3c
       -0.0044180183 0.06998792 -1.4769536 0.014434289
000230 73 17 47 3c 4f dc ca 3c dd 2a 0f bd 01 95 43 c0
       0.012151587 0.024763254 -0.034952987 -3.0559695
000240 e6 92 58 3f d9 4b ca 3f 36 e9 af bf be c5 96 c0
       0.8459915 1.5804397 -1.3743045 -4.7116385
000250 41 f5 5c 3f 60 08 c3 bf cd cb b4 ba 60 0c 17 40
       0.8631173 -1.5236931 -0.0013793648 2.3601303
000260 fb af 05 40 89 8a 81 40 40 36 9e 40 c7 33 87 3d
       2.088866 4.048161 4.9441223 0.066016726
000270 e7 22 8b be de 13 8a bb 01 f4 01 40 0f 89 9a bc
       -0.27175066 -0.004213794 2.0305178 -0.018864183
000280 57 66 25 bf bd 10 3f 3e f6 0f 1a c0 42 bf 3a bc
       -0.64609283 0.18658729 -2.4072242 -0.0113981385
000290 d7 b1 7c 3c 45 32 c9 bc 79 63 81 3d eb 1c a4 bf
       0.01542326 -0.024560103 0.06317801 -1.2821325
0002a0 9f 10 53 3d 06 26 24 3c 17 cd 5e bf 9e 8d 07 3f
       0.051529523 0.010018831 -0.8703169 0.52950466
0002b0 d0 4c a6 3e 4a 1c 32 bd d8 f5 87 bf dc 93 f6 3f
       0.32480478 -0.04348401 -1.06219 1.9263873
0002c0 fb 30 46 bc 9d 3b 33 bd 72 4c fe bc e5 c2 23 41
       -0.012096639 -0.043758024 -0.031042311 10.235082
0002d0 d0 4a 60 be 5c 15 4e bf da 04 32 bc fe b5 9c bf
       -0.21903539 -0.8050134 -0.0108654145 -1.224304
0002e0 f3 a0 6c 40 49 51 e9 bb 47 4b 0e 3f 38 4a 00 bd
       3.6973236 -0.0071202856 0.55583614 -0.03132078
0002f0 60 5e 5f c0 55 89 18 bb fe 9c af 3f 7f ec 00 c1
       -3.4901352 -0.0023275216 1.3719785 -8.057738
000300 a2 44 fe 3e 76 95 74 be 74 69 4c c1 e0 07 1c 3e
       0.49661738 -0.2388514 -12.775745 0.15237379
000310 71 8a 57 bf 39 3f 10 bd 63 23 29 3f 4f 54 d3 bc
       -0.8419562 -0.035216544 0.6606962 -0.025797037
000320 cb ed 63 40 b7 96 53 3b 3d ab da be 54 17 8f 3d
       3.5613887 0.0032285878 -0.4270877 0.06986871
000330 18 d1 f1 bc b0 8c 9c 3b 92 9d 62 bf 7b 74 90 3f
       -0.029518649 0.0047775134 -0.88521683 1.1285547
000340 85 e9 9d bf 2a db fd bc 31 2d 1c bc 5e f0 09 c0
       -1.233689 -0.030988295 -0.009532259 -2.1552958
000350 3c 9e 0e bd ee 90 36 41 40 0e 8a bb 73 ba 58 3d
       -0.034818873 11.410383 -0.0042131245 0.052912187
000360 b0 f3 2e 40 10 0b 13 3f 14 a4 47 bf 47 d8 12 3e
       2.7336235 0.57438755 -0.7798474 0.14340316
000370 4b 4d 81 40 11 c0 c1 bd d5 b6 a2 bc 88 2b 58 3f
       4.040685 -0.09460462 -0.019862572 0.84441423
000380 a8 be 65 bb d6 2f 79 bc 11 5b b0 3c d1 dc f1 bb
       -0.0035056267 -0.015209159 0.021527799 -0.0073810597
000390 18 9d c1 3b 0e 40 4a c1 ec c0 75 bc 44 5f f5 3c
       0.0059086196 -12.640638 -0.014999609 0.029952653
0003a0 02 ee 82 3d 45 d0 f7 bc 9d e4 2a 41 31 4a 5d bd
       0.06393053 -0.030250678 10.680814 -0.054025833
0003b0 ff 5b 1b bc eb 32 7f 3d 8f 17 b8 3f aa 4f 03 3f
       -0.009482383 0.06230442 1.438219 0.5129343
0003c0 8d da 90 bf 6c 52 02 3e a4 0d 3c bc 32 62 14 3f
       -1.1316696 0.12726754 -0.011477862 0.57962334
0003d0 d4 c9 ed 3e 09 93 7c 3f b6 5e f9 c0 aa 44 0c bd
       0.46443045 0.9866186 -7.7928114 -0.03424517
0003e0 d9 28 f3 3b 82 ab 58 3f 58 a5 4c 3f 27 29 22 bf
       0.007420641 0.846367 0.79939795 -0.63344043
0003f0 49 c9 f1 ba 4b cb 8d bf c0 8b b9 be c4 1f ee bc
       -0.0018446828 -1.1077665 -0.36239433 -0.029067881

net.4.bias f4 [2]
000000 f4 79 fa be 26 2e f6 be
       -0.48921168 -0.48082083
