manually_saved_runs/no_offset_ddpg_0/task_params.npy (npy, 2048 bytes, 1 tensors)

array f8 [120, 2]
0	0x3fbd4a3dad2c7184	0.1144140765940787
1	0xbfa09e1061483127	-0.03245593249821104
2	0x3fb9979c28542330	0.09996963486277077
3	0x3fc57d2291397cf0	0.16788131800692652
4	0x3f5dbb9db40b0c00	0.0018147506781793776
5	0xbfc8282d6d444d52	-0.18872611842435078
6	0xbfb40a0fb3e10d17	-0.07827852384166466
7	0xbfb20085399be8f7	-0.07032044083090115
8	0xbf63d32425827b34	-0.002420015906025164
9	0xbfb976ac3637b727	-0.09946705173180402
10	0x3fa9e6a6eefe1b6d	0.050587860750105
11	0xbf9ee56b65345de7	-0.030172040988956452
12	0x3fc44da794db4285	0.15861983078368183
13	0xbfa3e5dde97072c0	-0.03886311983680946
14	0xbfc4988a355a6848	-0.16090514760145624
15	0xbfb1ba8725d1a263	-0.0692524401980648
16	0xbfc4b3c00cee5a9c	-0.1617355406894675
17	0xbfc80155393390c2	-0.18754067700422722
18	0x3fbd1bd36141bffa	0.11370583652910674
19	0xbfbb615f9fe65c27	-0.10695455220989968
20	0xbfbaf731223bc30d	-0.10533434949662653
21	0x3fa65fc6c88037e7	0.04369946668167284
22	0xbfc26a1d3f160fbd	-0.14386334972743767
23	0xbfc49c85f26383a2	-0.16102670989405704
24	0x3fc950094f1d1368	0.19775501597373624
25	0x3fb1ae9df5602d87	0.06907069435708567
26	0x3fc2f135bab7934d	0.14798614136739233
27	0x3f6f6152f0aa7ecd	0.003830587379823536
28	0x3f9e193a465e0b27	0.029393110794909163
29	0x3f72447e01bfb200	0.004459850515541763
30	0xbfc94148c307781f	-0.19730481646451012
31	0x3fc323b563d0a73d	0.14952723859578923
32	0xbfc70b0e5b715a0a	-0.18002490487079142
33	0xbfc3feeb44305372	-0.15621701077966638
34	0x3fc7d6161bda853f	0.18622089729346133
35	0xbfc5eda0fcf2c2a4	-0.17131435729017597
36	0xbfc8a8691a354360	-0.19263948230448147
37	0x3fa28b723ad5a780	0.03622014015384334
38	0x3fc2e6ce4655ae08	0.14766863283453824
39	0xbfc38d1824d067cf	-0.15274335668146796
40	0xbfc8c81343275d84	-0.19360581187241277
41	0x3f7d55eb5e0d6000	0.007162017253754982
42	0xbfc3668243934107	-0.15156582164355134
43	0x3fc0e1c86d0e87aa	0.13189034771954528
44	0x3fc5da3d7cf2c90a	0.17072266198153613
45	0x3fa7b739917d900d	0.04631976986891582
46	0x3fc3fa9d698ca38a	0.15608565953996517
47	0xbfc45a5693b96822	-0.15900690281961355
48	0xbfc12fc863548bf0	-0.13427071428404203
49	0x3fc8de1d6d4c5f90	0.1942784103091495
50	0x3f9f6a0da12f759a	0.03067799850747619
51	0x3fb987af8936165d	0.09972664928326354
52	0x3fa66a136beb4bd4	0.04377804462787763
53	0x3f95461a8309c174	0.020775236366206554
54	0xbfb5a75823e04ce4	-0.08458472133525025
55	0x3fc6811dacaf51cf	0.17581530506016782
56	0xbfa3168b7cccc873	-0.037281378731123825
57	0x3fb4372f712f2c3a	0.07896706116950805
58	0xbfc7ed1737abdcba	-0.18692293375327101
59	0xbfb4aa4f7254af37	-0.08072372952727568
60	0xbfb97b7c8be288e0	-0.0995405046001312
61	0x3fc43b0ff43189ac	0.15805243896018106
62	0x3fc27013a865f1ef	0.1440453121430347
63	0x3f71dd1935582767	0.00436124655744572
64	0xbfc15690220d2e8a	-0.13545419371290662
65	0x3f87e9107d80b867	0.011675003843347477
66	0xbfc311dc2b66c10f	-0.1489825450821702
67	0x3f312f6b5f34199a	0.0002622258318329074
68	0x3fc84e66a3afa46a	0.1898926066635654
69	0xbfb669f31e061424	-0.08755416377069075
70	0xbfa597a7354f0040	-0.04217264676799504
71	0xbfc8191b2cd4ae38	-0.18826617897990316
72	0xbfa466ac3818e3b4	-0.039845830772214624
73	0x3fbdb6cfdfb9562d	0.11607073986063972
74	0x3fb01055bc645577	0.06274925088322002
75	0x3fa4584c33b3dcda	0.039736157714224965
76	0xbfa081bef6fe1b3a	-0.03223988308950827
77	0xbf567b634ee82e67	-0.0013721914107262202
78	0x3fc1b9b64be6aee0	0.13847998338802991
79	0x3fb82e7596022c1a	0.09445891296688594
80	0xbfc90313338cabac	-0.19540634171548044
81	0xbfaf8a7a29a742ad	-0.06160337217773324
82	0x3f77ccbfab8e3b67	0.005810497962456341
83	0x3fc82427bea7ef62	0.18860337075590922
84	0x3fb3573ff65cc8d0	0.07555007710178363
85	0x3fab4e16868dc8a0	0.05333013908865891
86	0xbfc5180a649ac29d	-0.16479616081553142
87	0x3fc238389e5b1020	0.14234073383534085
88	0xbf63235567f1f400	-0.0023361843191751497
89	0xbfc2b54177d16e1f	-0.14615648603909023
90	0xbfbd982cf45bb97a	-0.11560326543597013
91	0x3fb7bb395db5d71d	0.09270056283807233
92	0xbf81693ad70923cd	-0.008501491248482563
93	0x3fc8410fd44fc497	0.1894855295827582
94	0x3fc02cae730bc332	0.1263635694263257
95	0xbfa9a2fb58c0dfba	-0.05007157762923904
96	0x3fbc5b42de2ece80	0.11076753544221596
97	0x3fc8254d3ab1b8b7	0.18863835683754868
98	0x3fbdd775dc9590a7	0.11656891475064644
99	0x3f9a9e90510d064d	0.025995497652962652
100	0xbfa5a2905365693a	-0.04225588815707444
101	0xbfb345ea0b6c1940	-0.07528555659164216
102	0x3fb1e76b281ffde3	0.06993741731275054
103	0x3f976d118ff952c0	0.022877001202078473
104	0xbfb1533fbe3dde23	-0.06767652887889901
105	0x3fc6f16da04f8630	0.17924280479114563
106	0x3fbca4d25e2ba1da	0.11188998030741662
107	0x3fc37166db24f378	0.15189824772269467
108	0xbfa55021f2e84a00	-0.04162698831727951
109	0xbfb875bd27a9b6bd	-0.09554655283292397
110	0xbf96fe4740f9908d	-0.022454369869948244
111	0x3fc4b7c720cb2512	0.16185845471617505
112	0xbfa0675b6845f933	-0.032038551787069734
113	0x3fb405c24e565cc0	0.07821287548573519
114	0xbf4b339446879ccd	-0.0008301233293054544
115	0x3fbca7919446c764	0.1119318949702382
116	0xbf8f719ec2dd5c67	-0.015353432008551061
117	0xbfbf331458289c7a	-0.12187316086111535
118	0x3fc96f88de75313a	0.19871626722523122
119	0x3fb226eb9b98d25d	0.07090637730363754
120	0xbfb7526ef91998ba	-0.09110158521216052
121	0xbfac7db18bcddd9a	-0.055646465602815456
122	0x3fc361578cccd0da	0.15140814185145396
123	0xbf985187c58e53e7	-0.023748513634547577
124	0xbfc46ab11714ecf4	-0.15950597407377354
125	0x3f8ffd0ef8a8b11a	0.01561938949915791
126	0x3fa4ed7741f429a7	0.04087422065829865
127	0xbfbb0840922fa0ed	-0.10559466904635757
128	0xbf5ab395c9842a67	-0.0016297304883347242
129	0xbfb959042ee5cff4	-0.0990145315643643
130	0xbf93579aafaf03c0	-0.01888887116706761
131	0xbf916f6a5a91b95a	-0.017026578691394213
132	0x3fc1056a6d30262a	0.13297777491998036
133	0xbfabd3a60df3698d	-0.05434912605570039
134	0x3fa3988fd00e0fba	0.03827332892163278
135	0x3fb43a7fe8b6a747	0.07901763373834313
136	0x3fa2653ed390155a	0.03592869122079874
137	0xbfc8afee802981e8	-0.19286900766293447
138	0xbfc55291a5c7e55a	-0.1665823039509558
139	0xbf966ac9fb159827	-0.02189174265858909
140	0x3fb210422fe292ea	0.07056058568066317
141	0xbfc7b57645531d44	-0.18522528061860488
142	0xbfc6853c34f2957c	-0.17594101510364257
143	0x3fba237a0400e634	0.10210383031599052
144	0x3fa8379eb8bd8d0d	0.04729934697277303
145	0x3fc2896868a927aa	0.1448183547057032
146	0x3f9a709f83740cf4	0.025820248029970252
147	0x3fbd792516cc76ba	0.11512977415665207
148	0x3fbc7f7b8ef2e56d	0.11132023086510907
149	0xbfc00d64de084d45	-0.1254087528364868
150	0xbfbf7523bf47bee7	-0.12288115901878492
151	0x3fb132bbf906306a	0.06718039350215724
152	0x3fb8014d94dce2fd	0.09376988300654072
153	0xbfad50bbdb9f5c2d	-0.057256575164210545
154	0x3fc0ad63ac92e7fa	0.1302914230962527
155	0x3fb0d33c583dc71d	0.06572320131615723
156	0xbfc7d4e0e0d0f5b0	-0.18618403413158324
157	0x3fc961bffc738ebd	0.1982955916092716
158	0xbfb59612246014d4	-0.08432114971226962
159	0xbfa87a67f9a9d3a7	-0.04780888483666184
160	0xbf91a3338eab1367	-0.017224126417903742
161	0x3fbd4d3ec372dcca	0.11445991775223088
162	0x3fc519c78059e49a	0.16484922186990475
163	0x3fa88f47b5642ab4	0.04796814049958212
164	0x3fba530906f367d0	0.10282951755235037
165	0xbfb505b601a9fa07	-0.08211839237808514
166	0xbfa5fb150d9c65d4	-0.042931230460634545
167	0xbfac6aba7b57349a	-0.055501773411017655
168	0x3fbda97f4db7d84d	0.11586757323661452
169	0xbfbc2d4746059594	-0.11006589374081549
170	0x3fc018f57b100d83	0.12576168545647812
171	0xbfb56342cf955cca	-0.08354585235553028
172	0xbfb54dc615dc8607	-0.08321798356748654
173	0xbfc3e666291641ff	-0.15546872144888366
174	0x3fbf745d10d507dd	0.12286931668225472
175	0x3fc41b70c0061bcc	0.1570874154678833
176	0xbfa6c42b58a1e787	-0.04446540314616159
177	0xbfc530e9b8858f2f	-0.16555520543908517
178	0xbf88d236761b2480	-0.012119698981580607
179	0xbfbe0a5c44454727	-0.11734558741343602
180	0xbfc5da275d18f577	-0.17072002454544208
181	0x3fc3ad778c2698cc	0.15373129218386905
182	0xbfbab2b94bfe2c50	-0.1042896090058758
183	0xbfbf5b8ed92ff0ed	-0.12249081423209747
184	0xbfb38e2a57e8ad30	-0.07638802190983962
185	0xbf740a20f1c0df34	-0.004892471970428681
186	0xbfb6f873fea6afc0	-0.08972859351223317
187	0xbfa6596b09cef134	-0.04365095610362105
188	0xbfc95230d18ec6d0	-0.19782076103506663
189	0x3fc37bd82cba0ead	0.15221693214345092
190	0x3fc1fe9d82e3a9bf	0.14058274165229354
191	0xbfb50adbb6ed6650	-0.08219693389892169
192	0x3fa1140058e5771a	0.03335572323952203
193	0xbfab40705012dea0	-0.05322600343191408
194	0x3f9d98a82a5a8700	0.02890265234476086
195	0x3fbe0b4eeb8cb567	0.11736005068515497
196	0x3fb7425a8d69b554	0.09085622742141669
197	0xbfb43d8f65b92f6a	-0.07906433328133536
198	0x3fa370447a8a2e40	0.03796590801092892
199	0x3fc23012c2810b1a	0.14209208009023017
200	0x3f7d57e25724a2cd	0.007163890974233933
201	0xbfc049d004819c98	-0.127252580833759
202	0xbfc239cbc40ab30d	-0.14238879272797825
203	0xbfc364e28b4fbc87	-0.15151626398389714
204	0xbfc89d89594a2fcf	-0.19230763301709294
205	0x3fbfa4774176c8e0	0.12360329960100414
206	0xbfb98a67c6749ca7	-0.09976814837556224
207	0xbfa56e6ee535bd94	-0.04185816333744721
208	0x3fad5182490a1314	0.05726248876184151
209	0xbfc0db3270392f23	-0.13168936233193404
210	0x3fa4510da4c16fe7	0.03968088756730009
211	0x3f813bb04f16fde7	0.008414628423337468
212	0xbfb9a06e11e8d1f7	-0.10010421693079495
213	0xbfc9542c10c79858	-0.1978812295848822
214	0x3fc259212292fb0b	0.14334501445952016
215	0xbfaaa6ac280330a7	-0.05205286014970172
216	0xbfc1905acac16b22	-0.13721785450146579
217	0x3f9e0f41e8e0855a	0.02935507758968945
218	0xbf9368820836a75a	-0.018953353644668304
219	0xbf9415efaf6779c0	-0.01961493022997174
220	0x3f7594d5ddb38234	0.005268893636838846
221	0x3f8893d752ce1e34	0.012000734533798775
222	0x3fa22abdcaad38fa	0.035482340803911286
223	0x3fb03727a60044d0	0.06334159662971506
224	0x3fc7052af7e34f48	0.17984521011259802
225	0xbf9a41653e357f4d	-0.02564008896058505
226	0x3fc72f4839ab0882	0.18113043609452367
227	0xbfb2153329ede5ed	-0.07063598416961954
228	0xbfc04b28854915d8	-0.12729364879684968
229	0x3fb1735a586a217d	0.06816639574583934
230	0x3fc55cca8e427d5d	0.16689426370883612
231	0xbfaac24a92ac0b94	-0.05226357498579329
232	0x3fc71e3d32a7bdaf	0.18061032269859598
233	0x3fafe617211441ad	0.06230232504651965
234	0xbfb3c7c004216af0	-0.0772666940769502
235	0xbfb1ad5711cd0250	-0.06905121025648353
236	0xbfc4f79614fcae08	-0.16380573296315526
237	0x3fc0469f20a431c2	0.12715519994561758
238	0x3fc45555c895a52a	0.15885422033469726
239	0x3fc19fef05df3cea	0.13769328867645153
